entrega_final/AutogluonModels/ag-20250719_212725/models/DeepAR/W1/gluon_ts/prediction-net-state.pt (torch, 98912 bytes, 11 tensors)

model.param_proj.proj.0.weight f4 [1, 40]
000000 43 61 cd bd da ce 46 3e ba 58 ba ba 3f 20 f0 be
       -0.10028317 0.19414845 -0.0014217116 -0.46899602
000010 72 75 1b be 78 85 b6 3d 51 8c bc 3d ad 67 0c 3e
       -0.1518152 0.08912176 0.09206451 0.13711424
000020 d8 03 c8 3e 64 68 04 bf 51 db bc 3d 40 a1 99 3c
       0.39065433 -0.5172179 0.09221519 0.018753648
000030 9a 54 3a 3d ed ac 76 bd 51 4d d5 3d 92 47 01 3d
       0.04549084 -0.06022351 0.104151376 0.031562395
000040 83 d4 56 3d 3a 1b 67 3e 40 ac aa 3e 7f b1 2d 3f
       0.05244876 0.2256898 0.3333454 0.6784896
000050 82 bc 99 bb 97 8b 67 be 30 1a 09 3e cf 0c 7b bd
       -0.0046916613 -0.22611843 0.13388896 -0.061291512
000060 1e 54 aa 3e 1f 75 5b 3e a6 2d 5f 3e 62 89 6c 3e
       0.332673 0.21431397 0.21794757 0.23099282
000070 7b 22 3f be 65 ae 1e bf 75 6e b1 3e e4 7e 7d be
       -0.18665497 -0.61984855 0.34654585 -0.24755436
000080 ff c6 e3 bd ec 86 05 be 16 bf 2e bf 48 df b0 3e
       -0.1112194 -0.1303975 -0.68260324 0.3454535
000090 a6 34 14 be c0 c6 86 be 71 f6 7e be fd d5 4f be
       -0.14473209 -0.2632351 -0.24898697 -0.20296474

model.param_proj.proj.1.weight f4 [1, 40]
000000 17 e7 c1 bd 2e f2 36 3e 92 ff 1e be 40 73 10 be
       -0.09467905 0.17865822 -0.1552718 -0.14106464
000010 8f 2a 4f be 6a 7d a5 bd dd 6d 61 3e 1d c2 38 3d
       -0.20231079 -0.080805615 0.22014566 0.045106996
000020 95 56 1c be 7d c0 ed bc d1 5d a3 bd e7 86 0e be
       -0.15267403 -0.02902245 -0.079768784 -0.13918649
000030 4b d0 20 be b8 fe e2 bd c7 2d 71 3e 09 11 70 bd
       -0.15704457 -0.1108374 0.23552619 -0.058609996
000040 51 5f 14 3e e5 a6 32 3e dd 5a fa 3d 8f 5e d5 bd
       0.14489485 0.17446478 0.12224362 -0.10418426
000050 44 cc 60 3e cc 7c 65 bd f7 aa a1 3d 39 81 df bd
       0.21952921 -0.05602722 0.07893937 -0.10913319
000060 0a 0a 27 3e 4d ac 99 3e a8 f4 32 3d ed 0d b0 3d
       0.16312423 0.30014268 0.043690354 0.08596406
000070 7c e2 0a be 6a 70 85 3d 81 46 0a be 27 3d db bd
       -0.1356296 0.06515582 -0.13503458 -0.10705023
000080 f0 6e 4f be ee f0 cf bd 3a 8e 01 3d f7 33 82 3d
       -0.20257163 -0.101533756 0.03162978 0.06357568
000090 1d 44 a1 bd 88 bd a6 3e 41 79 2a be 2f 72 33 be
       -0.0787432 0.32566476 -0.16647817 -0.17524026

model.param_proj.proj.2.weight f4 [1, 40]
000000 14 25 45 3e de 0c d6 bd 69 c2 1b 3e 84 7f 31 3e
       0.19252425 -0.10451673 0.1521088 0.173338
000010 fa b7 7b bc a2 a6 78 3b 06 97 5a 3d 04 69 1a be
       -0.015363688 0.0037941118 0.053366683 -0.15079123
000020 ef 3d 0a be cb 59 c8 3e 1c 83 83 be ca 98 2f bd
       -0.13500188 0.39131007 -0.25685966 -0.04287032
000030 4e fa 8f 3d 35 8f 9c 3d 66 40 d7 3a 6d 5e 83 3d
       0.07030164 0.07644502 0.001642239 0.06414495
000040 2e 77 92 3d 65 dd 62 bd fe 4c 5c bd 6c 80 62 be
       0.07151638 -0.05538692 -0.053784363 -0.22119302
000050 3c 4f 19 3e 61 26 b3 3e ac ab 21 be 85 17 77 3d
       0.14971632 0.34990218 -0.15788144 0.060325164
000060 48 87 b3 bd 21 71 75 3d b8 78 5a be b6 84 1c be
       -0.08766037 0.05992234 -0.21335113 -0.15285
000070 29 70 8d bc 09 35 85 3e c7 1a 3b be 1a 3a 5a 3e
       -0.017265396 0.26017025 -0.18271933 0.21311226
000080 be 2b f8 bc 90 07 95 3d 60 5f 7e 3e 84 df 03 be
       -0.030294295 0.07276833 0.2484107 -0.12878233
000090 c5 bd 4b 3d 80 d1 ca 3d d4 18 64 be 99 d0 39 3e
       0.049741525 0.0990324 -0.22275096 0.1814598

model.rnn.weight_ih_l0 f4 [160, 21]
000000 bc 0e a5 3e ca 85 aa bb f0 2e d0 be 6f 78 67 3f
       0.32237804 -0.005203937 -0.4066081 0.9041814
000010 98 97 50 3f ad aa 7d 3e e6 2b 97 3e 89 52 8b 3d
       0.81481314 0.24772139 0.2952568 0.06802852
000020 84 01 cd 3e 4f 7d ab 3c 40 84 85 be ea 89 c7 3b
       0.4004022 0.020933775 -0.2607746 0.0060894387
000030 bc 03 f1 bd 3d 0b c6 3a 7c 6a fd 39 78 2a ff bb
       -0.117682904 0.001510955 0.00048335257 -0.007787045
000040 3e 1a 92 bd 10 31 bd 3c 2a 83 3f 3e bf 43 ca 3e
       -0.071339116 0.023094684 0.18702379 0.3950481
000050 d4 76 73 3e ef 9c a7 3e b2 7f e6 bd b9 13 03 be
       0.23775798 0.32736918 -0.11254825 -0.12800492
000060 08 94 0a be 3b 53 92 bd 5d 55 57 3d 79 36 5d 3e
       -0.13533032 -0.07144781 0.052571643 0.21602811
000070 72 20 47 3d 2a 52 da 3d 5f 65 1c 3d 9e c8 3c bd
       0.048614927 0.10660203 0.038182613 -0.04608976
000080 b8 39 79 3e 0d 9b 97 bc bc 16 97 bb 79 f4 85 bc
       0.24338424 -0.018506551 -0.0046108644 -0.016351925
000090 db 43 b1 bc cd 35 fc bd 0a 51 e3 b9 9e 4b 0c bd
       -0.021638801 -0.12314949 -0.00043357193 -0.0342518
0000a0 ef a7 3e be ae 66 a7 bd 5c 62 c6 3d cd c2 96 3e
       -0.18618749 -0.081738815 0.09686729 0.29445496
0000b0 ac a6 01 3d dc 4c 70 3e 6b ae 8a 3e a2 a6 19 3e
       0.03165309 0.2346682 0.27086195 0.15004972
0000c0 f7 05 05 be f1 10 8c bb 80 1f 26 3e 22 b2 5c bc
       -0.12990557 -0.0042744805 0.16222954 -0.013470205
0000d0 56 b0 3a be 5f 54 64 3e cf b3 fb bd 68 8d 83 bc
       -0.1823133 0.2229781 -0.12290155 -0.016058639
0000e0 39 e5 b5 bb e7 18 4b bc 08 91 1b be b9 19 ad bc
       -0.005551007 -0.012396074 -0.15192044 -0.02113043
0000f0 b0 b6 3d bd 44 db 6f b8 fb 77 97 3d d1 0b 15 3e
       -0.046316803 -5.7186247e-05 0.07395931 0.14555289
000100 c5 2e b8 3e fc 40 69 3e 37 14 88 3e 37 7d c6 3b
       0.35973182 0.22778696 0.26577923 0.0060574072
000110 ab 2d 00 3e e9 48 4f 3d f8 9a dc 3d 55 d9 a5 bd
       0.12517421 0.050606642 0.107717454 -0.080980934
000120 4d cc 09 be c0 07 22 3e 69 de 49 3e fa f2 60 3e
       -0.13456841 0.15823269 0.19713749 0.21967688
000130 24 b0 7d bc 5c 6a 61 bc 32 fc d6 bb ac c7 35 be
       -0.01548389 -0.013758268 -0.0065608257 -0.1775195
000140 0e 68 ca 3a d8 f2 a4 3d 51 3b fa be 19 e2 b8 3e
       0.0015442388 0.08054131 -0.4887338 0.3611
000150 9b 76 34 3e 39 a3 3e 3e fd c5 ca 3c 55 2e af 3e
       0.1762337 0.18616952 0.024752611 0.34215036
000160 47 36 d2 3d 56 29 40 3e 10 f9 40 3e 8e 78 ad 3d
       0.10264259 0.18765768 0.1884501 0.084702596
000170 f7 b2 09 3e 60 d8 cc 3d 7a 12 99 3e 25 53 2f be
       0.13447176 0.10002208 0.2989691 -0.17121561
000180 55 33 94 3e 44 5b 1a 3c af e6 a7 bb df 75 ae bb
       0.28945413 0.0094211735 -0.005123935 -0.00532411
000190 ec 30 8c be 61 70 8a 3c 4e 93 67 3e d0 fb 8b be
       -0.27381074 0.01689929 0.22614786 -0.27340555
0001a0 16 ac ed bd e0 bf 4a 3e ab 34 87 bd 12 db f2 bc
       -0.116050884 0.19799757 -0.066018425 -0.029645476
0001b0 bb 76 07 bc 02 ca 13 bd 50 12 f4 bc 59 6d 2d 3e
       -0.008268054 -0.03608132 -0.029793888 0.16936244
0001c0 58 f5 cc bd 27 b6 58 be fa 2e 09 be ea bc 98 bd
       -0.10007733 -0.21163236 -0.13396826 -0.074579075
0001d0 b6 fc 82 be c1 94 8c bd ee 4a 2e 3c 01 39 a5 3c
       -0.25583428 -0.0686431 0.010637982 0.020168783
0001e0 7b ce 58 3c ac f0 b8 bd ff 8d 2b 3c d0 e8 f5 3d
       0.0132328225 -0.090302795 0.010470866 0.12007296
0001f0 80 d5 23 bf e4 2c cd bd 9b aa 28 3e 61 cb c2 bc
       -0.6399765 -0.10018328 0.16471331 -0.02377862
000200 70 e4 62 bd 60 3e 22 be 62 55 66 be 98 ae 48 bd
       -0.055393636 -0.15844107 -0.22493508 -0.04899463
000210 4b 87 a0 bb db 10 e0 3c 4b f0 72 3e f6 24 c0 3d
       -0.0048989407 0.027351787 0.23724477 0.0938205
000220 6d 50 a9 3c 62 d5 06 3e 48 54 d9 bd 2e bb 25 3c
       0.020668233 0.13167337 -0.106117785 0.010115428
000230 e3 48 44 3a aa c9 c5 bb b0 2f 66 be a9 b1 93 bc
       0.00074876676 -0.006036003 -0.22479129 -0.01802905
000240 fc 4a 1a bd 66 d7 ef be 80 01 f7 b6 d9 c0 6e 3e
       -0.037669167 -0.46844023 -7.3613483e-06 0.23315753
000250 ae 31 f7 3d 28 a8 4d 3e 8f ae 8b 3d a1 ef 28 be
       0.120700225 0.20083678 0.06820404 -0.16497661
000260 fd 83 8b bd 1f 46 ae bd 37 c1 11 bd 3a 02 9c bb
       -0.06812284 -0.08509468 -0.035584655 -0.0047610076
000270 c9 77 61 be 74 29 1f be 65 9c f2 3d 7b 2c 2b 3e
       -0.2201835 -0.15543157 0.11846236 0.16716187
000280 e9 eb a4 bc cd 3f 2e 3c a8 a2 be 3a 4f 6f 97 bc
       -0.020132022 0.0106353285 0.0014544325 -0.018485693
000290 0b 0b 8a 3c 2b b2 e8 3d 62 47 3f be 65 17 24 bd
       0.016850969 0.11362108 -0.18679574 -0.040061373
0002a0 cb 51 9b bd 81 97 4d 3e ec 10 0b 3e eb 81 fd bd
       -0.0758396 0.20077325 0.13580674 -0.123782955
0002b0 8d 6c 18 3d 3e d0 29 bd 4f 0a 70 bd f2 0b 29 3e
       0.037212897 -0.04145836 -0.05860358 0.16508463
0002c0 a6 6d 99 3c 59 86 b7 3d 9f 0b 03 3c 90 1a 1b be
       0.018729042 0.08961172 0.007998376 -0.15146852
0002d0 13 b5 11 bd b7 3d 34 bc b0 fe a1 bc 92 42 11 3c
       -0.035573076 -0.011001042 -0.019774765 0.008865969
0002e0 f7 0a 19 3d 59 ae 9f bc 05 91 c6 3d 81 ad 29 be
       0.037363973 -0.019492315 0.09695629 -0.16570093
0002f0 10 97 3c 3e a8 e5 34 bd cb 3b b2 3d 9e 3c df bd
       0.18417001 -0.04416433 0.08702811 -0.10900234
000300 b1 b3 19 be 24 b7 af 3d a6 fd a8 3a bd 52 9c 3c
       -0.15009953 0.08579853 0.0012892976 0.019082421
000310 e6 be 12 be f1 8b 22 be ae 88 8e 3c e8 24 53 3c
       -0.14330634 -0.15873696 0.017399158 0.012887217
000320 7f a7 73 be d2 27 1b be 73 6d 66 b8 f2 bc 68 bc
       -0.23794363 -0.15151909 -5.4938206e-05 -0.014205204
000330 0a d6 47 3c 65 ea b0 bd 7d 40 46 bb ab 43 3c bc
       0.012197027 -0.08638457 -0.003025084 -0.011490743
000340 50 47 75 3e 1c 30 06 be 3a ab 4a 3d de d3 fd 3e
       0.23952985 -0.1310429 0.0494797 0.49575704
000350 f5 ff d6 3e 72 3e e6 3e e7 ae d9 3d b0 f9 88 3e
       0.41992155 0.44969517 0.10629063 0.26752996
000360 75 3a 69 3d 44 69 91 3e a2 6c 0b 3e 96 ed cb 3c
       0.056940515 0.28400624 0.13615659 0.024893563
000370 d1 db ce bc 93 8d 59 be f7 ea 79 bc f8 51 e1 3b
       -0.025251301 -0.21245413 -0.015253774 0.0068762265
000380 7b 67 18 bc 0a f2 1e b9 4e 85 b5 be d4 c9 13 bc
       -0.009302015 -0.00015158221 -0.35453266 -0.009020288
000390 80 f1 dc 3e 5d 5e 83 3e 5a 1a e0 3e 50 c1 44 3e
       0.43153 0.2565793 0.43770105 0.19214368
0003a0 8a 94 27 3c 26 64 aa 3d 0a c6 15 be ab 9e 84 bd
       0.010228286 0.08319883 -0.14626327 -0.06475576
0003b0 e8 60 e3 bc 6e 85 5a bd 6b f7 b6 bc bf 43 06 bd
       -0.02775617 -0.053349905 -0.022334775 -0.03277945
0003c0 90 f3 f0 3d ce ec 36 be f1 2d 1e bd 4b d8 aa 3d
       0.11765206 -0.17863771 -0.038618032 0.08342036
0003d0 f9 f3 b2 3c ef 16 78 bc 5f ff 9b 3c 23 d6 e7 bd
       0.02184485 -0.015142187 0.019042669 -0.1132014
0003e0 d7 75 02 3c e6 2e f0 bd 21 a7 80 be 12 a2 3a 3e
       0.0079626655 -0.11727695 -0.2512751 0.18225887
0003f0 16 e8 c8 3e fd fc a3 bc 42 3b f5 3d 13 f2 28 be
       0.39239568 -0.020018095 0.11974193 -0.16498594

model.rnn.weight_hh_l0 f4 [160, 40]
000000 0d 11 65 3f 6b 9f af 3d 30 52 cd be 69 f1 1a bd
       0.8947914 0.085753284 -0.40101767 -0.037827883
000010 ff c2 74 be 87 60 32 3c c7 e3 b2 3e cf 93 aa 3e
       -0.2390251 0.010887272 0.34939405 0.33315894
000020 c4 41 ea bd 80 bb 87 3d 1f 74 11 3f de d6 e4 3e
       -0.11438325 0.0662756 0.5681781 0.4469518
000030 50 87 17 3e 6e 05 a1 be 47 90 93 be a7 46 52 3e
       0.14797711 -0.31449455 -0.28821012 0.20534764
000040 b8 15 2e bd 69 e9 69 be db 24 af 3c a7 03 85 be
       -0.04250118 -0.22842945 0.021379879 -0.2597935
000050 28 3a c8 be 34 11 d7 3d ec 43 e4 bc 64 1c a0 3e
       -0.3910687 0.10501328 -0.027864419 0.3127166
000060 ad b4 d7 bd 64 d0 6c 3e da 5e 65 3e 21 54 6a bd
       -0.10532508 0.2312637 0.22399464 -0.057209138
000070 8b 7d 09 3e 7f b3 e1 bc 0c 23 ca be 98 c9 9d be
       0.13426797 -0.02755141 -0.39479864 -0.30817866
000080 70 cd 83 3d ee 20 99 3e 2a 13 44 3e e1 14 5b 3d
       0.064356685 0.29907936 0.19147936 0.05348671
000090 60 95 8e be 8e 25 78 be 83 c3 8d 3e e0 2d a3 3e
       -0.2784834 -0.24233076 0.27688226 0.31870937
0000a0 53 09 e0 3d cb 25 82 3d 87 3c 2e 3d f3 10 a3 3d
       0.109392785 0.06354865 0.042538192 0.07962217
0000b0 40 e4 da bd 8d a8 ff 3c 48 36 da bc f3 eb ac 3d
       -0.106880665 0.031208301 -0.026637211 0.08443441
0000c0 02 2a 45 3d f9 5e f8 bd 17 5b 92 bc 73 52 44 3d
       0.048135765 -0.121274896 -0.0178657 0.047930192
0000d0 29 ec fa bd 78 a4 8a 3d 15 a3 0b be ec fc 60 bc
       -0.12252075 0.06769651 -0.1363643 -0.013732176
0000e0 ff 01 28 be 5e 61 f3 3c a8 bd 9b 3d 88 01 14 be
       -0.16407011 0.029709514 0.076045334 -0.14453709
0000f0 83 fd ea bd a2 3c 35 bd 83 f2 c5 3d 2c bf a3 3c
       -0.11474135 -0.044247277 0.09665396 0.019988619
000100 64 f7 28 be 89 1e b9 bd c3 b6 ce 3c 32 52 aa 3d
       -0.16500622 -0.09039027 0.025233632 0.08316459
000110 46 a1 06 3e c5 3c 1f 3e 94 af 5b 3d 73 e2 5e 3e
       0.13147458 0.15550525 0.05363424 0.21766071
000120 3c 3e a8 3d 5e da 89 3d 5d e6 de 3d 94 fb 5f 3e
       0.08214995 0.06731103 0.10883782 0.21873313
000130 2d e1 04 bc 68 13 b3 3d e1 68 dd bc a6 6f e7 3c
       -0.008110327 0.08743936 -0.02702755 0.02825148
000140 d8 21 61 be 7a b2 0b be 71 b5 dd 3d 33 88 f8 3d
       -0.21985567 -0.13642302 0.10825623 0.12135353
000150 49 58 23 be a2 f7 17 bd b0 f6 b3 bd d3 41 a2 bd
       -0.15951647 -0.037101395 -0.08787286 -0.07922711
000160 63 6d 01 be f1 53 4f 3d 7d d1 3e be a0 a8 19 bd
       -0.12639384 0.050617162 -0.18634601 -0.03751433
000170 68 fd e8 ba ad 9a e0 3c c4 4c bf 3c 98 43 09 be
       -0.0017775716 0.027417505 0.023352034 -0.13404691
000180 8e 1d ee bd 43 79 21 3d 7c 0b d5 3d d9 13 8f 3d
       -0.11626731 0.039422285 0.10402581 0.069862075
000190 00 c3 dd 3d 40 fa eb bd 1a c6 39 be 29 96 97 bd
       0.10828209 -0.11522341 -0.18141976 -0.07401688
0001a0 32 12 0b bd 3b 7a fd 3d 93 d4 47 3d e4 69 01 3d
       -0.0339529 0.12376829 0.04878671 0.031595126
0001b0 d6 73 0b be fc 9a 14 bc 14 ef 2f 3e a7 1d 92 bc
       -0.13618407 -0.009070154 0.17181045 -0.017836405
0001c0 74 75 4e 3d 32 81 29 bd fc 18 d7 bd fb dc 0d 3e
       0.05040498 -0.041382976 -0.10502812 0.13853829
0001d0 26 63 48 3e f6 61 54 be 71 25 b9 bd 17 cd 01 3c
       0.19569072 -0.20740494 -0.090403445 0.007922432
0001e0 0b 82 3a be d7 9a 3a be be 75 bc 3c ae 6b 0b 3d
       -0.1821367 -0.18223129 0.023005363 0.03403824
0001f0 3b bf 5e 3c da da bf bd b8 96 a2 bd e9 aa 8d 3c
       0.013595398 -0.093679145 -0.079389036 0.01729341
000200 93 5a 97 3d c4 47 2a 3e 6e ec 35 3e c5 98 09 3d
       0.073903225 0.16628939 0.17765972 0.033592958
000210 dd b7 8c bd 70 08 12 bd a0 7b 1e be 88 57 38 bd
       -0.06871007 -0.035652578 -0.15476847 -0.04500535
000220 bb 3c c8 bb ff 88 a4 bd 18 27 95 3d 0f b7 16 3e
       -0.0061107553 -0.080339424 0.07282847 0.14718269
000230 93 f2 4a 3e 0b d2 da bd 4d b4 35 3e 5b c2 6c bd
       0.19819097 -0.10684594 0.1774456 -0.05780254
000240 6e be 7d bd 32 b9 36 be d9 7e 37 3e 54 36 81 bd
       -0.061949186 -0.17844084 0.17919482 -0.063091904
000250 01 be 06 3d d2 33 f6 3d 78 57 c5 3e 42 2b da ba
       0.032896046 0.12021603 0.38543296 -0.0016644972
000260 4c 08 e2 bc cf 09 91 3d 3f b4 5c be 57 87 0f 3d
       -0.027591847 0.07081949 -0.21553133 0.03504118
000270 49 ce 26 3e fa d4 cc bd bf c7 36 be 86 3c a2 bd
       0.16289629 -0.100015596 -0.17849635 -0.079217
000280 ad ff 94 3e 50 7a 1d bd ec a5 a8 3d 85 1f 31 3e
       0.29101315 -0.038446724 0.08234772 0.1729718
000290 2f 69 7b 3c 31 b6 24 bd c3 4c b6 bd f2 2c c3 3d
       0.015344902 -0.040212814 -0.0890136 0.09530057
0002a0 75 12 04 3d 4c 7e c0 3d df 0d 8d 3d ca 91 2e bd
       0.032244164 0.09399089 0.06887411 -0.042619504
0002b0 74 cb 6c 3c 0c 89 3a 3d cd 24 3d bd 79 2e 83 bd
       0.014452804 0.045540854 -0.046177674 -0.06405348
0002c0 d4 0d 45 be fa fb 21 bd cd bd 12 3e a2 46 98 bc
       -0.19243556 -0.039546944 0.14330216 -0.018588368
0002d0 e7 d9 56 3e cc 79 62 3d 05 7b 0b bd f5 0e 24 3e
       0.2098156 0.055291936 -0.034052867 0.1602133
0002e0 41 b3 81 bc 8d 6b dc 3d 6f a9 51 3e aa 9d 92 bb
       -0.015832545 0.10762701 0.2047479 -0.0044743614
0002f0 c3 24 2f 3e e7 95 5d be a2 67 f9 3d 8c bb e5 3d
       0.17103867 -0.21639214 0.121779695 0.11217412
000300 c7 22 aa 3c fb 78 a2 3d 4a 48 61 bc f9 cc 4c 3e
       0.020768536 0.079332314 -0.013750145 0.20000066
000310 e6 03 18 3e 20 41 9d 3c 9b 3c dc bc e4 81 56 bd
       0.14845237 0.019196093 -0.026884368 -0.052369967
000320 f0 12 ac be 52 fa 8f 3d 80 bc ab 3d f0 26 83 3e
       -0.33608198 0.07030167 0.08385563 0.25615644
000330 ed d4 94 be ed 82 3d be 6e fc b1 3d aa 24 df 3d
       -0.290687 -0.18506975 0.08690725 0.10895665
000340 8a 2c 19 3c 3c 3d fc 3d dc 4f 60 3e 9b 52 3b bd
       0.009348998 0.12316367 0.21905464 -0.045733076
000350 39 ab 60 3e c8 f4 d5 bc 28 4f 5d be 25 5c 31 be
       0.21940316 -0.026117697 -0.21612227 -0.17320307
000360 9a d6 da 3d 0b 9b a8 bd 25 bb 01 3d b5 6f e4 bb
       0.10685463 -0.08232697 0.031672616 -0.0069713243
000370 24 df b9 bd ee 83 19 3e 17 94 dc 3d d2 73 5c 3e
       -0.09075764 0.14991733 0.107704334 0.21528557
000380 34 84 56 bd 69 a0 19 bd 84 41 30 3d df 6c 6a be
       -0.052372172 -0.037506495 0.04303123 -0.22893094
000390 29 52 65 3c 0c e9 5d 3e 35 2d 19 be 3c 8c 35 be
       0.013996639 0.21670932 -0.14958651 -0.17729276
0003a0 7d 7f 34 3e b3 65 8e be 3c 89 2a 3e a0 29 26 3e
       0.17626758 -0.27811965 0.16653913 0.16226816
0003b0 4e af 24 be 93 ae a6 bd 1e 19 83 3e 6f 79 4d 3e
       -0.16082498 -0.08138766 0.256051 0.20065854
0003c0 1d e4 c3 3e 05 51 24 3e 24 07 80 bd f6 ba d9 bd
       0.38259974 0.16046531 -0.06251362 -0.10631363
0003d0 e3 a1 fa 3d ff ae cd 3d 1a 03 4f 3d b5 02 db 3d
       0.12237909 0.100431435 0.050540067 0.10693876
0003e0 bd ea 34 bd c4 a1 a8 3c a7 3a 49 be 37 99 40 bd
       -0.044169176 0.020584948 -0.1965128 -0.047021117
0003f0 f6 8d 9c 3d c3 fc 8a 3d 78 ad 06 bc 66 c4 a4 bd
       0.076442644 0.06786492 -0.008220069 -0.080452725

model.rnn.bias_ih_l0 f4 [160]
000000 00 2e d3 3d d6 bb 5b 3e d8 f7 61 3e ee 05 82 3e
       0.10311508 0.21458372 0.22067201 0.2539515
000010 8f 0c 44 3d 01 a3 3b bd 76 30 3b bc 8b 13 65 3e
       0.04786354 -0.04580975 -0.011425128 0.22370736
000020 5d 75 17 3c f4 0c a5 3d a2 24 ca 3e 7e ae 93 3d
       0.00924429 0.08059111 0.39481074 0.07211016
000030 d7 1c 27 bd 0f a7 87 3d cd 4a 02 3e 3f 3b 59 3d
       -0.04079899 0.06623661 0.12723847 0.053035017
000040 54 47 71 3e 7e 72 9a 3e fa 05 86 3e 69 45 b5 3d
       0.23562366 0.30165476 0.26176435 0.088511296
000050 c7 b8 eb bd 8b b8 60 3e 29 d7 b0 3e ed d9 34 3e
       -0.11509853 0.21945398 0.34539154 0.17661257
000060 1e 7d 67 3e 5a b8 63 bc 3c b0 36 3e d9 0c 31 bd
       0.22606322 -0.013898933 0.17840666 -0.043225143
000070 39 a4 55 3e d5 59 57 3e f6 2c 5a be 3b d4 6c 3e
       0.20863427 0.21030362 -0.21306214 0.23127834
000080 93 91 df 3d 2c 8a 3e 3e 90 87 38 3e 1f 5f d6 3d
       0.10916438 0.18607396 0.18020463 0.10467362
000090 47 f7 5f 3e bc cd 93 bd 05 29 6b bd b5 da 9a 3d
       0.21871673 -0.07216975 -0.057412166 0.07561246
0000a0 24 4b a3 3c ad 05 a7 3d 29 71 84 3d 58 33 ba bd
       0.01993329 0.081553794 0.06466896 -0.09091824
0000b0 d6 40 1e bd 56 c9 0b be a8 19 31 3e 2a bb 84 bc
       -0.03863605 -0.13651022 0.17294943 -0.016202528
0000c0 42 c6 8e bd 4a 63 18 3e ad 3d d6 bc cb d3 b3 bd
       -0.069714084 0.14881626 -0.026152456 -0.08780631
0000d0 3d 81 19 be 8b 99 09 3e 9c 38 b2 bd 23 81 bb 3b
       -0.14990707 0.13437478 -0.08702204 0.0057221814
0000e0 bc fc 17 be 90 46 45 3e c7 c3 06 3d 95 92 16 bd
       -0.14842504 0.19265199 0.03290155 -0.036760885
0000f0 d8 23 85 bc 9f 3f 5d 3e b1 5c 41 3e 89 ed d7 3d
       -0.016252443 0.21606301 0.18883015 0.10543353
000100 a3 47 00 be 8f 69 d2 3d 5f 2e 51 3e 0f 6d 06 be
       -0.12527327 0.1027404 0.20427845 -0.1312754
000110 6d b0 28 3e e7 b2 5f 3d 25 26 df 3d 7e cf 55 bc
       0.16473551 0.054613974 0.10895947 -0.013049958
000120 35 a2 4d 3e 68 01 f2 bc 4c 75 ee bc 91 37 73 3e
       0.20081408 -0.029541686 -0.029108666 0.23751666
000130 01 15 80 3d 9f 87 25 be 06 96 f0 3d 96 84 21 be
       0.06254006 -0.16165017 0.11747365 -0.15773234
000140 06 80 34 be b4 3a de bd 6d be 44 3e 7f 69 b5 3d
       -0.17626962 -0.108510405 0.19213267 0.088580124
000150 03 69 da 3d fc e8 54 3d b5 70 64 be db 0f 03 be
       0.10664561 0.051980004 -0.2230862 -0.12799017
000160 ad 43 50 3e eb 2a 58 bd aa 4a 05 3e 37 2f 6c be
       0.20338316 -0.052775305 0.13016763 -0.23064886
000170 60 5f 00 be bd 4f 9e 3b 9e 80 a0 3d 3c 0a b0 3d
       -0.12536383 0.004831283 0.07837032 0.08595702
000180 18 ea 07 bd ad 8d f9 3d d5 b5 46 be 67 cb 3b 3e
       -0.033182234 0.12185226 -0.19405301 0.1833931
000190 15 3b ee bd 47 20 2e be d4 53 f0 3d 92 d0 9e bd
       -0.11632363 -0.170045 0.11734739 -0.077546254
0001a0 a4 fc d6 3d d6 d0 28 be b1 67 93 3d d6 9f 08 3e
       0.10497406 -0.16485915 0.07197512 0.13342223
0001b0 dc 87 13 be b4 4f b2 3d ef 6a 8f 3d 27 4d 1e 3e
       -0.14407295 0.087066084 0.07002818 0.15459119
0001c0 97 ff 91 bd e2 05 36 bc 5f 99 b0 bd a5 94 cb bd
       -0.07128828 -0.011109801 -0.08623003 -0.09940461
0001d0 f4 5a 0c be 4a 65 ba bd a0 3f 57 3d 66 46 82 bc
       -0.13706571 -0.091013506 0.052550912 -0.01590271
0001e0 2a 59 66 3e 6a 50 ee bd 99 48 af 3d 2a cb 86 3d
       0.22494951 -0.116364315 0.08558769 0.06581719
0001f0 ef fc 4d 3d 64 62 84 3c 46 da f5 3b f7 ce 52 3e
       0.050290044 0.016160198 0.007502827 0.20586763
000200 ed a4 80 bc 6e 98 0d bd 34 aa ee 3e 31 6d 1d 3e
       -0.015703643 -0.034569196 0.4661423 0.15373684
000210 9c 25 01 3e ef 97 44 3d bd e9 c7 3d 46 27 84 bb
       0.12612003 0.047996458 0.09761379 -0.004033002
000220 c0 7c 15 3e 1d 9e e1 3d af 81 38 3e ae 9d 92 bd
       0.1459837 0.11016486 0.1801822 -0.07158981
000230 b4 a6 96 3d d5 8e c8 3d 32 f0 58 3e bb 53 e7 3d
       0.07356015 0.09792868 0.21185377 0.11295267
000240 fe e6 21 3c 9f 0a aa bd b2 3a e9 3d c8 80 05 3e
       0.009881733 -0.08302807 0.11388148 0.13037407
000250 be 1c 53 bb 68 ec a5 3d 4d 08 1b 3e 8e 0f 32 3b
       -0.0032213177 0.081017315 0.15139885 0.0027169916
000260 69 29 42 3e 32 c3 52 3e 57 36 8a 3d 8c 55 de bd
       0.18961109 0.20582274 0.06748646 -0.108561605
000270 05 be 4a 3e 7f 70 de 3d 16 ef d7 bc 9f 6c 54 3e
       0.19799049 0.10861301 -0.026359122 0.2074456

model.rnn.bias_hh_l0 f4 [160]
000000 3a b5 96 3e 0e f7 01 3e 79 6c 75 3e 2c 71 f3 3d
       0.2943514 0.126919 0.2396716 0.1188682
000010 38 45 87 3d ce 0e 04 3e 0a 9b 69 3e 0a a2 13 3e
       0.06604999 0.12896273 0.22813049 0.14417282
000020 0a 98 d7 3c 9d bf c4 3d 9a c7 41 3e cb ed 5b 3e
       0.026317615 0.0960686 0.18923798 0.2147743
000030 83 c7 98 bd 72 ce 14 bd e5 10 2f 3e ed 56 88 3e
       -0.07459929 -0.036329694 0.17096289 0.2662882
000040 b4 46 ff 3c cf 28 81 3e 3f 90 9f 3d e2 15 60 bc
       0.031161644 0.25226447 0.07791185 -0.013677092
000050 b6 03 80 be 37 36 51 3d f4 1b f2 3d a7 0b 12 3e
       -0.2500283 0.051077094 0.11821738 0.14262258
000060 4a f8 54 3e 33 9f 3f 3d 5d 27 bd 3d 0c 82 d4 3d
       0.2079784 0.046782684 0.092360236 0.10376367
000070 31 62 e4 3d 81 86 b9 3c 84 15 38 be e1 da e0 3c
       0.11151541 0.022647144 -0.17976958 0.02744812
000080 e3 62 9a 3d f4 38 59 3d 29 34 ac 3d b5 64 8c 3d
       0.075383924 0.05303283 0.08408386 0.06855146
000090 5b 8d 6a 3e 52 f1 a5 bc df 0f 62 bd f1 e0 42 bd
       0.22905485 -0.020256672 -0.055190917 -0.047577802
0000a0 fc 33 15 bd b1 09 0d 3b 3e 85 85 3d 9b 5c 68 3d
       -0.03642653 0.002152067 0.065195546 0.05672894
0000b0 d6 42 59 3d c5 9d 65 bd 76 eb 7d 3a 43 5c 76 bd
       0.053042255 -0.056058664 0.00096862705 -0.06014658
0000c0 6e d9 27 bd f4 08 a4 3d e9 2c 3a 3e 33 ef 9d 3d
       -0.04097884 0.0800952 0.18181194 0.07711639
0000d0 5f 3e 0f be d2 d0 a6 bd c1 0e 39 be 21 81 a3 3d
       -0.13988636 -0.08145298 -0.18072034 0.07983614
0000e0 8f a7 99 3c 31 d9 cd 3d 64 de 82 bd e5 1d fc 3c
       0.018756656 0.100511916 -0.06390074 0.030775974
0000f0 90 cd 89 bd 1a 38 fc 3d 7d 5f 76 3d 48 d4 79 3d
       -0.06728661 0.12315388 0.06014966 0.060993463
000100 a9 af 53 bd 00 ed fa bd 91 ee 55 3e 24 72 db 3d
       -0.051681194 -0.122522354 0.20891787 0.1071513
000110 fa 04 13 3e b1 52 fb 3d a9 e1 95 bd 2d c9 f7 bd
       0.14357367 0.122716315 -0.07318432 -0.12098918
000120 2e 94 34 3e 63 58 01 be 2f ed d5 bc f4 c2 62 3e
       0.17634651 -0.12631373 -0.026114075 0.22144681
000130 4e f2 03 bc f1 52 65 3b 84 1d 2d 3e ea 0c 01 be
       -0.008053375 0.0034992064 0.1690579 -0.12602583
000140 b9 9a 3d bd 27 71 1f be b5 30 5c 3d 09 c2 a8 bd
       -0.046290133 -0.15570508 0.05375739 -0.08240134
000150 c7 10 6a 3e d5 30 09 bd 3b 63 70 be f1 1b 36 bc
       0.22857963 -0.033493835 -0.23475353 -0.01111506
000160 66 31 ba 3d ef f7 13 be 37 f1 f5 3d d1 ae 59 bb
       0.09091453 -0.14450048 0.12008899 -0.003321577
000170 3a 61 1e bd 21 d2 46 3c e0 fe cc bc 68 4f 71 3d
       -0.03866694 0.01213506 -0.025023878 0.05891362
000180 21 99 b3 bd 0e ba c3 bd b7 14 3f be 8b af 3c 3e
       -0.087694414 -0.095569715 -0.18660246 0.1842634
000190 7a fc 11 bd 06 ae 04 bd 65 8f 7d 3c 27 af 45 be
       -0.03564117 -0.032392524 0.015476082 -0.19305097
0001a0 6b 34 2e 3e 0c f7 d3 3d d3 a0 72 3d af 0a 25 3d
       0.17012183 0.10349855 0.059235405 0.04029339
0001b0 4f 80 26 be 71 71 f5 3d d8 fc 58 3e 1a a8 ba 3d
       -0.16259883 0.11984528 0.21190202 0.09114094
0001c0 f8 19 e7 3c 0b 03 88 3d 73 6c 15 bd 9a f9 bc 3c
       0.028210625 0.066412054 -0.03648038 0.023068238
0001d0 80 0a 54 3d c4 14 e6 3c 99 75 1b 3e 89 7f fc bd
       0.051767826 0.028086074 0.15181579 -0.12329013
0001e0 19 e9 c9 3e c6 2c 96 3d 6d 71 ca 3d b5 9b 07 3e
       0.39435652 0.073327586 0.098849155 0.13242991
0001f0 32 45 05 3e f4 ba 41 3e 86 5a 8f 3e 6e 88 06 3e
       0.13014677 0.18918973 0.2799875 0.13137981
000200 a3 b5 17 3c 25 8e 9f 3d 44 d7 fe 3e 60 f5 75 bd
       0.009259614 0.07790784 0.4977361 -0.06004846
000210 07 2a 2f 3e aa cc 4c 3e 98 54 77 bc b1 a9 ac bc
       0.17105876 0.19999948 -0.015095852 -0.021077009
000220 9d 0a dc 3d 8a 16 c6 bc 68 4d 33 3e d2 c8 16 3d
       0.10744212 -0.02418067 0.17509997 0.03681261
000230 51 d0 d6 3d bd 9a 8d bc 9f 95 92 3e 1f 71 ab 3d
       0.10488952 -0.017285699 0.28629777 0.083711855
000240 bb 35 7e 3d 8e 66 17 3e c7 52 be bd 1a f6 9f 3d
       0.06206296 0.14785215 -0.09293132 0.07810612
000250 d3 4c 4a 3e 2b c1 7b 3e a4 1a 5a bd 9a 73 74 bd
       0.19755869 0.24585406 -0.053248063 -0.05968056
000260 4c cb a8 bd f1 4f 68 3e 69 b9 11 3e 93 9d 28 3e
       -0.08241901 0.22686745 0.14230885 0.1646636
000270 a7 9d b0 3c 15 57 21 3e e8 c1 44 3d 38 9f aa 3d
       0.02155955 0.15755875 0.048036486 0.0833115

model.rnn.weight_ih_l1 f4 [160, 40]
000000 c6 8a 10 bf 18 c2 81 be 93 7c 0a 3e f5 c3 98 be
       -0.5646175 -0.25343394 0.13524084 -0.29837003
000010 44 f2 62 3e a1 e3 8e 3e 80 67 a7 be 79 a3 26 be
       0.2216273 0.27908042 -0.32696152 -0.16273297
000020 8c 88 17 3e c2 a8 f7 bd bf 11 e9 3e 27 2d 1c be
       0.14798182 -0.12092735 0.45521352 -0.15251599
000030 e4 89 79 bd f4 5a 0f 3b 7b 0f be bd ca 4e b4 3d
       -0.06092252 0.002187428 -0.092802964 0.0880409
000040 34 e7 e6 3d 88 92 f3 3e d4 35 27 be 93 ba c2 3d
       0.11274567 0.47572732 -0.16329128 0.095082425
000050 79 b3 e5 3e 85 95 9b bd b6 ad c8 3d 5a e6 8a be
       0.4486349 -0.07596878 0.09798758 -0.2712887
000060 b8 8e bc 3e 06 48 72 bc af 1c b2 3d e6 5c 37 3e
       0.36827636 -0.01478768 0.08696877 0.17906532
000070 d0 48 ab be d1 44 73 bd 75 1f 72 be 73 3f 7b 3e
       -0.3345399 -0.0593918 -0.23644812 0.24535923
000080 60 90 d2 bd 1a 31 3a 3e c7 98 9a be 9f d9 9c be
       -0.102814436 0.18182793 -0.30194685 -0.30634782
000090 6d 02 9b 3e e5 f4 91 3e db e6 87 be 22 60 d2 bd
       0.30275288 0.28507152 -0.26543316 -0.10272242
0000a0 34 c7 de 3d ba 75 08 be e3 11 b3 3c b5 80 1f bd
       0.10877839 -0.13326159 0.021859115 -0.038941104
0000b0 c4 85 2e 3e 8f 97 c2 bc 22 73 28 3d 88 2b f7 3d
       0.17043215 -0.02375391 0.041125424 0.1206885
0000c0 5a 0c bc 3d 6c 43 72 3d 21 63 60 3d c9 d1 1f be
       0.091820434 0.05914633 0.054782037 -0.1560737
0000d0 60 55 05 be 65 fa cd 3d 7c 13 ad bd 02 99 2e 3d
       -0.13020849 0.100575246 -0.08450982 0.04262639
0000e0 aa 41 5f 3d 0f 8b 0f 3d 07 c0 84 bd 9f 42 cf 3d
       0.05450598 0.035044726 -0.06481939 0.10120129
0000f0 ca 75 7c 3d 93 6e 6d bd 67 7f 44 3d 4e a6 d9 3d
       0.06163577 -0.05796678 0.047973063 0.10627423
000100 8a 40 0f bd 0c 39 47 3d b0 9f 5e 3d e5 27 99 bd
       -0.03497366 0.04863839 0.05435151 -0.074783124
000110 e6 52 0e 3d 03 8c 1f 3e 19 a0 72 3d 91 4a 46 3e
       0.034747027 0.15580754 0.059234712 0.19364382
000120 bc 0a ae 3d 31 8e 01 3d d0 80 df bc 57 25 10 be
       0.08498141 0.031629745 -0.027283102 -0.14076744
000130 36 37 36 3d bb d2 95 bd 58 c7 ee 3c f3 9f 16 bd
       0.044486247 -0.07315584 0.029147789 -0.036773633
000140 b3 ee c3 3d 23 ae 5e bd 0a 13 05 3e 90 e2 47 be
       0.09567013 -0.05436529 0.12995544 -0.1952002
000150 c6 5e 08 3e 7f c1 18 bd 1a b1 66 be 8b 9f 8b bd
       0.13317403 -0.037293907 -0.22528496 -0.0681754
000160 19 b0 0f bd 45 3e c8 bc 3f a2 09 3e 07 e3 5d be
       -0.03508005 -0.024443755 0.13440798 -0.21668635
000170 1f b9 21 bd 4b ec 0a be f2 95 31 be ec 02 75 3d
       -0.039483186 -0.13566701 -0.17342356 0.05981724
000180 60 7e ac 3b 3e ae 46 3d 3b 47 7d be f3 7b 1d 3e
       0.0052640885 0.048506014 -0.24734204 0.15379314
000190 3c f9 f4 bd 76 86 30 be 56 f6 80 3d df a7 89 be
       -0.119616 -0.17238793 0.06296985 -0.26885888
0001a0 80 bc 01 3e ce 78 7c 3c 20 7f 50 3e 92 67 88 3e
       0.12669563 0.015409661 0.20360994 0.26641518
0001b0 56 4e 45 be 50 3a 68 bd 50 d3 12 3e f6 e8 48 3d
       -0.19268164 -0.056696236 0.14338422 0.049050294
0001c0 09 34 88 be 99 3b 71 3e d5 20 66 be fc 8b a1 bd
       -0.266022 0.23557891 -0.22473462 -0.07888028
0001d0 e7 bb 91 3d 89 bc 46 3e 64 53 e4 bd 21 a9 22 3d
       0.07115918 0.19407858 -0.11148718 0.039712075
0001e0 17 99 20 be 1b 3d 0a be 92 16 49 3d 84 75 c2 bd
       -0.15683399 -0.13499872 0.04909379 -0.094950706
0001f0 09 60 21 3e 28 4d cd bd 93 65 12 be 37 46 c2 3c
       0.15759291 -0.10024482 -0.1429656 0.023715122
000200 eb 41 08 3e a8 50 d9 bd 10 f2 8f bd 92 82 0f bb
       0.13306396 -0.10611087 -0.07028592 -0.0021897894
000210 81 5b 18 3d 4a 69 0a bc 0c d2 c4 bd f5 b7 29 3e
       0.03719664 -0.008447954 -0.09610376 0.1657408
000220 10 03 ff bd 82 6e 29 3e a0 4d e2 3d c5 56 ae bd
       -0.12451756 0.16546062 0.11049962 -0.08512644
000230 69 e9 3e be 15 3a e9 bc f3 d8 b5 bd ad 1c 39 3d
       -0.18643726 -0.028470078 -0.088792704 0.045193363
000240 e0 cd 61 3c a3 66 04 be 9a b2 8b bd bc ea 41 3d
       0.013781995 -0.12929778 -0.06821175 0.047343
000250 f5 1f 6b bc 4d d8 d1 3d 9c 9a 7a 3d 2b f7 a8 3e
       -0.014350881 0.10246334 0.061182603 0.33001074
000260 48 6a 14 bd cf 98 82 bd d8 6f 65 3d eb f0 d4 3d
       -0.03623417 -0.06376802 0.056014866 0.10397514
000270 3b dc 40 3c 82 e2 15 3d e4 25 0b 3d 1b 2c 17 bd
       0.011771257 0.036592968 0.033971682 -0.036907297
000280 54 68 cb ba 5f 9e dc 3d 9d 8a b3 3d f2 18 1d 3e
       -0.0015518763 0.107723944 0.08766673 0.15341547
000290 f0 26 9e 3d 78 ef ed bd 6a c9 41 3d c2 d6 fe 3d
       0.077222705 -0.11617941 0.047311224 0.124433056
0002a0 9f f7 ba bd 93 99 02 3e 26 60 b1 bd 47 be d1 bd
       -0.09129261 0.12753896 -0.08660917 -0.10241371
0002b0 03 3c 10 be 92 a3 73 3d 7d a4 61 bd 6b 00 ff bd
       -0.14085393 0.059482165 -0.05508851 -0.124512516
0002c0 c0 22 0f be 62 91 f6 3d 61 a4 87 3d 62 6a 0d be
       -0.139781 0.12039448 0.0662315 -0.13810113
0002d0 b1 d2 7b be a6 4f de 3d 6f b8 c0 bd 44 70 28 3d
       -0.24592091 0.108550355 -0.09410178 0.04112269
0002e0 f7 24 ea bd eb 1b 15 3e 28 94 39 3e 0c 94 87 bc
       -0.11432832 0.14561431 0.18122923 -0.016550086
0002f0 c0 f1 1d bd 0f 86 1c bd f7 b3 52 3d cf ac 01 3e
       -0.03856063 -0.038213786 0.05144116 0.12663577
000300 fb b4 9e bc 63 1c 1c 3e da ff 67 3d 52 67 dd 3d
       -0.019373408 0.15245204 0.056640483 0.108107224
000310 f2 60 ef bc 7c 07 b0 3c 24 3c e2 bc 9a 6d 59 bd
       -0.029221032 0.021487944 -0.027616568 -0.05308304
000320 58 53 de be 4c c1 07 3b cc b0 cd ba 40 e2 9e bd
       -0.4342296 0.002071458 -0.0015692948 -0.077579975
000330 72 ee f0 3d b0 2b 45 3d eb ed 37 be 4f 29 15 be
       0.1176423 0.048137367 -0.17961852 -0.14566539
000340 24 fd b0 bd fe ce 70 3d 04 dd 0f be 9a 52 84 3d
       -0.08642033 0.058791153 -0.14049155 0.064610675
000350 9e 8e 2a be 49 2d 09 3e 6f a0 43 bd ec 38 a9 bc
       -0.16655967 0.13396181 -0.047760423 -0.020657025
000360 8d 3a 74 bd bc ff 5b bd 69 1a 23 bc 3c 01 23 3d
       -0.05962615 -0.053710684 -0.009955027 0.0397961
000370 13 bf 80 3e 44 a3 d9 bd 9b 6d 11 3e 20 71 1e be
       0.25145778 -0.106268436 0.14201967 -0.15472841
000380 ce ab 25 3e f8 fc e5 bd 4c 7f 3f 3c ad 8b bf bd
       0.1617882 -0.112298906 0.011688065 -0.09352813
000390 ef 04 8d 3d 60 ff 61 bd 5f 13 6f bd 14 e8 af 3d
       0.06885707 -0.055175185 -0.058368083 0.08589187
0003a0 35 8a 52 bd 4d 54 ee bc ec 60 23 be 2d 69 b3 bd
       -0.051401336 -0.029092932 -0.15954942 -0.08760295
0003b0 66 c1 6c 3e 2a 01 03 3e 03 46 98 bc f3 8b 91 3c
       0.2312065 0.12793413 -0.018588072 0.017766928
0003c0 b9 69 99 3b ac d0 07 bd 73 79 10 3e 26 70 ad 3d
       0.0046817926 -0.03315799 0.14108829 0.08468656
0003d0 91 44 76 bd d7 19 1d bd d3 39 5b bd d0 a0 bd 3d
       -0.060123984 -0.03835472 -0.053521942 0.09259188
0003e0 e0 ae 8a bd 79 a6 32 3c 16 0d 61 bd df e5 ae bd
       -0.06771636 0.010903948 -0.05494412 -0.08539938
0003f0 56 75 a3 bd 35 78 13 3e 6b 17 c2 3d c3 42 99 3d
       -0.079813644 0.14401324 0.09477123 0.07483437

model.rnn.weight_hh_l1 f4 [160, 40]
000000 03 44 94 bb ef e1 52 bc 31 62 01 be 73 d0 37 bd
       -0.004524709 -0.01287125 -0.12635113 -0.044876527
000010 31 a8 3e be 73 c6 6b 3a 20 cb 47 bd a6 20 a4 3d
       -0.18618847 0.000899411 -0.0487777 0.0801404
000020 b4 38 fc bd bd 0d 11 3e b6 32 f9 3d 8d b6 05 be
       -0.12315503 0.14165397 0.121678755 -0.13057919
000030 7c 74 1b bd d7 35 c1 bd 19 c3 54 3d 7a ba 4e bd
       -0.037952885 -0.09434097 0.051943872 -0.050470807
000040 a9 f8 da 3d a0 87 bc 3b 70 ba 25 bb cb fb 41 3d
       0.106919594 0.0057534724 -0.0025288127 0.04735927
000050 c8 87 4b 3c 85 c0 64 3d 03 bc 8b 3d 1c b4 1f 3d
       0.0124225095 0.055847663 0.0682297 0.038990125
000060 e7 bb e4 bc 7b 25 76 3d d4 db 93 bc 61 53 b1 3d
       -0.02792163 0.060094338 -0.018049158 0.086584814
000070 3a 41 76 bd 60 27 cf bd 9f c6 74 bd 0b 62 d4 3c
       -0.0601208 -0.10114932 -0.059759732 0.025925657
000080 0e cd 25 be c9 4e 43 3d d3 bf d0 bd 0d 6c b0 bc
       -0.16191503 0.047682557 -0.101928376 -0.021535898
000090 1b 57 46 bc ae 4f 2b 3e 65 08 37 bd 3c 7f 9a bc
       -0.0121057285 0.16729614 -0.04468574 -0.018859498
0000a0 b4 bf e5 bc 96 69 f6 bd b0 4e b7 bd 0d 67 6b 3d
       -0.028045513 -0.12031858 -0.08950555 0.057471324
0000b0 77 0e 79 3d 96 63 36 be e3 77 0f 3e e7 48 aa bd
       0.06080481 -0.17811427 0.14010577 -0.08314686
0000c0 bb d5 d6 3d c2 8c 2e 3c c3 00 5d 3c ba f7 80 bd
       0.104899846 0.010653676 0.013488951 -0.0629725
0000d0 f7 f9 ac 3d 92 0b b2 bd e3 09 c1 3d a7 c8 6d bd
       0.084461145 -0.08693613 0.09425714 -0.058052685
0000e0 30 56 7c bd 31 4b 85 3d fc 07 41 be 85 3a ab 3d
       -0.061605632 0.06508482 -0.18850702 0.08360771
0000f0 75 36 81 bc a4 67 c6 bd f8 eb 1f 3c 4c b4 8b bd
       -0.015773037 -0.09687737 0.009760849 -0.06821498
000100 78 79 fb 3c 38 38 27 3d 0c 34 9e bd 9e ff f1 bd
       0.03069757 0.0408251 -0.07724771 -0.11816333
000110 94 bb e3 bd cd 11 59 3d 36 e0 f5 3b c4 10 e8 3d
       -0.11119762 0.05299549 0.0075035347 0.11331323
000120 4b 61 b5 bd 7b 52 8c bd c3 54 fa 3d fb 43 aa 3d
       -0.08856448 -0.068516694 0.12223198 0.083137475
000130 07 53 a2 3d 2c 77 00 3e 37 48 1f 3e 3d 79 e5 bd
       0.079259925 0.1254546 0.15554892 -0.11204765
000140 2c 85 99 3d 0c 65 a1 3c b7 d9 0e bd e3 2e d0 3d
       0.07496104 0.019701503 -0.034875598 0.10165193
000150 f6 07 1d be f0 02 8c bd ee ad 1e 3c 85 d8 00 3e
       -0.15335068 -0.06836498 0.009685023 0.12582596
000160 79 f6 8e 3e cf 5b 09 be 15 82 ca bc 34 14 4e bb
       0.2792242 -0.13413928 -0.024720231 -0.0031445147
000170 46 31 c6 3d 68 26 9d 3d a3 03 26 3e d5 11 f2 bc
       0.09677367 0.07673341 0.16212325 -0.029549519
000180 8d 02 83 bd 7d ac 85 bc 98 4a 80 3d 99 1f 0c 3e
       -0.06396971 -0.0163176 0.06264228 0.13683929
000190 b1 65 35 3e 3f ea ca bd 3f 19 ff bd 53 1b 39 3d
       0.17714573 -0.0990796 -0.12455987 0.045192074
0001a0 95 69 dd bd 0d 88 21 3d c1 a1 df 3d 57 e1 bc bd
       -0.10811154 0.03943639 0.10919524 -0.09222668
0001b0 ab f5 83 3d 6d e7 8d 3c 2b a5 18 3c 50 0a 9b 3c
       0.06443342 0.017322266 0.009316723 0.018925816
0001c0 26 c9 55 3c 64 b1 12 3d d0 1f 47 be 7a cd 2c 3e
       0.013048446 0.035813704 -0.1944573 0.16875258
0001d0 95 98 38 bd a6 00 58 3c 99 a4 1c 3e 6e e6 e3 bc
       -0.04506739 0.013183748 0.15297164 -0.027819838
0001e0 e8 ac c5 3d 37 c6 9b 3d f2 e4 86 3d 07 0a f5 bd
       0.0965212 0.07606166 0.065866366 -0.11964803
0001f0 56 c3 01 be 5e 4c db bc 6c 1a fa 3d f3 e4 a1 3b
       -0.12672171 -0.026769813 0.12212071 0.004940623
000200 d8 6a 32 3d 89 d8 3a 3e 7a f7 1e be d9 b2 c2 3d
       0.043558925 0.18246664 -0.15524092 0.09506769
000210 a2 a7 13 be f3 49 af 3d 6a 08 d6 bd f2 b3 ef bd
       -0.14419416 0.085590266 -0.104508236 -0.11704244
000220 a6 02 ec 3d 1b 96 58 3e 62 b3 80 3d 7e 0f ee bd
       0.11523943 0.2115101 0.062842146 -0.11624049
000230 f1 8a 0d 3d 77 95 4c 3d 96 05 10 bd 10 c4 e4 3d
       0.034556333 0.04994723 -0.035161577 0.111702085
000240 11 5e ce bd 4d c6 23 3d 9c a8 3f 3d f2 30 29 bd
       -0.100765355 0.039984036 0.046791658 -0.041306444
000250 d5 26 d8 bd 0a 8d 94 bd c1 5d 27 bd c9 ce 52 3d
       -0.105542816 -0.072534636 -0.040860895 0.051466737
000260 76 39 24 3c 73 b2 01 3e 6f f3 50 3d 01 b4 86 3d
       0.010023465 0.12665729 0.051013406 0.06577302
000270 95 e2 87 bd a2 43 15 3e 81 a4 12 bd 0e 25 f4 bd
       -0.06635014 0.14576581 -0.035801414 -0.1192113
000280 f8 54 4d 3d af dc ca 3d 2b ba e8 bd 38 50 8c bc
       0.05012986 0.09905373 -0.11363634 -0.017128095
000290 72 03 0b be e4 fb 75 bd 7a 36 e3 3d b5 df 09 be
       -0.13575533 -0.060054675 0.11094375 -0.13464244
0002a0 4e 5e fc 3d fe 7a 0d 3d fa 22 db 3d 5c 74 a4 bd
       0.12322675 0.034541123 0.107000306 -0.08030006
0002b0 5c 34 97 3d 36 5c c6 3d 43 e2 0b 3c 6e d1 1b 3c
       0.07383034 0.096855566 0.008537832 0.009510381
0002c0 d9 ca 0f 3e 95 45 ae bc f1 a3 61 be 99 ad df 3d
       0.14042224 -0.021273414 -0.22035195 0.10921783
0002d0 95 c8 fa 3d 68 f1 98 bc 6f 76 3c 3c 9d 96 08 3e
       0.12245289 -0.018669799 0.011502846 0.13338704
0002e0 5a ad 15 be 38 c1 cc bd 57 e5 ec bd 26 21 4d 3c
       -0.1461691 -0.09997791 -0.115671806 0.01252011
0002f0 7d a8 90 bd 2f 60 aa 3d 07 2b 18 bd 85 3c 5e 3e
       -0.070633866 0.08319127 -0.03715041 0.21702774
000300 49 49 42 3d cc cf 11 3e 2f 33 a5 bd 3b 4e 00 be
       0.04743317 0.14239424 -0.08066403 -0.12529843
000310 c8 0e 04 3e f8 63 4d bd 02 34 38 3e 08 01 ef bd
       0.12896264 -0.050144166 0.1798859 -0.116701186
000320 dd a1 1e 3e a0 7a 17 bd a1 61 1d 3e 05 3b 05 bd
       0.15491433 -0.03698218 0.15369274 -0.03252699
000330 e1 72 04 be 30 84 e0 3d f7 36 0f be 4e ba b2 bd
       -0.12934448 0.10962713 -0.13985811 -0.08726941
000340 ba c6 8e 3d 26 17 67 bc de fb 4f 3d f8 36 07 bd
       0.06971498 -0.01410464 0.05077731 -0.033011407
000350 29 6c 4d 3e 70 9d f5 bd d7 45 08 3d e8 74 95 3c
       0.20060791 -0.119929194 0.03326973 0.018244222
000360 0c 5f 85 bd df 3e 69 bd 3d 48 02 be ed 16 a5 3d
       -0.065122694 -0.056944724 -0.12722869 0.08061013
000370 60 8f 09 3e cf 31 05 3e 92 b5 fc bd 9e b0 05 be
       0.134336 0.13007282 -0.12339319 -0.13055655
000380 9b 9d e0 bd ac f7 90 bc f4 57 c2 3d c0 bc e3 bd
       -0.10967561 -0.017696224 0.09489432 -0.111199856
000390 5e a0 05 bc 7d 7b dc bd 54 be 63 bd bc 29 12 3e
       -0.00815591 -0.10765741 -0.055601433 0.14273733
0003a0 d2 2b f2 bd 3d 38 2e 3e ef bf b8 3d 3f 84 04 3e
       -0.11824764 0.1701364 0.090209834 0.12941073
0003b0 f4 31 1f be 62 28 54 3d 7a ac ec 3d 27 34 be 3c
       -0.155464 0.051796325 0.11556335 0.023218228
0003c0 d5 1e c7 bd ee 4a 47 3c 9e bc 19 3e f3 8b 28 3e
       -0.097226776 0.012163861 0.15013358 0.16459636
0003d0 03 b4 49 3a 7c de 7c 3d ce 3a 21 3e 00 b6 26 be
       0.00076943653 0.061735615 0.15745088 -0.16280365
0003e0 90 e3 f6 bc 0a 2a 21 3d 46 63 0b bd b4 92 bd bd
       -0.030137807 0.039346732 -0.03403022 -0.09256497
0003f0 98 ca 4d 3d 82 47 44 3d 10 ed 25 be 72 1d 5b bd
       0.050242037 0.047919758 -0.16203713 -0.053494878

model.rnn.bias_ih_l1 f4 [160]
000000 a7 f3 2b 3e f6 a0 ba bc f3 49 bd 3d 09 39 bc bb
       0.16792165 -0.02278183 0.0924262 -0.005744104
000010 38 3f 71 3d 58 46 df bd 37 49 4f bd ce a3 8a 3e
       0.05889818 -0.10902089 -0.050606932 0.27078098
000020 df 01 67 3e 1d 72 8e 3d 0a 3f 62 bd ee d7 16 3e
       0.22559308 0.06955359 -0.0552359 0.14730808
000030 aa 8d 06 3e 40 e4 99 3e a2 41 44 bd 8d 09 02 bd
       0.13139978 0.30056953 -0.047914155 -0.03174739
000040 7a 07 90 3d c2 3e 15 3e ca e4 ad 3e a5 fb 81 3e
       0.07032676 0.14574721 0.33963615 0.25387302
000050 a9 80 c1 3d 74 f7 f3 3d d8 fb ad 3e e3 85 95 3e
       0.09448368 0.11912432 0.33981204 0.2920371
000060 45 7b 17 3d 0c 5a 4b 3e ac 20 a6 3e ad f7 13 3e
       0.036982793 0.19858569 0.32446802 0.1444995
000070 77 3f 4e 3d e7 cf 73 3e 52 19 e2 bb f2 34 2c 3e
       0.050353494 0.23809777 -0.006899991 0.16817072
000080 93 9a ec 3d 72 01 d7 3d 52 06 c1 3e fa ba f9 3d
       0.1155292 0.104983225 0.37700135 0.12193866
000090 bc e8 71 3e 1e 15 1f 3d c3 48 80 3e ee 0c 79 3e
       0.23623937 0.0388385 0.25055513 0.24321339
0000a0 ca 70 cc bd 79 12 b9 bd c1 0e b5 3d de f7 1c 3e
       -0.0998245 -0.090367265 0.08840705 0.15328929
0000b0 c6 61 cc bd 89 e2 09 3c d7 70 4a bd ce 2d 58 3d
       -0.09979586 0.008415827 -0.04942402 0.052778058
0000c0 10 00 88 bc d8 2e 1f be 1a 4d e2 3b bb 50 e3 3b
       -0.016601592 -0.15545213 0.006906164 0.006937114
0000d0 81 3b 13 3c f7 d4 ae bd 4b c7 ca bd e4 8b b9 3b
       0.008986355 -0.085367136 -0.09901293 0.005662428
0000e0 d9 6e c1 bd a1 ff 8e bd bb ae 0e 3e c7 65 1a 3e
       -0.09444971 -0.06982351 0.13933842 0.15077887
0000f0 10 10 b5 3d fd 0a e9 bd 86 9c 82 bd 51 65 50 3e
       0.08840954 -0.11379049 -0.06377511 0.20351149
000100 1a 37 c4 3d c4 9a cc bd 75 53 ef 3d 0c 2f 85 bd
       0.09580822 -0.09990457 0.1168584 -0.06503114
000110 2a 30 87 3d 5a b2 1e 3e b3 ec 5f 3d 93 41 db 3d
       0.066009834 0.15497723 0.054669093 0.10705867
000120 ae b3 2d 3e 7e bd 41 bd 2c 09 47 3e 1d da 7a 3e
       0.16963074 -0.047299854 0.19437093 0.24497266
000130 74 58 00 3e d9 14 8f 3c c9 55 3c 3e 42 b8 bc 3d
       0.12533742 0.017465996 0.183921 0.09214832
000140 d5 66 4b bd ff 52 4a 3e 8d 21 7f bd 32 c5 8b bb
       -0.049658615 0.19758223 -0.062287856 -0.004265451
000150 74 22 61 be 4a 11 3b be 29 41 32 3c f0 ab 37 3d
       -0.21985799 -0.18268314 0.010879793 0.044841707
000160 e2 08 1a bb 13 1d 6a bd ba 8c b5 bd 11 83 e3 bd
       -0.002350383 -0.057156634 -0.08864732 -0.11108983
000170 11 f3 72 be 97 67 b8 bd 24 62 70 3e c6 76 17 be
       -0.23725535 -0.09004133 0.23474938 -0.14791402
000180 12 96 10 3e 8a cc ab 3d 6b c5 13 3e 6b 50 2a 3c
       0.14119747 0.08388622 0.14430778 0.01039515
000190 71 4c a1 3d a7 4b 67 3d 5e 3e 4a 3e 2f 35 f7 bd
       0.07875908 0.056468632 0.19750354 -0.12070691
0001a0 f9 df 57 3e e2 03 db 3c 41 1e b5 bd b5 35 55 3e
       0.21081533 0.02673525 -0.08843661 0.20821269
0001b0 da 96 6c be 7f bb a4 3d 81 ea e8 bd 32 8b 50 bd
       -0.2310442 0.080435745 -0.11372853 -0.050913997
0001c0 87 56 d9 bd 28 91 00 bc 5c 51 9f bd f1 d2 18 bd
       -0.10612207 -0.007847108 -0.0777919 -0.037310544
0001d0 fa b9 14 be 7d 17 df 3c 88 72 08 3d cc 5a ed 3c
       -0.1452407 0.02723288 0.03331235 0.02897396
0001e0 e3 16 83 3e 03 c1 a1 bd d0 34 bf 3c 69 4e b9 3c
       0.256034 -0.07898142 0.023340613 0.022620397
0001f0 6d 5e a8 bd 6c c6 de bc da 34 1e 3d ce e8 0d bd
       -0.08221135 -0.027194224 0.038624622 -0.034645848
000200 30 9f 0d 3d 18 03 e4 3d a7 46 40 3e 29 a2 96 3d
       0.03457564 0.111334026 0.18776952 0.07355148
000210 a6 75 3c 3e 25 20 9e 3d 9e 51 d2 3d 61 5d ba 3d
       0.18404254 0.07720975 0.102694735 0.09099842
000220 96 67 dd bd f6 cf 02 bd ad 47 5f 3e aa 38 bf 3d
       -0.10810773 -0.03193661 0.21804686 0.0933698
000230 e6 de 30 3e 66 bf 52 3e 3c a8 f3 3d c3 32 8a 3c
       0.17272529 0.20580825 0.118973225 0.016869908
000240 fb c7 e1 3b d7 97 30 3b 97 45 a9 3d 67 ec e1 3b
       0.0068902946 0.0026945972 0.08265226 0.0068946364
000250 5b cc 5b 3d b0 13 7c 3e 5e 15 21 3e 5f 58 4d 3e
       0.053661685 0.24616885 0.15730807 0.20053242
000260 fd 92 51 3e 92 01 5b 3e 91 13 71 3e 3b 47 22 3e
       0.20466228 0.21387318 0.2354262 0.15847485
000270 85 99 1c 3e 54 5b c3 3d 64 9d 09 3e 27 b0 6a 3e
       0.15292938 0.09538904 0.13438946 0.2291876

model.rnn.bias_hh_l1 f4 [160]
000000 27 53 7d 3e 1b c0 53 3c 2c 6e 71 3e af bc c7 3d
       0.24738751 0.0129242195 0.23577183 0.097527854
000010 4e 23 87 bd b3 d2 ca bd 60 89 81 3d e7 a9 8e 3e
       -0.06598531 -0.09903469 0.0632503 0.27864
000020 79 b8 c0 3d 9f d9 5d bb ff db 3d 3e 99 3d f3 3c
       0.09410185 -0.0033851636 0.18540953 0.029692458
000030 e1 d6 fc 3d 13 7f 80 3e 20 ea 7e 3e f3 34 b6 bd
       0.123456724 0.2509695 0.24893999 -0.08896818
000040 81 f6 8b bd 63 65 24 3e 10 a2 16 3e 0f 83 5b 3e
       -0.06834126 0.16054301 0.1471026 0.21436714
000050 e6 b1 99 3d e9 3b 08 3e ab d0 b1 3e a1 09 13 3d
       0.075046346 0.13304104 0.34729514 0.035897855
000060 be 71 dd 3b d0 f2 49 3e e5 10 0b 3e ba f2 6d 3d
       0.006757944 0.19721532 0.13580664 0.05809281
000070 66 0c b1 3d 85 85 cf 3e 03 ea ce 3d 48 6e 86 3e
       0.08644943 0.40531555 0.10103228 0.26256013
000080 96 f7 55 bd c9 ea a5 3e 75 87 40 3e fa 4b 1d 3e
       -0.05223807 0.3240569 0.18801673 0.15361014
000090 fe 35 7a 3d b8 88 db bc 81 9f 2d 3e b2 a5 f4 3d
       0.061086647 -0.026798591 0.16955377 0.119456664
0000a0 8a 06 69 bc e2 f5 2e 3e 45 a9 9c 3d ca 59 15 3e
       -0.01422275 0.17085984 0.07649473 0.14585033
0000b0 17 a7 e7 3d 14 3a 87 3e 96 c0 cc 3d d4 58 81 3b
       0.11311167 0.26411498 0.0999767 0.0039473567
0000c0 18 18 89 bc 07 52 7c bd 6c c5 a5 3d ae 90 a7 3d
       -0.016735122 -0.061601665 0.08094296 0.08181892
0000d0 d2 cc 10 bc e1 d0 17 3e ff 54 65 3b 96 75 ba bd
       -0.0088378955 0.14825775 0.0034993289 -0.09104459
0000e0 3b d5 12 be e0 f2 32 3d 0d 50 b9 bc e1 66 0c bc
       -0.14339153 0.043688655 -0.022621179 -0.00856945
0000f0 d6 b7 42 3e ec 3b f3 bd 04 31 46 3d 67 2b 06 3e
       0.1901544 -0.118766636 0.04838659 0.13102494
000100 0e 1c 30 3e 88 0e 9b bc 32 79 3d 3d d9 fc e5 bd
       0.17198202 -0.018927827 0.04625816 -0.112298675
000110 8a ee 18 3e b4 bd 19 bd f6 85 d3 3d ea 9b 3f bd
       0.14934745 -0.03753443 0.103282854 -0.04677955
000120 7b f7 0b 3e 4f 63 c8 bc f0 3f 11 3e 6d 40 46 bd
       0.13668625 -0.024461417 0.14184546 -0.048401285
000130 78 02 04 3e a5 7a cf 3d 94 2b 0b 3e 88 a1 0d be
       0.12891567 0.101308145 0.13590842 -0.1383115
000140 9f 43 26 be 39 63 2b 3e 0c f5 e7 bd a4 3c 6c 3d
       -0.16236733 0.16737069 -0.11326036 0.05767502
000150 42 85 51 be 5d e6 de bc fc 74 34 3e ca dc ef 3d
       -0.2046099 -0.027209455 0.17622751 0.11712034
000160 8f c1 35 be 35 bd 55 bb f4 c4 ed bd f6 e4 6a be
       -0.17749618 -0.0032613997 -0.116098315 -0.22938904
000170 3d b6 4e be c9 b8 72 be 8d ac b4 3d 08 e6 c9 3b
       -0.20186706 -0.23703302 0.08821974 0.006161455
000180 78 80 a1 bc 80 34 d1 3d f0 d4 36 3c f7 2f 9a 3b
       -0.019714579 0.10215092 0.011159167 0.004705425
000190 27 21 e0 3d 72 e2 17 3d 57 ef d8 3c 9c 97 89 be
       0.10943823 0.03708119 0.026481314 -0.2687348
0001a0 d1 76 8d 3d 38 6d f8 3d ab 1b 5d 3d bf 0c 41 3e
       0.06907428 0.12130207 0.053981464 0.18852518
0001b0 c2 aa f6 bd 31 03 67 bd 0c 8b 1b be b4 58 c8 bc
       -0.12044288 -0.056399528 -0.15189761 -0.02445636
0001c0 7c f7 75 be 61 ae 5d be c9 72 24 3d bc 58 4e 3e
       -0.24020189 -0.21648552 0.04014853 0.20151037
0001d0 a0 86 b2 bd 86 35 02 3e c6 c5 5c be 97 df ae bd
       -0.08717084 0.1271573 -0.2155982 -0.0853874
0001e0 a3 5c 99 3e d9 19 6d bc b2 5f b4 bb ef 00 dc 3d
       0.2995349 -0.014471495 -0.005504572 0.107423656
0001f0 18 46 38 3e 6d 92 88 bc e6 54 fc 3d dd 84 74 3d
       0.17995489 -0.016671384 0.123208806 0.05969702
000200 5a f1 a5 3b 48 b4 85 3d 5e f2 d2 bd ec 91 32 3c
       0.0050641717 0.065285265 -0.10300134 0.010899048
000210 50 fb 0a 3b e5 d1 92 bd fc 48 60 bd eb 82 74 bd
       0.0021206923 -0.071689405 -0.054757103 -0.059695166
000220 a6 9a ab bd 8f b1 3b 3e 4d 3b 60 bc 62 fb e5 3d
       -0.08379106 0.18329452 -0.013686013 0.11229588
000230 44 84 50 bd 2c 83 e1 bc bc e8 06 3e 79 e5 c1 bc
       -0.05090739 -0.027528368 0.13174719 -0.023668991
000240 99 b2 41 3e 87 0e 04 3e eb c5 4f bd 3a d1 07 3e
       0.18915786 0.12896167 -0.05072586 0.13263407
000250 2b 11 92 bd a9 40 dc 3d fd be da 3c e9 9d 89 3e
       -0.07132181 0.107545204 0.026702398 0.26878288
000260 cf 9a 38 3e ee f1 b6 3e c9 f0 89 3e ea 45 a1 3d
       0.18027805 0.35731453 0.26941517 0.07874663
000270 c4 be 67 3e c0 8f dc 3d 72 61 a5 3e 49 db 82 bd
       0.22631365 0.10769606 0.32300907 -0.063894816
