entrega_final/AutogluonModels/ag-20250719_212725/models/PatchTST/W1/gluon_ts/prediction-net-state.pt (torch, 218620 bytes, 34 tensors)

model.patch_proj.weight f4 [32, 18]
000000 a3 18 08 bd 2a 53 ed 3d 88 9e c8 3b a9 44 f1 3d
       -0.03322662 0.11588128 0.006122414 0.11780674
000010 e8 da c2 3d 28 f7 2a 3d ab 50 06 3e 41 8d 27 3d
       0.09514409 0.041739613 0.1311671 0.040906195
000020 2f 3b 04 3d b4 c5 5c 3d 1e 1a 2b bd b6 80 c2 bc
       0.032283004 0.053899482 -0.041772954 -0.023743015
000030 77 05 3e 3d da 54 8a 3d 06 c0 00 3d 6b 68 1d bc
       0.04639193 0.067544654 0.031433128 -0.009607415
000040 cd db f8 3c a0 22 73 bd 11 64 10 bd 2d 6a 8c bd
       0.030378247 -0.059359193 -0.03525168 -0.06856189
000050 cf ee 21 bd ad b0 0a 3d 83 a4 f5 3d d6 ca f1 3c
       -0.039534386 0.033859897 0.11994269 0.029515665
000060 7f b1 19 3d cc ec d0 3c cb bd df 3b ae 9f f9 bd
       0.03752279 0.025503539 0.006828045 -0.121886596
000070 12 50 fd bd a0 94 ac bd 7f 84 65 bd 67 de 48 3c
       -0.12368788 -0.084267855 -0.05603456 0.012260056
000080 eb e1 b0 3d 07 f1 5d bc 0a 13 8f 3b bc b8 b6 3d
       0.086368404 -0.013546235 0.0043662833 0.08921954
000090 5c 88 5b 3c 74 62 72 3d 9c 55 58 3b bb e1 7b 3d
       0.01339921 0.059175923 0.0033010012 0.06149457
0000a0 7b 1c d9 3c 27 68 0e 3d 8d a4 88 3d 41 6f 17 3e
       0.026502838 0.034767296 0.066720106 0.14788534
0000b0 a6 65 2c 3e 31 6f ea 3c 38 9f 93 3d df 4e f1 3c
       0.16835651 0.028617473 0.07208103 0.029456554
0000c0 8a 3b 87 3b 71 69 90 bc dc 4f 9f bc 6b 21 c8 bc
       0.0041269707 -0.017628403 -0.01944726 -0.024429997
0000d0 fc 53 4a bc 2b 3a 5d bc 3d 7e 0a be bf 6c f9 bd
       -0.012349125 -0.013502638 -0.13524719 -0.12178945
0000e0 fb 2d 62 3c 86 51 54 3d 4b 7c bd bc a8 6b 07 bc
       0.013804908 0.05183556 -0.023130557 -0.008265413
0000f0 b3 09 80 bd 41 6c ba bb 54 45 c7 3c a7 6e 01 bd
       -0.0625185 -0.0056891744 0.02432505 -0.031599667
000100 6c 50 a5 bd 00 ca bb bd fd 4a 1f be 1e 6e d4 bd
       -0.0807198 -0.09169388 -0.1555595 -0.10372566
000110 d1 79 90 3b 09 4e dd bc 7c 40 5e bc d1 77 44 bd
       0.004409053 -0.02701475 -0.013565179 -0.04796583
000120 06 fd 90 bd 3e 7e 2d bd 79 f7 c4 3c 5b b1 ab bc
       -0.070795104 -0.042356722 0.024043785 -0.020958593
000130 3a b0 b1 3d cf d6 c3 3d 4a 92 9b bc db b7 03 bd
       0.08676191 0.09562456 -0.018990654 -0.03215776
000140 bf 98 69 bd f9 c5 aa bc 7f b0 04 be 09 ef f3 bd
       -0.057030436 -0.020846354 -0.12957953 -0.11910827
000150 ca 67 aa 3c 54 73 8b bd 6d a7 09 bd c1 10 11 3d
       0.020801444 -0.068091065 -0.033606935 0.03541637
000160 62 9f 48 bc 31 11 2c 3d 69 70 0c 3d e6 2f ff bc
       -0.012245031 0.042008583 0.03428689 -0.03115077
000170 81 cd 52 3d f7 f7 1d bc 97 23 4b bd f3 17 d7 3c
       0.051465515 -0.009641639 -0.049594488 0.026256537
000180 79 f2 25 3d 3b 09 43 3d 4d 7a 4e bd 66 b1 87 3d
       0.040514443 0.047616225 -0.050409604 0.06625633
000190 00 12 3d 3d cd d2 e6 3d a4 ee f7 3d c3 30 d6 3d
       0.046159744 0.11270676 0.12106064 0.10458519
0001a0 68 75 25 3d d7 4b 61 3d 0e 26 b1 3c 91 4e 27 bc
       0.04039517 0.055003967 0.021624591 -0.010211603
0001b0 f5 1f 75 3d 40 73 43 3d 13 55 ef 3c 84 f1 84 bc
       0.05984493 0.047717333 0.029215371 -0.016228445
0001c0 08 dc a8 bc 77 ec c5 3c 60 20 46 3c 95 a6 80 ba
       -0.020612732 0.024160607 0.01209268 -0.000981527
0001d0 cf bc c1 bc 6f 4c dc 3c 7d 61 6e bc 3f c9 71 bd
       -0.023649601 0.026891915 -0.01454961 -0.059029814
0001e0 da 14 19 bc 1a f2 de bd d9 e2 0f be d4 2c 60 bc
       -0.00934335 -0.10886021 -0.1405138 -0.013682563
0001f0 7b ef 11 3c 6b 45 05 bd 51 41 ec bc 6b 75 29 3d
       0.008907194 -0.032536905 -0.028839739 0.041371744
000200 0e a9 28 bd f9 21 56 3d e8 68 8c 3d 16 c4 60 3d
       -0.041176848 0.052278493 0.06855947 0.054874502
000210 c0 51 2f bb 5b 3f 4a bd 7b 3e b5 3d e4 49 f9 3d
       -0.0026751608 -0.049376827 0.08849808 0.12172297
000220 1b ad 1c 3d 35 91 6f bd 3f de af bd dd 6a c4 bd
       0.038251024 -0.05848809 -0.08587312 -0.09590695
000230 d8 78 25 bd d4 e0 c6 bd 20 11 b4 bc 8e c4 80 3d
       -0.04039845 -0.09710851 -0.021980822 0.0628749
000240 64 a7 91 bc 5e 09 51 bd a2 ef 37 bd 5c 7c b5 3c
       -0.017780013 -0.051034324 -0.044906266 0.022154026
000250 9b 4b 61 bb 63 06 93 3c 3e 39 ea 3c 6f 91 34 3d
       -0.003437734 0.017947381 0.028591748 0.04408401
000260 02 35 e1 3c c2 e1 8b 3d e2 57 4a bc 7e f5 70 3b
       0.027491096 0.06830169 -0.012350054 0.0036767418
000270 39 8a bb bd a6 9d 19 be f4 1f cb bc bf 08 55 bd
       -0.09157223 -0.15001544 -0.02479551 -0.052010294
000280 00 cf 88 3c d3 2b 18 bd a6 f1 ee bb 45 f6 51 3c
       0.016700268 -0.03715117 -0.0072919903 0.012815063
000290 98 48 00 3d f4 48 60 3c bf 63 bc bc a2 22 9a bd
       0.03131923 0.013689268 -0.022996781 -0.07526137
0002a0 d3 f7 02 be 60 fb 8c bd 05 f3 cc bd f3 e2 31 3d
       -0.1278985 -0.068838835 -0.1000729 0.043429326
0002b0 85 eb e1 bc 4a c0 c6 3d e2 2e 48 3d f7 67 74 3d
       -0.027578125 0.09704645 0.048872836 0.05966946
0002c0 63 23 b0 3d d2 62 1c bd 16 74 ad bc a5 0c 45 bb
       0.086004995 -0.03818018 -0.021173518 -0.0030067351
0002d0 51 6e b8 bc b4 08 81 bd 10 6b 46 3c 65 25 ab 3d
       -0.02251354 -0.06300488 0.012110487 0.08356742
0002e0 e7 a7 10 3e 8b 6f 17 3e e6 6c a5 3d 60 9c c0 3d
       0.1412655 0.14788644 0.08077411 0.09404826
0002f0 d7 48 91 3d 6e 7b 09 3d 4f e1 80 bc 16 38 4c bd
       0.07093971 0.033564977 -0.015732436 -0.049858175
000300 a1 4c 63 3d da de b9 bd d8 a4 42 3d fe 67 cd 3d
       0.055493 -0.09075709 0.04752049 0.100296006
000310 bb a3 9b 3c cd d4 e1 3b 31 5f 4c bc 0a d0 fa bc
       0.018998971 0.006891823 -0.012473867 -0.030616779
000320 f9 1b eb 3c 0e 8e 07 3d 5a 32 fd 3d 30 5c 91 3c
       0.028699862 0.03309446 0.123631194 0.017744154
000330 10 07 e9 3d 17 54 c7 3d dc 73 d2 3d 15 e1 10 3e
       0.113783 0.09732836 0.10276005 0.14148362
000340 83 00 4f 3c 75 12 a7 bc 19 ca 6f ba 0e 34 d5 3c
       0.012634399 -0.020394543 -0.00091472414 0.026025798
000350 25 de 83 3a 85 e3 1f bc 1e c7 19 bd c9 11 f9 3c
       0.0010060711 -0.009758835 -0.03754341 0.030403988
000360 b8 53 f0 bb 6f f2 f1 3c 1a 50 2e bd 10 b6 a9 3c
       -0.007334199 0.029534547 -0.04255686 0.020716697
000370 a6 67 d8 38 88 6b 1e bd 8c 39 dd 3c 95 9e 13 bd
       0.00010318989 -0.03867677 0.02700498 -0.036039907
000380 cd af f1 3d 53 53 99 bc dd d0 10 3b ce 9e 09 3d
       0.118011095 -0.01871649 0.0022097148 0.033598714
000390 1d 54 64 bd 7f e4 b8 bc 73 94 45 bd 2c 41 d5 bd
       -0.05574428 -0.022569893 -0.048237275 -0.10412821
0003a0 49 52 91 bb db e5 40 3d 99 e8 c9 3d 09 e3 44 3d
       -0.004434858 0.047094207 0.098588176 0.04806808
0003b0 63 77 de 3c 8f 3f d1 3d 5e 16 99 3d 2c 97 9e 3d
       0.027156537 0.10217201 0.07474969 0.077436775
0003c0 d8 23 af 3d fe b9 9e bd 0f f0 a9 bd fc bd 9b 3c
       0.085517585 -0.07750319 -0.08297741 0.01901149
0003d0 e9 d2 51 bc 2e 98 5d bc 41 51 c8 bc fa 5b 84 3d
       -0.012806633 -0.013525052 -0.024452807 0.06462856
0003e0 80 82 dc bd 51 7a 3b bd a1 00 8e bc c5 c9 88 3c
       -0.107670784 -0.045770947 -0.017334284 0.016697774
0003f0 73 6a 0c bd f0 b5 f4 3c 03 d9 c7 bc 4d f0 63 3d
       -0.034281205 0.02987191 -0.024395471 0.05564909

model.patch_proj.bias f4 [32]
000000 47 f7 dd 3a bd 02 9d 3c 69 44 bd bb 73 6d 85 3a
       0.0016934656 0.019166345 -0.0057759774 0.0010179713
000010 ec 22 1e 39 7b 7a 3f bc 4a 79 81 3c ff 7c 74 3c
       0.00015081064 -0.011686916 0.015804905 0.0149223795
000020 d4 c3 bc 3b ff d0 68 3c a3 14 d4 bb 1c b0 7d 3b
       0.005760649 0.014209985 -0.0064721867 0.0038709706
000030 f3 a6 e2 3c a0 19 2b 3c 13 8d 08 3b 7c ef 38 3c
       0.027667498 0.010443121 0.002083604 0.011287566
000040 4a f5 fa bc 4a 3b 9e 38 fe 01 8f bc 9b 20 c7 3a
       -0.030634541 7.5450705e-05 -0.017457005 0.0015192212
000050 d6 35 e2 3c e2 13 08 3d c9 0d 81 bc 10 c5 9f bc
       0.027613562 0.033222087 -0.015753644 -0.019503146
000060 f5 5c e8 bc 61 5f 08 bb 1d 32 49 bd 27 b2 d1 bc
       -0.028364638 -0.0020808803 -0.049120057 -0.025597645
000070 a2 bf e5 bc fe 78 5b bc c2 81 e2 bc 55 a1 09 bd
       -0.02804548 -0.013395546 -0.027649764 -0.033601124

model.positional_encoding.weight f4 [12, 32]
000000 00 00 00 00 00 00 00 00 00 00 00 00 00 00 00 00
       0.0 0.0 0.0 0.0
000010 00 00 00 00 00 00 00 00 00 00 00 00 00 00 00 00
       0.0 0.0 0.0 0.0
000020 00 00 00 00 00 00 00 00 00 00 00 00 00 00 00 00
       0.0 0.0 0.0 0.0
000030 00 00 00 00 00 00 00 00 00 00 00 00 00 00 00 00
       0.0 0.0 0.0 0.0
000040 00 00 80 3f 00 00 80 3f 00 00 80 3f 00 00 80 3f
       1.0 1.0 1.0 1.0
000050 00 00 80 3f 00 00 80 3f 00 00 80 3f 00 00 80 3f
       1.0 1.0 1.0 1.0
000060 00 00 80 3f 00 00 80 3f 00 00 80 3f 00 00 80 3f
       1.0 1.0 1.0 1.0
000070 00 00 80 3f 00 00 80 3f 00 00 80 3f 00 00 80 3f
       1.0 1.0 1.0 1.0
000080 a4 6a 57 3f ba 7d 08 3f 3e 39 9f 3e 3a 23 35 3e
       0.84147096 0.53316844 0.3109836 0.17689219
000090 76 75 cc 3d b0 36 66 3d 5c 81 01 3d 42 ab 91 3c
       0.099833414 0.056204498 0.031617507 0.017781857
0000a0 57 d6 23 3c 5c 44 b8 3b 20 3e 4f 3b 20 15 e9 3a
       0.009999833 0.0056233834 0.0031622723 0.0017782785
0000b0 6d 12 83 3a 16 6a 13 3a 5f cb a5 39 53 77 3a 39
       0.0009999998 0.0005623413 0.00031622776 0.00017782794
0000c0 40 51 0a 3f 0e 94 58 3f 6a 4e 73 3f 83 f6 7b 3f
       0.5403023 0.84600914 0.95041525 0.9842302
0000d0 98 b8 7e 3f 68 98 7f 3f 3c df 7f 3f a3 f5 7f 3f
       0.9950042 0.9984193 0.99950004 0.99984187
0000e0 b9 fc 7f 3f f7 fe 7f 3f ac ff 7f 3f e5 ff 7f 3f
       0.99995 0.9999842 0.999995 0.9999984
0000f0 f8 ff 7f 3f fd ff 7f 3f ff ff 7f 3f 00 00 80 3f
       0.9999995 0.9999998 0.99999994 1.0
000100 b7 c7 68 3f 0a f2 66 3f 1b 54 17 3f f6 47 b2 3e
       0.9092974 0.9021307 0.5911271 0.34820527
000110 f9 6f 4b 3e 88 d9 e5 3d c8 70 81 3d 5c a5 11 3d
       0.19866933 0.112231314 0.063203394 0.03555809
000120 3e d4 a3 3c 9d 43 38 3c dd 3d cf 3b 08 15 69 3b
       0.019998666 0.011246589 0.0063245133 0.0035565514
000130 69 12 03 3b 14 6a 93 3a 5f cb 25 3a 53 77 ba 39
       0.0019999987 0.0011246824 0.0006324555 0.00035565588
000140 33 11 d5 be b2 e8 dc 3e ec 7b 4e 3f a5 fa 6f 3f
       -0.41614684 0.43146282 0.8065784 0.9374183
000150 a5 e5 7a 3f f3 61 7e 3f f9 7c 7f 3f 8e d6 7f 3f
       0.9800666 0.9936821 0.9980007 0.9993676
000160 e5 f2 7f 3f db fb 7f 3f b0 fe 7f 3f 96 ff 7f 3f
       0.9998 0.99993676 0.99998 0.9999937
000170 de ff 7f 3f f5 ff 7f 3f fd ff 7f 3f ff ff 7f 3f
       0.999998 0.99999934 0.9999998 0.99999994
000180 c3 81 10 3e d7 45 7e 3f c2 09 50 3f 6d 2f 02 3f
       0.14112 0.9932532 0.8126489 0.50853616
000190 6d 4e 97 3e d8 ee 2b 3e c1 ff c1 3d 4d 69 5a 3d
       0.29552022 0.1679033 0.09472609 0.05332308
0001a0 20 b9 f5 3c c7 31 8a 3c 11 6e 1b 3c a8 cf ae 3b
       0.029995501 0.016869439 0.009486691 0.005334813
0001b0 93 9b 44 3b 1b 1f dd 3a 0d b1 78 3a 7e d9 0b 3a
       0.0029999956 0.0016870232 0.0009486832 0.0005334838
0001c0 26 70 7d bf a8 7f ed bd 57 2f 15 3f 29 6d 5c 3f
       -0.9899925 -0.11596614 0.5827536 0.86104065
0001d0 ef 90 74 3f 9e 5d 7c 3f 4f d9 7e 3f c3 a2 7f 3f
       0.9553365 0.9858035 0.99550337 0.9985773
0001e0 83 e2 7f 3f ad f6 7f 3f 0d fd 7f 3f 11 ff 7f 3f
       0.99955004 0.9998577 0.999955 0.99998575
0001f0 b5 ff 7f 3f e8 ff 7f 3f f8 ff 7f 3f fe ff 7f 3f
       0.9999955 0.99999857 0.9999995 0.9999999
000200 cf bd 41 bf ed 49 47 3f de 1d 74 3f bc 1f 27 3f
       -0.7568025 0.77847177 0.95358074 0.652828
000210 d7 61 c7 3e c6 65 64 3e 88 2e 01 3e c8 8d 91 3d
       0.38941833 0.22304448 0.12615407 0.07107121
000220 db cb 23 3d a2 40 b8 3c cd 3c 4f 3c a7 14 e9 3b
       0.039989334 0.022491757 0.012648773 0.0071130577
000230 58 12 83 3b 0e 6a 13 3b 5c cb a5 3a 52 77 3a 3a
       0.0039999895 0.0022493633 0.0012649107 0.0007113117
000240 30 55 27 bf 9d af 20 bf b1 2e 9a 3e ed eb 41 3f
       -0.6536436 -0.62767965 0.30113748 0.7575062
000250 a7 ca 6b 3f 09 8d 79 3f 69 f4 7d 3f 47 5a 7f 3f
       0.921061 0.9748083 0.99201065 0.9974713
000260 94 cb 7f 3f 6c ef 7f 3f c2 fa 7f 3f 58 fe 7f 3f
       0.9992001 0.99974704 0.99992 0.9999747
000270 7a ff 7f 3f d6 ff 7f 3f f3 ff 7f 3f fc ff 7f 3f
       0.999992 0.9999975 0.9999992 0.99999976
000280 10 7c 75 bf d6 da a5 3e 7f fc 7f 3f ab ca 46 3f
       -0.9589243 0.3239352 0.99994653 0.77652997
000290 44 77 f5 3e ee 11 8e 3e 1e 3c 21 3e 21 db b5 3d
       0.47942555 0.27748054 0.15745589 0.08879686
0002a0 f5 b6 4c 3d fe 4d e6 3c 81 85 81 3c bb ac 11 3c
       0.04997917 0.028113361 0.01581073 0.00889128
0002b0 de d6 a3 3b 8c 44 38 3b 31 3e cf 3a 26 15 69 3a
       0.0049999794 0.002811703 0.0015811381 0.0008891396
0002c0 2c 3c 91 3e 40 32 72 bf d4 72 29 bc f1 4c 21 3f
       0.2836622 -0.94607925 -0.010342319 0.6300803
0002d0 40 a9 60 3f 7c f2 75 3f 81 ce 7c 3f 1e fd 7e 3f
       0.87758255 0.96073127 0.987526 0.99604976
0002e0 19 ae 7f 3f 19 e6 7f 3f cf f7 7f 3f 69 fd 7f 3f
       0.99875027 0.99960476 0.999875 0.9999605
0002f0 2e ff 7f 3f be ff 7f 3f eb ff 7f 3f f9 ff 7f 3f
       0.9999875 0.99999607 0.99999875 0.9999996
000300 8c 0f 8f be 74 e5 6b be 4d 78 72 3f 89 30 60 3f
       -0.2794155 -0.23036748 0.94714814 0.8757406
000310 69 8c 10 3f fd 7d a9 3e 6f 20 41 3e c1 19 da 3d
       0.5646425 0.33103934 0.18860029 0.106494434
000320 d1 9c 75 3d bf 2c 0a 3d 46 6c 9b 3c 04 cf 2e 3c
       0.059964005 0.03373408 0.018972527 0.010669474
000330 59 9b c4 3b 06 1f 5d 3b 05 b1 f8 3a 7d d9 8b 3a
       0.005999964 0.0033740415 0.0018973654 0.0010669675
000340 b8 cd 75 3f 53 1d 79 bf 6f 3f a4 be 34 2f f7 3e
       0.96017027 -0.9731037 -0.32079646 0.482782
000350 32 49 53 3f e2 90 71 3f e3 67 7b 3f 51 8b 7e 3f
       0.8253356 0.943617 0.98205394 0.9943133
000360 12 8a 7f 3f b3 da 7f 3f 34 f4 7f 3f 45 fc 7f 3f
       0.99820054 0.99943084 0.99982 0.9999431
000370 d2 fe 7f 3f a1 ff 7f 3f e2 ff 7f 3f f6 ff 7f 3f
       0.999982 0.99999434 0.9999982 0.9999994
000380 46 30 28 3f 6e b6 36 bf 6f e8 4c 3f 44 84 72 3f
       0.6569866 -0.71372116 0.80042166 0.9473307
000390 73 eb 24 3f df 60 c4 3e 50 d3 60 3e ba 46 fe 3d
       0.64421767 0.38355157 0.2195561 0.12415834
0003a0 32 3e 8f 3d 60 31 21 3d a6 52 b5 3c 2a f1 4b 3c
       0.06994285 0.03935373 0.022134136 0.012447635
0003b0 c7 5f e5 3b be fc 80 3b ec 11 11 3b 66 28 a3 3a
       0.006999943 0.003936379 0.0022135926 0.0012447953
0003c0 bd ff 40 3f 60 4f 33 bf bb 74 19 bf b9 f8 a3 3e
       0.75390226 -0.7004299 -0.5994374 0.32025698
0003d0 b3 cc 43 3f c5 6b 6c 3f ea c0 79 3f e9 04 7e 3f
       0.7648422 0.92351943 0.9755999 0.9922624
0003e0 81 5f 7f 3f 3b cd 7f 3f f2 ef 7f 3f ec fa 7f 3f
       0.997551 0.9992253 0.999755 0.9999225
0003f0 65 fe 7f 3f 7e ff 7f 3f d7 ff 7f 3f f3 ff 7f 3f
       0.9999755 0.99999225 0.99999756 0.9999992

model.encoder.layers.0.self_attn.in_proj_weight f4 [96, 32]
000000 8e c2 38 b7 3a 56 99 be 33 b1 45 3d ed d9 a3 3d
       -1.1012553e-05 -0.29948598 0.048264693 0.080005504
000010 7c 23 8d 3d 66 1a 04 be cf 8a 06 bd 56 2b 33 be
       0.06891534 -0.12900695 -0.032847222 -0.17497
000020 db 8f ae bc 53 1e 05 3e 69 ba 0d 3e 37 93 6b be
       -0.02130883 0.12999849 0.13840641 -0.23005377
000030 47 50 52 be 8a 39 35 3e 04 2b 1f be 35 7d 43 3d
       -0.20538436 0.1769773 -0.15543753 0.04772683
000040 87 12 33 be b2 33 5e 3e d0 15 1e be 8c 0f 29 bd
       -0.17487536 0.21699408 -0.15438008 -0.041274592
000050 a4 27 9b 3d 9f 1f 09 3e da a3 2e 3e 6e 98 63 3e
       0.0757592 0.13390969 0.17054692 0.22226116
000060 a3 df 42 be f6 2f 89 3e fe b5 1a 3d bf 72 0b be
       -0.19030623 0.26794404 0.037771218 -0.13617991
000070 b6 1f 30 be 2f b0 2c be a5 8c d7 3d a8 ee fc 3d
       -0.17199597 -0.16864084 0.10524873 0.123502076
000080 44 5a 0a 3e 66 90 34 3e 8e a8 11 3e 2f 42 86 bd
       0.13510996 0.17633209 0.14224455 -0.06555592
000090 98 1b 15 be 66 66 de bd 4a b6 c6 3d 03 81 f1 bd
       -0.14561307 -0.10859375 0.09702738 -0.11792185
0000a0 4e eb 55 3e af 42 01 be b0 e2 fc 3d 66 48 3d bd
       0.20890543 -0.12623094 0.12347925 -0.046211623
0000b0 e1 25 a6 3d b5 8d 01 be 63 63 4a be 50 e4 ff bd
       0.081126936 -0.12651713 -0.19764476 -0.12494719
0000c0 8c da 74 be 45 4e 79 be 15 15 de bc 01 31 41 3e
       -0.23911494 -0.24346264 -0.027109662 0.1886635
0000d0 31 74 d7 3d 63 b2 f7 bd a7 11 60 be 44 bf 3a bc
       0.105202086 -0.120945714 -0.21881734 -0.01139814
0000e0 0f d3 5f bd 92 56 67 3d 62 dd a7 3d 44 a8 e6 bd
       -0.05464464 0.056479044 0.08196522 -0.11262563
0000f0 a8 b2 6d ba 63 e2 97 3d e2 e1 6b bd 8a 02 be bc
       -0.00090674544 0.07416227 -0.057588466 -0.02319457
000100 84 c0 4c 3d 15 b8 05 3d 20 e0 09 3e fa f2 c4 bd
       0.049988285 0.032646257 0.13464403 -0.096166566
000110 54 b2 78 bb ca c6 23 be 0c cd 81 3d 73 ee 7b 3e
       -0.0037948089 -0.15993801 0.06337938 0.2460268
000120 58 1d 34 bb 7a e7 d4 3d b0 9f eb bd c0 ea 0a 3e
       -0.002748331 0.10395713 -0.11505067 0.13566113
000130 54 8b f4 bd 69 64 72 3e d5 52 1b bd dc 46 27 be
       -0.11940637 0.23671116 -0.03792079 -0.16335624
000140 59 fd e3 bd 98 b7 1a be ce d1 3e 3d 6c a2 4b be
       -0.111323066 -0.15109098 0.046586804 -0.19886178
000150 15 9c 81 bd 3b c4 1b 3d 62 9b 37 3d fb f1 53 bd
       -0.063285984 0.038028937 0.04482592 -0.051744442
000160 0c 71 01 3e b3 cf 3e 3e fe 98 aa 3c 04 55 9e bd
       0.1264078 0.18633918 0.020824905 -0.07731059
000170 17 5f 10 3a 93 d6 cc 3d 6b a7 17 3e 26 86 b3 bd
       0.00055073336 0.10001864 0.14809959 -0.08765821
000180 22 82 3d 3e 9a 71 a7 3d 6a 3b 55 3e c3 0c 4c be
       0.18506673 0.08175965 0.20823446 -0.19926743
000190 f0 5d 9d 3d 38 d7 df bb 52 a5 04 be c8 78 b1 bb
       0.07683933 -0.006831076 -0.1295369 -0.0054160096
0001a0 bb c4 94 be 93 2a dd bc b8 24 f4 3b 15 ff 7b 3d
       -0.29056343 -0.02699784 0.0074506663 0.061522562
0001b0 27 9e 23 3d f4 25 ae 3d 44 86 2b be bb fd 26 3c
       0.039945748 0.08503333 -0.16750437 0.01019233
0001c0 1a e8 7c 3e 46 2c 05 3d 68 20 0f 3b 13 6d 0c be
       0.24697915 0.032512926 0.0021839384 -0.13713484
0001d0 8b a4 3b 3e 07 60 24 3e 70 fc 2c 3e 0f 3f 02 3e
       0.18324487 0.16052257 0.16893172 0.12719367
0001e0 90 82 55 3e 02 51 03 3e 0a ab 01 bd 1c d2 3e 3e
       0.20850587 0.12823871 -0.031657256 0.18634838
0001f0 6d 6d c2 bd f0 61 b9 bd 37 56 44 3d 38 92 98 bc
       -0.094935276 -0.09051883 0.047933783 -0.01862441
000200 3f 5e 04 3d a8 9f 84 bd d3 6b 00 be b5 00 55 3d
       0.032316443 -0.064757645 -0.12541132 0.052002627
000210 0d 2c b7 3d 50 ff d0 3d 62 d7 40 3e 13 a4 2a 3d
       0.08943949 0.10204947 0.18832162 0.04166038
000220 8d d5 04 be 63 08 1d 3e 0c 21 1e 3e c5 8e 57 3e
       -0.12972088 0.1533523 0.15442294 0.21050556
000230 6d ae a0 bd 34 39 8f bd 11 24 3c 3d 06 bf 54 3e
       -0.07845769 -0.069933325 0.045932833 0.20775995
000240 0d b5 58 bd 12 de 2d 3c 3e 63 0a be 7f c5 4b bd
       -0.05290704 0.010612028 -0.1351442 -0.049748894
000250 bd 9c 46 be e5 3d 59 3c 51 59 1a 3e e2 79 42 3d
       -0.19395728 0.013259386 0.15073134 0.047479518
000260 41 a4 39 3e 16 0e 12 be 7b 3e 29 be f6 b3 39 be
       0.18129064 -0.14263186 -0.1652774 -0.18135056
000270 a4 54 a0 bd eb b9 39 3e e4 a8 63 3e eb f2 2d 3e
       -0.07828644 0.18137328 0.22232395 0.16987197
000280 63 b5 d8 bd 5f f3 34 3e fb 70 80 3d e7 3d 26 3e
       -0.10581472 0.17670964 0.06271549 0.16234551
000290 46 21 17 3e fa 05 2f bd 43 19 76 be c1 91 14 3e
       0.14758787 -0.04273031 -0.24033074 0.14508726
0002a0 e4 61 21 3e b8 2c 45 be a1 27 5d be c2 29 41 3e
       0.15759999 -0.1925534 -0.21597148 0.18863586
0002b0 60 db 0b 3e 36 b3 04 bd ec f2 81 3d 3a 1a 01 bd
       0.13657904 -0.03239747 0.06345162 -0.031519152
0002c0 7c 18 b5 bd 41 ab 8c be 58 2b 1b bb 21 37 c7 3c
       -0.08842561 -0.27474406 -0.0023676958 0.02431828
0002d0 f1 53 e1 bd 8d 62 33 3c 7a 98 45 be a2 b6 eb bd
       -0.11002339 0.010948789 -0.19296446 -0.11509444
0002e0 44 64 6f bc 3e 8a 6e be c5 53 2d be 7a 20 10 bd
       -0.0146113075 -0.23294923 -0.16926487 -0.035187222
0002f0 97 ee e6 bd 40 68 b0 3d a4 32 72 be e9 c0 c1 bd
       -0.11275976 0.08613634 -0.2365213 -0.09460623
000300 55 62 69 3d 97 73 28 be 4b 57 a5 3d 52 0f 5a 3d
       0.056978542 -0.16450344 0.080732904 0.053237267
000310 6a d1 ec bc 4c ff 38 3d 90 13 0f be 87 4a 3d be
       -0.02890845 0.045165345 -0.13972306 -0.18485461
000320 8f 14 9e bd c2 87 e0 3d ba 57 62 bd 0a 26 c2 bd
       -0.07718765 0.10963394 -0.055259444 -0.094799116
000330 70 69 fb bd d3 30 b8 3d 76 08 26 be ec 14 e0 3d
       -0.1227597 0.089936875 -0.16214165 0.109414905
000340 31 68 82 be 39 0b 71 be 66 26 5b be 4f 7f f8 bd
       -0.25470117 -0.23539437 -0.21401367 -0.12133657
000350 d0 45 aa 3d 04 1e 0d be 92 64 a7 3d cb 21 9c 3c
       0.08314097 -0.13780981 0.08173479 0.019059082
000360 94 ee 25 be 25 2b 35 be c9 27 64 be 9d 4e 2f 3e
       -0.16204292 -0.1769224 -0.22280802 0.17119832
000370 ce 61 49 be 2a 08 44 3e b3 97 9a 3d e0 b5 3d be
       -0.19666216 0.1914374 0.075484656 -0.18526411
000380 a9 4b 7a 3d 5d 2d 64 be 84 46 38 3d 76 a5 7c bd
       0.06110731 -0.2228293 0.044989124 -0.061681233
000390 d8 8d 4e 3e ae c8 10 3d b1 4b 86 3e e8 de 5f be
       0.20171297 0.035347633 0.26229623 -0.21862376
0003a0 cd b3 b1 3d 88 b4 a7 bc 15 36 84 bd 79 a7 85 3d
       0.086768724 -0.020471826 -0.06455628 0.065260835
0003b0 4d ee 82 3d d2 4b cb bd e3 4c ef bd 19 09 c3 3d
       0.063931085 -0.09926571 -0.11684587 0.095232196
0003c0 0f 82 09 be 0c 6f 6d bc 91 0d 43 3e 50 59 cb bb
       -0.1342852 -0.014491808 0.19048144 -0.0062057152
0003d0 59 40 a2 bc 8d 79 47 3e c5 0d e9 3d 51 4b 34 be
       -0.019806074 0.19479962 0.113795795 -0.17606856
0003e0 e1 0a 4e 3e 54 bc 7a 3e 8f 66 c7 3d 28 31 7f bc
       0.20121337 0.24485904 0.097363584 -0.015575685
0003f0 8c 1f 79 3d ef 6f e3 bd cb d3 14 be ee 64 cc bd
       0.0608211 -0.11105334 -0.14533918 -0.09980188

model.encoder.layers.0.self_attn.in_proj_bias f4 [96]
000000 1c a2 0e 3b a4 2b e1 bc 63 c1 81 bc 4b c4 35 3d
       0.0021764105 -0.02748663 -0.015839284 0.044376653
000010 4f 84 a2 3c 06 d4 ea bc 1d d9 f4 bc 88 d9 9a ba
       0.01983848 -0.028665554 -0.029888684 -0.0011814097
000020 27 c4 b8 3b fc 31 c5 3b f5 36 9a 3b 67 7f 1a 3d
       0.0056386176 0.0060179215 0.0047062584 0.037719157
000030 33 d5 5c bb a9 8a c6 3b d6 76 06 bd 26 db e1 ba
       -0.0033696413 0.00605901 -0.032828175 -0.0017231449
000040 c8 68 17 ba 5d 38 b5 3b 22 ea 6e bb c3 2e 03 3d
       -0.00057758065 0.0055304007 -0.0036455472 0.032027017
000050 42 c5 1b 3d 55 69 97 bb 45 52 93 3c 77 0e 57 3c
       0.038029917 -0.004620711 0.017983565 0.013126007
000060 23 18 1e 3d 7a 9e ff 3b ba ae 24 bc 79 91 4c bc
       0.038597237 0.0078008743 -0.010051424 -0.012485855
000070 a9 9c 91 bd 34 f2 ba 3c 86 0d 6f b9 f7 b0 c6 ba
       -0.07109959 0.02282057 -0.00022797854 -0.0015158941
000080 f3 88 24 37 f5 77 59 b9 1d ce 8b b8 6a cb 23 b9
       9.807048e-06 -0.0002073942 -6.666428e-05 -0.00015620669
000090 62 a8 41 39 d9 64 39 b9 7d 19 30 b9 b0 eb 07 b8
       0.00018468642 -0.00017680544 -0.00016794163 -3.240601e-05
0000a0 d0 94 a5 b9 07 9b 8e b8 ae ef 93 b8 4d f1 84 39
       -0.00031582126 -6.799964e-05 -7.05415e-05 0.00025356785
0000b0 4c c0 11 b9 09 3a f8 b8 23 fc 88 b8 af 72 c3 b8
       -0.00013899914 -0.000118363714 -6.5319495e-05 -9.319686e-05
0000c0 29 9d 5b b9 74 8e 22 37 49 c7 8f b8 c1 56 c4 b9
       -0.00020944014 9.68912e-06 -6.855891e-05 -0.0003744867
0000d0 67 ca 81 3a db 39 37 b9 24 51 ec b9 56 93 71 ba
       0.000990224 -0.00017473793 -0.00045073882 -0.0009215375
0000e0 67 22 ee b9 26 e7 09 ba 2d 1b a6 3a 0f fb 3b 3a
       -0.0004542053 -0.0005260579 0.0012672894 0.00071708945
0000f0 45 e0 31 3a a9 29 04 ba 58 2c 1c b9 ad c2 6c 3a
       0.0006785433 -0.0005041608 -0.00014893839 0.00090316945
000100 87 c4 7b bc e6 bf 91 bc ee 99 66 3a ee e3 9f bc
       -0.01536668 -0.0177917 0.0008796741 -0.019517865
000110 08 5e 6f bb 8f 0a d9 3c 03 6b 8c bb 43 2f cc 3b
       -0.0036524553 0.026494293 -0.0042852177 0.00623122
000120 bb 19 ea 3c 34 cd 27 bc 56 1f a7 bc 6e 00 51 3c
       0.028576722 -0.010241795 -0.020400684 0.01275645
000130 1e e8 6c bc 54 14 7c 3c b2 d5 5f ba c7 2f c8 3a
       -0.014459638 0.015385706 -0.0008538618 0.0015273028
000140 32 60 ee bb 3a 3f 06 ba 41 56 ca bc 2d 4c 42 3c
       -0.007274651 -0.0005121116 -0.024699332 0.011858982
000150 39 f9 b3 bb bb 8d 87 bc e1 fe 0a bc e7 4a 8f bc
       -0.005492356 -0.016547075 -0.008483619 -0.01749177
000160 af 34 6f 3c 5b c2 a9 b9 2b 62 31 3c c6 aa 07 3d
       0.014599963 -0.00032378998 0.010826628 0.033121847
000170 d1 a9 f8 ba cd d9 9d ba 5a 7e 8f bc 8d 87 0f bc
       -0.0018971508 -0.0012043059 -0.017516304 -0.008760345

model.encoder.layers.0.self_attn.out_proj.weight f4 [32, 32]
000000 81 7d 22 be e5 3f 37 3e 12 75 0d 3c 52 97 71 3d
       -0.15868188 0.17895468 0.008633869 0.0589822
000010 84 97 62 3d 54 40 67 bd 79 8c 1b be 4f 60 df bd
       0.055320278 -0.056457832 -0.15190305 -0.10907041
000020 84 ec 22 3e 07 46 d7 3d df 78 f9 bc c2 cd 16 3d
       0.15910536 0.105114035 -0.030453144 0.03681732
000030 3a 2a 96 3d e1 2e d2 bd 6f a0 ba 3d e8 7a 09 3c
       0.07332273 -0.10262848 0.091126315 0.00839112
000040 4f b2 b3 bd 0c 40 fc 3d ae 48 d4 bd a7 39 fc bd
       -0.08774244 0.123169035 -0.10365425 -0.12315684
000050 fe 14 97 3d 9b 85 29 be 44 26 12 3e 38 d7 35 3e
       0.07377051 -0.16554873 0.1427241 0.1775788
000060 ce c1 17 3e 2d 6c 51 3d f5 16 11 3e 5b af e7 3d
       0.14820024 0.051128555 0.14168914 0.11312743
000070 d9 a7 83 3d 1c 58 d2 3d 81 b6 0f 3e 56 df 1e bc
       0.06428499 0.10270712 0.14034463 -0.009696802
000080 dd 74 fa 3d 01 62 96 bd 2c 02 05 3d e6 bb ea bd
       0.12229321 -0.073429115 0.032472774 -0.1146162
000090 1a 3d 0d be b5 3e 0c 3e 89 7e 19 be 5b 23 49 bd
       -0.1379284 0.13695796 -0.14989676 -0.049105983
0000a0 28 ac 4b bc 32 64 97 3d ce 2d d5 3c 34 c5 ea 3d
       -0.012431182 0.073921576 0.026022818 0.11463395
0000b0 53 0f 1a be 9f 16 5c 3d 24 76 24 3d 49 0c 02 3e
       -0.15044908 0.05373251 0.04015173 0.12699999
0000c0 35 b7 4d 3d a9 0b fc 3c 79 b7 a0 3d a0 cc 29 be
       0.050223548 0.030767279 0.07847495 -0.16581964
0000d0 80 6e b0 3c ce c9 06 3e 8d 50 fc 3c ba c3 28 3e
       0.021537066 0.1316292 0.030800128 0.16480914
0000e0 53 49 1a be 7c 95 17 bd aa e1 6f bd fd ae cb bd
       -0.15067033 -0.037007794 -0.05856482 -0.09945486
0000f0 fc e7 aa bd 79 cf 31 3d cb d0 cc 3c cf 8b 08 bd
       -0.08345029 0.043410752 0.025001904 -0.033336457
000100 96 ab 63 3c 80 1a 3b bd fe 18 ca bd 84 60 bb 3d
       0.01389589 -0.04567957 -0.09868048 0.09149268
000110 43 c3 a4 3d d9 8b 00 3e 1a 1c 1d 3e 1e c4 e4 bd
       0.08045056 0.12553348 0.15342751 -0.11170219
000120 35 e0 16 be a7 a7 76 3c e9 9e 3c be 94 67 18 be
       -0.14733966 0.01505462 -0.18419994 -0.14883262
000130 66 b2 01 3e 5b 30 c0 bc 83 e5 e0 bd bc c8 13 be
       0.1266571 -0.023460558 -0.10981276 -0.14432043
000140 cb 50 76 bd 35 f1 b4 3c de e1 ae 3d dd 29 b9 bc
       -0.060135644 0.022087673 0.085391745 -0.02260297
000150 b7 bc 19 3e 8e db 98 bc 70 14 10 bd 6a 1f b8 3d
       0.15013395 -0.01865938 -0.03517574 0.08990367
000160 b2 52 0c be bc 4a 14 bc 13 c2 ed bc 96 ab 1d 3e
       -0.13703421 -0.009051021 -0.029023206 0.15397486
000170 76 4c af bd 80 2b 08 3d c4 fb 34 3d 40 79 3b bd
       -0.08559506 0.03324461 0.044185415 -0.04576993
000180 4c a8 11 3e 1b f5 b8 3d cd b0 70 3c e6 e0 5b bd
       0.14224356 0.09031125 0.01469059 -0.053681277
000190 4c 3e a3 bd bf d3 35 3d 2f 58 eb 3d 67 b6 1d be
       -0.079708666 0.04439139 0.11491429 -0.15401612
0001a0 69 61 14 bd 49 82 2e be 42 7a ca 3d 40 2a a7 bd
       -0.03622571 -0.17041887 0.098866 -0.081623554
0001b0 e2 9c 6f bc 8a 47 f3 3d 64 e0 14 3c 27 4b 06 bb
       -0.014624806 0.11878879 0.009086702 -0.0020491572
0001c0 ad b5 b3 bd 44 68 e1 bd 3a dd f5 3c 68 f9 ce bd
       -0.08774886 -0.11006215 0.030012716 -0.10106164
0001d0 cd 26 94 3d 9b 08 05 3e 41 75 20 be 07 af 32 be
       0.07233963 0.12991564 -0.15669729 -0.1744958
0001e0 f5 db 80 bd a4 3c 71 3c db 83 13 bd f7 8d d6 bd
       -0.062919535 0.0147239305 -0.03601442 -0.104762964
0001f0 ac e9 03 bb 8b 68 27 3e 0e b9 eb 3d d5 df 05 be
       -0.0020128293 0.16348474 0.11509906 -0.13073666
000200 36 02 99 bd eb 0b a7 3d e5 6b d5 3d 8a 5c 0f 3d
       -0.07471125 0.0815657 0.1042097 0.03500036
000210 a8 36 6f 3d b3 00 88 bd 6c d2 d4 bd 93 d2 99 3c
       0.058401734 -0.06640758 -0.10391697 0.018777167
000220 a3 fc 56 bc 00 54 6f 3c 0c ad 76 3d 8a 9b f6 3d
       -0.013121757 0.0146074295 0.060223624 0.120413855
000230 2c b2 94 3c 1f 30 0b 3d 5c 4b 9a bd 4f 49 55 3d
       0.018151365 0.03398144 -0.07533905 0.052071866
000240 74 38 76 3d 65 da 2e bc c0 2c 51 3d e4 12 a3 bc
       0.06011243 -0.0106721865 0.051068068 -0.019906469
000250 fd a9 2b be 38 87 88 3d 2a 03 b5 3d 9d e6 95 3d
       -0.16764064 0.06666416 0.08838494 0.073193766
000260 00 e0 3f 3d cd 26 98 3d 2d 4f a5 bd 9f 57 9e bd
       0.046844482 0.07429276 -0.08071742 -0.07731556
000270 b4 34 c2 3d 59 9d e3 3d 14 77 b8 bd 49 71 d0 3d
       0.094827086 0.11113996 -0.09007087 0.101778574
000280 8a ad ff bd 51 4a 4d 3d 16 a5 0a be 57 4b e9 bd
       -0.12484272 0.0501197 -0.13539538 -0.11391323
000290 e8 2b 9d 3d 20 87 91 bd d3 ad ea bc 49 60 a1 3c
       0.0767439 -0.07105851 -0.028647339 0.019699233
0002a0 b3 f1 05 3c 8d 18 c3 bd b4 be b4 3d ee 77 26 be
       0.008175301 -0.09526167 0.08825436 -0.16256687
0002b0 09 4e 8c bd 8e 2f 9f 3d 63 f7 25 3e 43 28 65 3d
       -0.068508215 0.07772742 0.16207652 0.0559466
0002c0 0d 1d 31 3e 5f 63 f6 bd e0 f3 19 be a3 13 07 be
       0.17296238 -0.12030672 -0.15034437 -0.13191085
0002d0 fe 20 3f 3d 34 a6 a5 bd b6 c0 ef 3d 72 05 c7 bd
       0.046662323 -0.08088341 0.117066786 -0.097178355
0002e0 09 66 eb 3d 45 65 65 bd 33 51 19 3e ec 08 b7 3d
       0.11494071 -0.05600478 0.14972381 0.089372486
0002f0 f1 2d 0d be ad 76 12 be 22 d3 eb bd 95 f4 d7 bd
       -0.13787057 -0.14303084 -0.1151488 -0.10544697
000300 bc 77 d3 3d cf cf 75 3d 1b f1 25 3e be b3 a8 bc
       0.10325572 0.060012635 0.16205256 -0.02059352
000310 e4 9c 93 3d d4 1a 97 3d 74 cb d7 bd ea 23 23 3d
       0.07207659 0.07378164 -0.105368525 0.039829172
000320 f7 a6 79 bd 49 db 32 3e 27 c2 23 be 66 df 58 bd
       -0.060950246 0.17466463 -0.15992032 -0.052947424
000330 93 df 1c 3e 16 0f d7 bc c3 32 06 3e 8e 3f 07 be
       0.15319662 -0.02625231 0.13105302 -0.13207838
000340 b9 e8 37 bd 31 4f 6a bd 1f 1c 16 3e be fb cd bd
       -0.044899676 -0.05720443 0.14659165 -0.10057782
000350 c1 70 02 be 98 08 b3 3d 33 54 47 3d be 8b 30 3e
       -0.12738325 0.087418735 0.048664283 0.17240807
000360 5d b6 d6 bd 77 47 48 bc 8b ee 09 3e bd ef 20 be
       -0.10484002 -0.01222407 0.13469903 -0.15716453
000370 1d 07 55 bd 8a af ec bd 5d ec 5d 3d 20 a0 19 be
       -0.052008737 -0.11556919 0.05418049 -0.15002489
000380 0c 41 5d 3d b1 18 13 be 65 a6 7b bc ec 36 39 bc
       0.05401711 -0.14364888 -0.015359496 -0.011304598
000390 55 ec 87 3d 1d 25 08 3e 33 d8 ae 3d c4 d1 c5 3d
       0.06636874 0.13295408 0.085373305 0.0965915
0003a0 57 d2 13 be ad 2a 24 3e 7d cb 58 3d c7 b3 bd bd
       -0.14435707 0.16031905 0.052928437 -0.092628054
0003b0 39 b5 fb bd 6c e5 e9 bd a9 01 65 bd 12 69 ec 3d
       -0.12290425 -0.11420712 -0.055909786 0.11543478
0003c0 4c 20 a9 3a 8a 19 a1 3d bc e8 1d be 38 3c ba bd
       0.0012903302 0.07866199 -0.15420812 -0.09093517
0003d0 e1 b2 51 3d 8c 79 28 3e 6a 1d 23 3e 9e 15 d6 3d
       0.051195983 0.16452616 0.1592919 0.10453342
0003e0 0a fb c0 3d 17 39 f6 bd a7 7a b2 bc 6e a6 9c bc
       0.09422882 -0.12022608 -0.021787 -0.019122329
0003f0 dd fb 02 3e f5 64 fb 3a 70 7e b8 bb 31 01 06 bd
       0.1279139 0.0019179868 -0.005630307 -0.03271598

model.encoder.layers.0.self_attn.out_proj.bias f4 [32]
000000 ac 9e 9f 3b 0c 6b 5f 3b 26 68 a5 bc a3 fb e5 bb
       0.00487121 0.0034090905 -0.020191263 -0.007018523
000010 a0 12 a8 bc f7 3e ff 3b bc 62 6b bb 70 6e d0 3b
       -0.020516694 0.0077894884 -0.0035917005 0.0063608214
000020 cc b6 ee 3b 69 8d 56 3c 23 77 b8 3b 72 2e 4f bc
       0.0072849747 0.013095238 0.0056294366 -0.012645351
000030 8b 2e 5d 3c d7 98 f0 3b 84 8d a2 bb 1f 18 ef bb
       0.013499866 0.0073424387 -0.0049607176 -0.0072965766
000040 2c 70 6d ba f5 28 99 bb 61 46 9c 3c 2a fe 94 3c
       -0.00090575474 -0.004674072 0.019076528 0.018187601
000050 ca 5e b2 3b 01 02 33 3c 40 9c d9 3a 3d c5 d2 3a
       0.0054434286 0.010925771 0.0016602352 0.001608051
000060 88 71 ae bc 6c 61 78 3c 6b bc aa bc d0 5f c9 bb
       -0.02129437 0.015159946 -0.020841798 -0.006145455
000070 d0 b1 98 bb d5 0a 0a 3b d0 60 c9 bb 15 97 7d bb
       -0.004659869 0.0021063585 -0.006145574 -0.0038694788

model.encoder.layers.0.linear1.weight f4 [128, 32]
000000 b9 26 0e be d3 93 d0 bc 87 7a dc bd de a8 16 3e
       -0.13881959 -0.025461113 -0.10765558 0.14712855
000010 ab d9 9d bd 88 f4 30 be 0b 9f c2 bc 0d f5 92 bd
       -0.077075325 -0.17280781 -0.023757478 -0.07175646
000020 12 b1 0a 3e 95 32 a6 3d 06 bb 07 3e 6e 53 f2 bd
       0.1354411 0.081151165 0.13254938 -0.11832319
000030 43 ea 95 bc f2 3b 83 bd a9 ca 2e bd 90 a1 cb 3c
       -0.018300181 -0.06407918 -0.04267374 0.024857312
000040 74 d9 ae bd 41 89 45 3d 04 f2 c3 3d 52 34 40 be
       -0.0853757 0.0482266 0.09567645 -0.18769959
000050 41 5a 63 bd 49 a5 38 3e 10 64 04 be d6 d0 04 3e
       -0.055505995 0.18031801 -0.12928796 0.1297029
000060 6d 9a 05 bd f8 2e 4e bd a6 b2 68 3c 75 2f 11 3e
       -0.032617975 -0.05033776 0.014202749 0.1417826
000070 c7 d2 a7 3c 40 26 a4 bd ec 52 0f be 08 48 23 be
       0.020486249 -0.08015108 -0.13996476 -0.15945446
000080 5d 49 b1 3d e9 79 80 3d cc e4 c3 bd b8 9a 1f be
       0.08656571 0.062732525 -0.09565124 -0.15586364
000090 5a 0d 50 3c 38 06 e6 3a 0b 39 60 bc 41 c2 8b 3d
       0.012698496 0.0017549461 -0.013685475 0.0682416
0000a0 b3 91 b7 bd 04 15 11 3e f9 85 51 3d 6c a2 39 be
       -0.08963337 0.14168173 0.051153157 -0.18128365
0000b0 08 53 9e bd dd 53 07 be 39 11 15 bd 68 77 d5 bd
       -0.07730681 -0.13215585 -0.036393378 -0.104231656
0000c0 7f de c3 bd af a0 a5 3d 98 18 08 be 34 d6 26 be
       -0.09563922 0.080872886 -0.13290632 -0.1629265
0000d0 33 1b 9f 3d 59 64 29 3e 60 2f 04 3e 01 40 fe bd
       0.0776886 0.16542186 0.12908697 -0.124145515
0000e0 76 92 0d 3e fc 4e 0a 3e f8 b6 25 3d 93 42 d8 bd
       0.13825402 0.13506693 0.040457696 -0.10559573
0000f0 9c 19 13 3e ac 4c 19 3e 2c 5b 95 bd 62 9a 4e 3d
       0.14365238 0.14970654 -0.0729278 0.0504402
000100 02 bc c0 bd 4c c7 1a 3e 34 24 e9 3c 7f f0 1c 3b
       -0.0941086 0.15115088 0.028459646 0.0023947058
000110 50 dd 0b be cb 67 ea 3c b8 b8 d8 3d 87 56 05 be
       -0.13658643 0.028613945 0.10582107 -0.13021289
000120 b4 c9 0a be 10 41 91 3d f9 52 35 be 54 bf 17 3b
       -0.13553506 0.07092488 -0.17707433 0.0023154812
000130 f1 32 9d bd dd 4d 0b 3e cb 73 1c bd e9 d4 28 be
       -0.07675732 0.13603921 -0.038196366 -0.16487469
000140 f8 0b d0 bb 03 8d 26 be fc d6 03 3e be 2a 8d 3d
       -0.006349083 -0.16264729 0.12874979 0.06892918
000150 1d fc f2 3d 04 88 0a 3e 80 ce fb bd d6 0c d2 3d
       0.11864493 0.13528448 -0.12295246 0.102563545
000160 e5 03 82 3d f2 db 1a 3e 89 a8 43 be dd 43 db bd
       0.06348399 0.15122965 -0.1910726 -0.10706303
000170 3c f4 06 bd 1f 66 8e 3d 60 b2 3a be e5 f7 d9 3d
       -0.032947764 0.06953072 -0.18232107 0.10642985
000180 f3 e1 4a 3e a5 13 01 bd 32 4c a1 3d cf 62 a2 3d
       0.19812755 -0.031512875 0.07875861 0.079290025
000190 f7 1b 9f bd a9 9b 86 3c c6 5c 2a 3e 22 68 20 be
       -0.07769006 0.016431646 0.16636953 -0.15664724
0001a0 94 1a 1b 3e 77 d7 40 3d 4f 32 59 bd 0f 64 a1 3d
       0.15146858 0.047080483 -0.053026494 0.07880413
0001b0 86 91 95 bd 4f 44 b0 bd 76 55 18 bd f3 0a fc 3b
       -0.07303147 -0.08606779 -0.037190877 0.007691735
0001c0 94 87 e6 bd fa a0 1e bd f3 4b 05 3e eb d6 32 bd
       -0.11256328 -0.038727738 0.13017254 -0.043661993
0001d0 c9 c7 cf 3d 39 9b 80 3d 86 49 13 3e 1c ea ed bd
       0.10145528 0.06279606 0.14383516 -0.116169184
0001e0 8d 06 e3 bd d1 fd 59 3e 48 9a 8b bc 7a 7c 4a be
       -0.11085234 0.2128823 -0.01704134 -0.19774047
0001f0 b5 b7 28 3e 50 a7 01 3e 17 63 2d 3d 69 19 d4 3d
       0.16476329 0.12661481 0.042330828 0.10356409
000200 66 2a 0b be a7 30 17 3e db 2a c0 3d 9e 93 c0 bc
       -0.13590392 0.14764653 0.09383174 -0.02350789
000210 3d b4 2b 3e e3 72 68 3c 58 88 42 bd 3c a0 cd 3c
       0.16767974 0.014187547 -0.04749331 0.02510082
000220 a4 63 62 bd 18 7a 11 bc bb b6 20 bd fc 9e 28 3d
       -0.055270806 -0.008879207 -0.039236765 0.041167244
000230 c9 9f 4d be 23 8a 6f bd 79 eb a0 3d f2 ff 0c 3e
       -0.20080484 -0.058481347 0.07857413 0.1376951
000240 9c b6 88 3c c8 12 8a 3d b8 ae ed bd be 04 2d be
       0.016688637 0.067418635 -0.116055906 -0.1689634
000250 a4 37 11 bc 80 27 48 bd a7 3f e0 bd b3 cc d1 3d
       -0.008863363 -0.048865795 -0.10949641 0.102441214
000260 a9 89 de 3d f2 e5 cc 3d 4f 44 2c be a2 37 8f bd
       0.108661 0.10004796 -0.16822933 -0.06993033
000270 83 bc 42 be 4f d0 87 3c a1 c5 c5 3d cf a2 a3 3d
       -0.19017224 0.016578821 0.09656835 0.07990038
000280 10 73 c1 bd 41 77 e3 3d 23 31 92 3c 13 f5 cb 3d
       -0.094457746 0.1110673 0.017845696 0.099588536
000290 0b e4 14 3d bf 3e ad bd 6e bb 0e be e4 38 36 be
       0.03635029 -0.084592335 -0.13938686 -0.1779514
0002a0 fe c7 33 3d 83 1e fb 3d c9 af 18 be b2 5f 0a 3e
       0.0438919 0.12261679 -0.14910807 0.13513067
0002b0 26 38 bd bd 37 3f fd 3d 4d 8c 21 be bd 6c f6 bd
       -0.09239225 0.12365573 -0.15776177 -0.12032459
0002c0 e0 45 ab bc 92 ae 6a 3d 85 73 31 3e 35 71 76 bd
       -0.020907342 0.05729539 0.17329223 -0.060166556
0002d0 89 77 21 3e 9c d9 9a 3b 7f f4 03 be 23 59 d2 3b
       0.15768255 0.004725648 -0.12886237 0.0064193173
0002e0 2d 2f 19 3c 8e 45 c0 bd c7 31 85 bc 6b ee 23 3d
       0.0093496265 -0.093882665 -0.016259087 0.040022295
0002f0 09 d1 33 be 7b f0 58 bd a5 63 a3 bb 71 61 06 3e
       -0.1756021 -0.052963715 -0.004986244 0.13123108
000300 b3 12 14 be 08 43 68 3d b0 29 d2 bd c3 e3 b3 bc
       -0.14460258 0.05670455 -0.102618575 -0.021959191
000310 f2 7a f9 bd db ab 01 3e d5 9d 95 bd 41 da a1 3c
       -0.12181653 0.12663214 -0.07305495 0.019757392
000320 fc 3d 29 be b1 45 25 3e 55 95 c6 bd 11 86 20 be
       -0.16527551 0.16139866 -0.096964516 -0.15676142
000330 be f1 57 3c 3f 57 0e be e5 29 b4 3d 02 d9 80 3a
       0.013180194 -0.13900469 0.08797053 0.0009830298
000340 60 b1 8b 3d 13 73 8f 3d 77 cb 0d 3e 75 3b f4 bb
       0.06820941 0.070043705 0.13847147 -0.007453377
000350 9b 8d 39 be 1b e3 3e bd b9 e6 ed 3d 23 1c f0 3c
       -0.18120424 -0.046603303 0.116162725 0.029310292
000360 e4 cb e7 3d df 85 4f be 39 10 00 3e 38 7b ff bc
       0.11318186 -0.20265912 0.12506188 -0.031186685
000370 5b 44 28 3e 07 1e d9 3d da 58 9b 3d 02 7e 3c 3d
       0.16432326 0.106014304 0.075853065 0.046018608
000380 69 3e e9 3d c9 bb ae bd a9 e9 24 3e 94 32 e3 3d
       0.11388857 -0.08531911 0.1610476 0.110936314
000390 2c 3b 3f ba 5b 10 90 bd d5 30 6b bd 89 46 de 3d
       -0.0007294889 -0.070343696 -0.057419617 0.10853297
0003a0 c2 6f 30 3e 62 c0 94 bd 5d 08 a3 3d 2f 92 40 be
       0.17230132 -0.072632566 0.079605795 -0.18805765
0003b0 6c df 73 3d 9b 18 0a 3e 44 cc b2 bd 53 d2 03 be
       0.059539244 0.13485949 -0.08730367 -0.12873201
0003c0 14 92 ba bd f1 7a 88 bd 48 b8 f7 bc c1 70 29 bd
       -0.091098934 -0.06664074 -0.03023924 -0.041367296
0003d0 7a 79 87 bd 2b c3 94 3d 2d 83 ed bd e5 b7 72 bd
       -0.06614967 0.07263788 -0.115972854 -0.059257407
0003e0 d9 3f c2 3d 3f a3 25 be bc bb 17 3e 5e 31 fb 3d
       0.09484834 -0.16175555 0.14817709 0.122652754
0003f0 47 f0 d8 3d d0 4c 12 be d6 73 87 3d 7d 2e 22 3e
       0.10592704 -0.14287114 0.06613891 0.15838046

model.encoder.layers.0.linear1.bias f4 [128]
000000 a9 be dd bc 23 31 31 be 3c 7c 87 3d 1e 7d 20 be
       -0.027068453 -0.173039 0.06615493 -0.15672728
000010 9f 0a 30 3e ca 4b a0 bd b0 b6 25 3d 3a e6 fa 3d
       0.17191552 -0.078269556 0.040457428 0.122509435
000020 12 1a 76 bd 8b 69 42 3d 9f d4 9e 3d fa fe 34 be
       -0.060083456 0.047463935 0.07755398 -0.17675391
000030 83 56 65 3c 4b 12 0c bd 8f 30 a6 bc 10 98 16 bd
       0.013997677 -0.034197133 -0.020286826 -0.03676611
000040 51 ce 07 3d a4 98 8f 3d f4 c1 c3 3d 73 a3 f6 bd
       0.033155743 0.07011536 0.09558478 -0.12042894
000050 15 f3 8e bd f9 5a 19 3d 4a 47 83 3d d2 6f 07 bd
       -0.06979958 0.037440274 0.06410082 -0.033065625
000060 e4 76 07 be 24 31 1a bc 2a af 83 bc 73 47 4d 3c
       -0.13228947 -0.00941113 -0.016074736 0.012529242
000070 aa 62 0e be ba a6 13 be 27 62 a9 bd ef 1e 0b 3e
       -0.13904825 -0.1441907 -0.08270674 0.13586019
000080 8c 60 cb 3c 5d b2 63 bd ae 57 d5 3d 0b 9d 2a bc
       0.02482631 -0.055590022 0.10417114 -0.0104134185
000090 4f 2f 26 3b 8d ca 7a bd e8 6c 1a 3e 94 14 eb bd
       0.0025357788 -0.061228324 0.15080607 -0.11478534
0000a0 c8 eb d9 bd 5b 80 95 3d 37 d3 31 be ea 3b 17 be
       -0.10640675 0.072998725 -0.17365728 -0.14768949
0000b0 24 0a d1 bd 66 41 0e be f1 f2 d8 3c ed 83 99 bd
       -0.10207012 -0.13892135 0.026483031 -0.07495866
0000c0 a1 89 05 be 69 ac 2d be f4 85 e1 bd 4f 7c c0 bd
       -0.13040783 -0.169603 -0.11011878 -0.0939871
0000d0 99 25 bb bd 90 bc 26 be 95 54 44 be 39 d2 bc bc
       -0.091380306 -0.16282868 -0.1917289 -0.02304946
0000e0 af 6c 15 be e9 bb 33 3e bf 1a bf 3d 05 de ef 3d
       -0.14592241 0.17552151 0.09331273 0.11712269
0000f0 8f b0 39 be 46 1a eb 3d 37 ea 1f bb c8 70 0d be
       -0.18133758 0.11479621 -0.0024401078 -0.13812554
000100 a4 7e 6a bd bf 65 21 3d 49 95 60 3d 78 e8 b0 3a
       -0.05724968 0.039403673 0.05482987 0.0013497015
000110 7e a1 ab 3d 51 3e 32 bd f5 10 f3 bb d4 29 c2 3d
       0.083804116 -0.04351646 -0.007417793 0.09480634
000120 11 ca 99 3d f7 f9 ca bd 7c df 0c be 10 80 d4 bc
       0.07509244 -0.09910958 -0.13757128 -0.025939971
000130 c7 77 1e be c7 6f e7 bd 9a ec 2e 3e ba b3 81 3d
       -0.15475379 -0.11300617 0.17082444 0.06333108
000140 ae 23 20 3e 19 4a 0b 3d b0 16 2f 3d 0f d7 e6 bd
       0.1563861 0.034006212 0.042746246 -0.11271488
000150 47 2e 0e 3e e0 76 b7 3d ea 1e c6 3d d0 3a 06 3e
       0.13884841 0.089582205 0.09673865 0.13108373
000160 1b 7d ee 3b 00 05 4a bd 68 a2 23 3d 2b b5 15 be
       0.0072780973 -0.049321175 0.039949805 -0.14619891
000170 a7 84 21 bc a5 bd f8 bd 1e cf 87 ba 83 be d4 bd
       -0.009858287 -0.12145547 -0.0010361408 -0.103879
000180 6f 74 0b be 2d a4 13 bd 9f 8d e3 3d bd 51 f9 3b
       -0.13618635 -0.036045242 0.111109965 0.007608621
000190 9c 2d 2e be 06 2e 3c 3d 62 4d e5 3d 1d 85 97 bd
       -0.17009586 0.04594233 0.111964 -0.07398436
0001a0 1f 56 cb bd 98 15 d3 bc 79 2f f6 3d bb a7 f6 3d
       -0.09928536 -0.025767133 0.120207734 0.12043711
0001b0 43 05 cc bd 71 4a 86 bd 60 73 86 bd 5c 55 2e 3e
       -0.09961941 -0.06557167 -0.06564975 0.1702475
0001c0 f0 75 14 3e a4 36 f6 bb 01 00 18 be 30 4d 8a bd
       0.14498115 -0.007513838 -0.14843751 -0.067530036
0001d0 b0 1e d0 bd 4b 68 c0 3d 55 06 28 3d 0a b4 6d bd
       -0.10162103 0.09394892 0.041021664 -0.058033027
0001e0 38 b0 16 3e 13 26 2c 3d 9f 61 20 3e 7f fa 01 3e
       0.1471566 0.042028498 0.1566224 0.12693213
0001f0 02 e2 c9 3d d4 be f9 3c 35 2f 56 3d f2 23 7f 3d
       0.09857561 0.030486502 0.052291114 0.06229014

model.encoder.layers.0.linear2.weight f4 [32, 128]
000000 01 b9 fe bc 77 8d 80 3d a8 2c 55 3d 2e 95 cc bd
       -0.031094076 0.06276982 0.05204454 -0.09989391
000010 f4 6b a4 3d c7 5e 08 bc 47 96 14 3d bc 54 97 bd
       0.08028403 -0.008323378 0.03627613 -0.07389209
000020 30 eb 1e 3d 8d df 9e bd 11 8c 2b bc 66 91 9f 3d
       0.03879851 -0.07757483 -0.010470406 0.077914044
000030 e0 a7 b9 3d 7a 66 46 3d 33 47 52 bd f1 84 e9 3d
       0.09065223 0.048437573 -0.051337432 0.1140231
000040 02 dc 91 bd 6f f4 a7 ba 5a fa 17 3d 8a 27 bb bc
       -0.07122041 -0.0012813936 0.03710399 -0.022846002
000050 d7 05 6f 3d 77 ae a9 3c da 25 55 bd 55 b2 05 bd
       0.05835518 0.020713074 -0.05203805 -0.032640774
000060 92 fd 05 3e 2e 85 ad 3c 27 63 c0 3d 3c 3a b5 3d
       0.1308501 0.02118167 0.09393912 0.08848998
000070 6f 23 8a 3d 62 8a 0e 3d a1 ca 86 3d 1e 36 8b 3c
       0.0674504 0.03479994 0.06581617 0.016993579
000080 95 b2 7e bc 82 f7 2c bc 8a a9 a1 3c 12 5a 35 3d
       -0.015545507 -0.010557057 0.019734163 0.04427535
000090 2f 1b 9c 3d d5 cf 30 3b 9d 08 90 3c e1 42 1d 3c
       0.07622372 0.0026979346 0.017582232 0.009598465
0000a0 b6 e8 bb 3d b6 08 dd 3b be 7c 0b 3d 57 c0 96 bd
       0.091752455 0.006745423 0.03405451 -0.07360905
0000b0 20 7c 69 bd 46 8b 08 bd 72 32 8b 3c c5 b5 e0 3a
       -0.05700314 -0.033335947 0.016991828 0.0017144015
0000c0 bd 43 a2 3b 87 f7 36 bd ee 22 30 bd b2 2e 6e bd
       0.0049519227 -0.044669654 -0.04300206 -0.05815
0000d0 fd 51 91 3c a3 56 2a 3d a4 93 93 bd 67 ba 4c 3c
       0.01773929 0.04158653 -0.072058946 0.012495614
0000e0 49 61 94 3d 96 4c 8f 3c 62 2e ab 3d b9 ab 82 3d
       0.07245118 0.017492574 0.08358456 0.0638041
0000f0 c8 9a 2d 3c 91 41 dc 3c 97 4f 0e bd 8c 35 be bd
       0.010595985 0.026886733 -0.03474387 -0.09287557
000100 48 23 42 bd fe 20 62 3d 0d ec 1d 3c 9e d5 05 3d
       -0.047396928 0.055207245 0.009638798 0.032674424
000110 b2 41 37 bd c8 ff 60 3c 1a 7c 90 bc 3f a2 c2 3d
       -0.044740386 0.013732858 -0.017637301 0.09503602
000120 d1 ff 2c bd 12 ba 99 bd 9f 2b a0 3d 1a 83 bb 3c
       -0.042236153 -0.07506193 0.0782082 0.022889663
000130 59 75 04 bd aa 11 1e bd 7b 81 a0 3d fb 50 47 3d
       -0.032338474 -0.038591065 0.078371964 0.048661213
000140 86 ca 88 3d 58 53 0f 3c 89 bd 6b 3d c3 9f e0 bc
       0.06679253 0.008747898 0.0575538 -0.02741993
000150 c1 0f ec bc a1 03 ea bc c0 63 31 3b 56 9c 42 3d
       -0.028816106 -0.028566184 0.0027067512 0.047512375
000160 e1 03 1d 3d d1 20 d4 bc c6 d9 f3 bc e0 5e d3 b6
       0.038333777 -0.025894554 -0.029766928 -6.299335e-06
000170 94 78 c2 3b 1a 06 b5 bd 8a cd ae bc e2 09 9a bd
       0.005934784 -0.088390544 -0.021338243 -0.07521416
000180 ec cf cc 3a bc bb 0c bd 4a a3 77 3d 64 81 b1 3d
       0.001562593 -0.034358725 0.06045846 0.086672574
000190 9d 15 16 3d 0f d8 d2 bc c9 15 be bd 92 7f a5 3d
       0.036641706 -0.02573779 -0.09281499 0.08080973
0001a0 2b 5d b4 bd b4 da 3f bd 39 23 b2 3d 2f 0d 67 3d
       -0.08806833 -0.04683943 0.086981244 0.056409057
0001b0 82 46 37 3d 8a ee ac bd c6 e4 98 bd 99 f3 40 bd
       0.044744976 -0.08443935 -0.0746551 -0.047107313
0001c0 f2 ae 5b 3d 64 72 c4 b9 47 98 c1 bc e2 88 de 3c
       0.053633638 -0.0003746926 -0.023632182 0.02716488
0001d0 73 f6 45 3b 45 f7 6e bd 1b c3 f6 3d 19 60 05 3d
       0.003020671 -0.058341283 0.12048932 0.03256235
0001e0 a3 cb 1d bc 98 8a a3 bc fb 11 ce bc 0c cf e7 3c
       -0.00963107 -0.019963548 -0.025155058 0.02829697
0001f0 09 a2 3e 3c 55 29 8b bd c9 15 95 bd f3 7d da 3c
       0.011635312 -0.06794993 -0.07279546 0.026671385
000200 95 23 a5 3d 73 1c 10 bd d6 d1 a5 3d 00 93 bd 3c
       0.08063427 -0.03518338 0.08096664 0.023141384
000210 08 6e 6c 3d ca af 82 bd 18 76 67 bd 62 a3 3f 3d
       0.05772212 -0.06381185 -0.056509107 0.046786673
000220 28 55 d8 bc be 22 64 bd e2 b0 a2 3d 49 c0 56 3d
       -0.026407793 -0.055697195 0.07943894 0.05242947
000230 4c d3 44 3d f3 6d 10 3d c8 28 92 3b 5c 60 1c be
       0.04805307 0.035261106 0.004460428 -0.15271133
000240 82 8a 0c 3c 5d dd fa bb 02 73 96 3d db 10 cf 3b
       0.008577945 -0.007655783 0.07346155 0.006319148
000250 97 e0 8e bd 87 60 92 3d 63 56 ec 3d a0 24 9b bd
       -0.06976431 0.071473174 0.115399145 -0.07575345
000260 a6 aa d0 3b 7f b6 c6 3d 7f a0 66 bd 59 c9 cc bd
       0.006367999 0.09702777 -0.056305405 -0.099993415
000270 af e6 bb 3c 74 90 94 3d c7 7c 8d 3d a3 0a 9d 3d
       0.022937147 0.07254115 0.06908565 0.076680444
000280 c8 54 45 3d 26 cd 81 3d 39 39 78 bd da 97 92 3b
       0.048176557 0.06337957 -0.060601447 0.0044736685
000290 5d c2 27 bd da 44 7f 3d 10 9f 66 3d 24 f3 00 bd
       -0.040956844 0.06232152 0.056304038 -0.031481877
0002a0 2c c1 df ba 31 a6 b2 3c 43 3e 71 bd be 09 24 3d
       -0.001707112 0.021807762 -0.058897268 0.040048353
0002b0 d5 8e 9e bd de 00 88 3d 59 93 31 3d 8b d2 63 bd
       -0.07742087 0.066407904 0.043353412 -0.05562071
0002c0 b8 55 7f 3d c0 11 66 bd d8 f3 cf bd d4 07 2a bd
       0.062337607 -0.05616927 -0.101539314 -0.04151137
0002d0 1e 3f a6 3d de d1 6d bd dd ee 98 bd 4d 0a 83 3b
       0.081175074 -0.058061473 -0.074674346 0.0039990307
0002e0 a2 2c 1b bd bb f7 a0 3d 00 83 ae 3c fa 76 9a 3d
       -0.037884362 0.07859751 0.0213027 0.07542224
0002f0 0f 8b f9 bb de e9 bd 3d 82 08 66 3d 17 80 3b bd
       -0.007615454 0.09273122 0.056160457 -0.045776453
000300 0d 6d 8d 3d aa 93 b9 3b 29 ec 69 bd 3e 70 27 bd
       0.069055654 0.005663355 -0.057109986 -0.040878527
000310 e7 30 2a 3c 4c 1b 85 3c f1 1c 88 3b 6d df b8 bc
       0.010387636 0.016248368 0.0041538407 -0.022567475
000320 1f d2 4e 3d 84 e9 e8 bb ca 2a 49 bd a9 4d a2 3b
       0.050493356 -0.0071079154 -0.049113072 0.0049531055
000330 89 71 83 3d 0e f1 ed 3c 0b a0 ac bd 98 6e ee 3a
       0.064181395 0.029045608 -0.08428963 0.0018190918
000340 ed 59 92 3b 0a 61 39 3c 3c 35 f3 3c 00 34 5f 3d
       0.0044662864 0.01131464 0.02968847 0.05449295
000350 b7 31 89 bd 76 a8 5c 3d 88 d2 7a 3d 45 fa 63 3d
       -0.066989355 0.053871594 0.061235934 0.055658597
000360 1a 74 02 3d 12 d6 50 bd 42 02 f0 bc 19 b8 9c bc
       0.031849004 -0.050985403 -0.029297952 -0.019130753
000370 67 47 69 bc d1 8c 9f 3c 82 46 15 3c fe cc 7c 3d
       -0.014238215 0.019476326 0.009111049 0.061718933
000380 b8 b1 33 bd ff 38 c1 3d b5 90 7d bd 0c df 3e 3b
       -0.043870658 0.09434699 -0.06190558 0.0029124646
000390 4d 0b eb 3c af 0d d3 3a 37 da 4b bc 63 6f 68 3d
       0.028691912 0.00161021 -0.012442163 0.05674685
0003a0 18 ab 88 3d 31 91 11 3d 86 6f 40 bd 87 93 57 bd
       0.066732585 0.035538856 -0.046981357 -0.052630927
0003b0 ec 7c 22 3d 05 85 4f bd 71 b4 97 3d d0 78 1f 3d
       0.039669916 -0.050663967 0.07407463 0.038933575
0003c0 e2 26 87 bc f5 13 05 3d 5a 02 29 3d 29 26 49 bd
       -0.016498033 0.032489736 0.04126201 -0.049108658
0003d0 fc 42 09 3d b6 53 1a 3e a2 96 eb bc 77 30 bd 3d
       0.033511147 0.15070996 -0.02875835 0.092377596
0003e0 41 21 cf 3d 11 d2 6a bd b2 9c 39 bd 72 56 52 3d
       0.101137646 -0.05732924 -0.045315452 0.051351972
0003f0 97 68 da bc 1e 25 8e 3d e1 67 a7 3d 88 87 79 3d
       -0.0266612 0.06940673 0.0817411 0.06092027
