entrega_final/AutogluonModels/ag-20250715_221417/models/DeepAR/W1/gluon_ts/prediction-net-state.pt (torch, 98912 bytes, 11 tensors)

model.param_proj.proj.0.weight f4 [1, 40]
0	0xbe7f8f0b	-0.2495691
1	0xbe82a2c7	-0.25514814
2	0xbf18154b	-0.5940749
3	0xbf046f47	-0.51732296
4	0x3f62137b	0.88310975
5	0xbf4bf46a	-0.7966982
6	0xbec665b3	-0.38749465
7	0xbd8ef4cc	-0.06980285
8	0xbe9170b0	-0.28406286
9	0x3ea521c7	0.32252333
10	0xbf15b894	-0.5848477
11	0x3f038196	0.5136961
12	0x3e1e189f	0.1543908
13	0xbed41a46	-0.41426295
14	0xbd48f00a	-0.049057044
15	0xbd9b22a4	-0.075749665
16	0x3eca3afe	0.39498132
17	0x3eca704c	0.395388
18	0xbe560d46	-0.20903501
19	0x3e93de6d	0.28880635
20	0x3d1e1f5a	0.038604118
21	0xbe9318b8	-0.28729796
22	0xbf197454	-0.5994313
23	0x3f6bb10f	0.92067045
24	0xbf54809e	-0.83008754
25	0x3e96fbef	0.29489085
26	0x3e85b1f4	0.2611233
27	0x3e4f4dca	0.20244518
28	0x3edd460e	0.4321751
29	0xbea79cc8	-0.32736802
30	0x3cf245f5	0.029574374
31	0xbec766ba	-0.38945562
32	0x3e3d9924	0.1851545
33	0xbd8688f0	-0.065690875
34	0xbe165032	-0.1467903
35	0xbee80e37	-0.45323345
36	0xbe5817a8	-0.21102774
37	0xbf640946	-0.8907665
38	0xbeb943f0	-0.36184645
39	0xbe0bf79e	-0.13668677

model.param_proj.proj.1.weight f4 [1, 40]
0	0xbddadc76	-0.10686581
1	0x3ecc4376	0.3989522
2	0x3e21d424	0.15803581
3	0xbe4e1f79	-0.20129193
4	0xbd5a71ee	-0.053331308
5	0x3d807856	0.06272952
6	0xbc7636c9	-0.01502771
7	0xbe9e333f	-0.30898473
8	0xbe391681	-0.18074991
9	0x3e159d6b	0.14610831
10	0xbe746d72	-0.23869875
11	0x3e1788a9	0.14798225
12	0xbe3c1a92	-0.18369511
13	0xbd9c824e	-0.07642041
14	0xbe9311b4	-0.28724444
15	0xbe19dcfb	-0.15025704
16	0x3e147046	0.14495954
17	0x3e46f2b8	0.19428527
18	0xbccf7586	-0.025324594
19	0xbe0a20a5	-0.13489015
20	0x3e28da6e	0.16489574
21	0xbe01aca5	-0.12663515
22	0xbd44379d	-0.0479046
23	0xbe69988c	-0.22812098
24	0x3cf3bd7c	0.02975344
25	0xbdf5ff7a	-0.12011619
26	0x3d697f36	0.057006083
27	0xbd10e9a7	-0.03537908
28	0x3e49f168	0.19720995
29	0xbe1ccf3c	-0.15313429
30	0xbdd1fa4c	-0.102528185
31	0xbdd043a5	-0.10169152
32	0x3e473ee1	0.1945758
33	0xbdc353e8	-0.09537488
34	0xbd869dac	-0.06573042
35	0xbdf3c397	-0.1190254
36	0x3e0b1cd5	0.13585217
37	0x3d878504	0.066171676
38	0xbda6c343	-0.08142712
39	0xbe0c8805	-0.13723762

model.param_proj.proj.2.weight f4 [1, 40]
0	0xbdc87f63	-0.09789922
1	0xbd69198f	-0.05690914
2	0x3e2ddb48	0.1697818
3	0x3db013b0	0.08597505
4	0xbedb0921	-0.42780402
5	0x3f0ba6aa	0.54551184
6	0x3e4dca5b	0.20096724
7	0x3d548701	0.051886562
8	0x3d2bbe94	0.041929796
9	0xbe5feea2	-0.21868375
10	0x3e78fe65	0.24315794
11	0x3c333f97	0.010940454
12	0xbdd7fef9	-0.10546679
13	0x3ce45252	0.027871285
14	0xbc3ff361	-0.011715741
15	0xbca093e1	-0.019601764
16	0xbe60f4a8	-0.21968329
17	0xbd2cdb2a	-0.0422012
18	0x3edff201	0.43739322
19	0xbe83d8dc	-0.25751388
20	0xbd393671	-0.045217935
21	0x3e86e6a2	0.26347834
22	0x3dc3f064	0.09567335
23	0xbecdcd6d	-0.4019579
24	0x3e58c6c2	0.2116957
25	0xbe396be1	-0.18107559
26	0xbe00a84e	-0.12564203
27	0xbe82168e	-0.25407833
28	0xbe0a7336	-0.13520512
29	0x3e0a709b	0.13519518
30	0x3dbb8483	0.09156134
31	0x3e5b55b2	0.21419409
32	0xbc82db46	-0.015973698
33	0x3e4d3c23	0.20042472
34	0x3dfddf06	0.12396054
35	0x3e464525	0.19362314
36	0xbdac36fb	-0.08408924
37	0x3ea34e11	0.31895497
38	0x3e4ece50	0.2019589
39	0xbeb4cf4d	-0.35314408

model.rnn.weight_ih_l0 f4 [160, 21]
0	0x3ee897fb	0.45428452
1	0x3d37d145	0.04487731
2	0x3d05e68d	0.032690573
3	0x3e08c78e	0.13357374
4	0x3d6a906c	0.057266638
5	0xbd53ffd1	-0.051757637
6	0x3d7d293c	0.061806902
7	0x3e8145de	0.25248617
8	0x3e15fef1	0.14648034
9	0x3e715dbb	0.23570912
10	0x3dd2dc11	0.102958806
11	0x3d97a9e4	0.07405451
12	0x3d1a3be5	0.037654776
13	0x3b23f44b	0.0025017436
14	0xbb128a2a	-0.0022360184
15	0x3b27b4ed	0.0025590018
16	0xbe8603a4	-0.26174653
17	0xbb24a3c6	-0.002512203
18	0x3d87dbc8	0.06633717
19	0xbed384c6	-0.41312236
20	0x3e76903a	0.24078456
21	0xbe36165d	-0.17781968
22	0x3e29c530	0.16579127
23	0x3d9cb254	0.07651201
24	0x3e79c554	0.24391681
25	0x3dac0f42	0.08401348
26	0xbc0dca0b	-0.008654128
27	0xbdd560fe	-0.104188904
28	0x3de9795f	0.11400103
29	0x3da32fdf	0.07968115
30	0x3d9da455	0.076973595
31	0x3d9bb57c	0.07602975
32	0xbdec5c06	-0.115409896
33	0x3df5ad7b	0.119959794
34	0x3b901ac4	0.004397722
35	0xb87c0ae4	-6.0091625e-05
36	0xbb9316a5	-0.0044887834
37	0xbe14b006	-0.14520273
38	0x3baecf18	0.005334746
39	0x3d91679d	0.07099841
40	0xbe15238a	-0.14564338
41	0x3ecfb973	0.40571174
42	0x3e904fd0	0.28185892
43	0x3ed72be6	0.4202568
44	0x3e0bd711	0.1365626
45	0x3d3d7ea0	0.046263337
46	0x3e6c01e9	0.23047604
47	0x3e0a27db	0.13491766
48	0xbdfaebdc	-0.12252018
49	0x3e43bced	0.19115038
50	0x3e3aa41c	0.18226665
51	0xbd25cc1c	-0.040477857
52	0xbd755471	-0.059894983
53	0xbeb0a269	-0.3449891
54	0xbe0811e8	-0.1328808
55	0xbb216d4a	-0.0024631792
56	0xbb58ed74	-0.0033100517
57	0x3962c2f9	0.00021625673
58	0xbf088632	-0.53329766
59	0xbb8aa140	-0.0042306483
60	0x3e91b611	0.28459218
61	0xbeeda3ae	-0.4641394
62	0x3ef17671	0.47160676
63	0x3f1140cf	0.56739515
64	0x3e8e8d7a	0.27842313
65	0x3e971b00	0.29512787
66	0x3e7da648	0.24770463
67	0x3e38f37b	0.1806163
68	0x3ee36522	0.44413096
69	0x3e519ca3	0.20469908
70	0x3e084885	0.13308914
71	0x3e7abb5d	0.24485536
72	0x3e2a91e7	0.1665722
73	0x3e8cfde2	0.27537447
74	0xbda42244	-0.08014348
75	0x3e8a3179	0.2699087
76	0xbbad2778	-0.005284246
77	0xba0e8acb	-0.0005437552
78	0xbb9c50c8	-0.004770372
79	0xbe563412	-0.20918301
80	0x3af85ffd	0.0018949505
81	0x3cf85bd9	0.030317234
82	0x3d13c07e	0.036072247
83	0x3f1f8713	0.6231548
84	0x3e2beffa	0.16790763
85	0x3e60c347	0.21949492
86	0x3e4117c2	0.18856719
87	0x3e3d12c7	0.18464194
88	0x3d8528a8	0.06501895
89	0x3e84673e	0.25860018
90	0x3db3e561	0.08783985
91	0xbdaeac0f	-0.08528911
92	0x3d482d16	0.048871122
93	0xbe20a21a	-0.15686837
94	0xbb69e84e	-0.0035691443
95	0xbd59e0d9	-0.053192947
96	0x3e08987c	0.13339418
97	0x3b928159	0.004470986
98	0x3a257732	0.0006312012
99	0xbbae8015	-0.005325327
100	0xbd10677a	-0.035254933
101	0xb9c3de75	-0.00037359042
102	0x3cd09c90	0.02546528
103	0x3e8e4ee1	0.27794555
104	0x3d502ee3	0.050825965
105	0xbd24a9a9	-0.040200863
106	0x3eea136b	0.4571794
107	0x3e792c69	0.24333347
108	0x3d546ebb	0.051863413
109	0xbcfa28b5	-0.030536989
110	0x3e229351	0.15876509
111	0xbd851802	-0.0649872
112	0xbd5df884	-0.05419208
113	0x3b15f6cd	0.00228827
114	0x3d8e7188	0.06955248
115	0xbec5f861	-0.3866606
116	0xbe9daa48	-0.30793977
117	0xbe883224	-0.26600754
118	0x3b85f0e4	0.0040875543
119	0x3ac381ce	0.0014916004
120	0x39022541	0.00012411644
121	0xbdf6f426	-0.12058286
122	0x3bace740	0.0052765906
123	0x3e803962	0.2504378
124	0xbe9844d9	-0.29740027
125	0x3e37a547	0.17934142
126	0xbcdb4218	-0.026764914
127	0x3e1a7e93	0.15087347
128	0x3d2fcbb3	0.042918872
129	0x3abef433	0.0014568627
130	0x3da18c1f	0.07888054
131	0x3bd09e69	0.00636654
132	0x3e81e979	0.25373438
133	0xbb27340a	-0.0025513195
134	0xbd8bdd72	-0.06829347
135	0x3dc7900c	0.09744272
136	0x3e8c762c	0.27433908
137	0x3d1b538f	0.037921485
138	0xbe0b1644	-0.13582712
139	0x3bac8881	0.005265296
140	0x3ba9c7a6	0.0051812707
141	0xb9b4accd	-0.00034461022
142	0xbd4899a2	-0.04897464
143	0xbba388d8	-0.0049906783
144	0x3cf1cedf	0.02951759
145	0x3f0f11bd	0.5588644
146	0x3e43b1a7	0.19110738
147	0x3dac7d38	0.08422321
148	0xbd1ee6a9	-0.038794193
149	0x3de134fc	0.10996434
150	0x3ec5d63d	0.38640013
151	0xbdcba269	-0.09943087
152	0xbd96173b	-0.073286496
153	0x3e426a6d	0.1898591
154	0xbf21e592	-0.6324092
155	0xbf249d1b	-0.64302224
156	0xbf3f9cbf	-0.7484855
157	0xbedc4f6f	-0.43029353
158	0xbea8e6ff	-0.32988736
159	0xbd0b5a80	-0.034021854
160	0x3ba8539b	0.0051369197
161	0xbb6c2cbe	-0.003603741
162	0x3bad5890	0.0052900985
163	0xbf09541e	-0.5364398
164	0x3b7fb0d7	0.0039015317
165	0x3dccfef0	0.10009563
166	0xbea88899	-0.32916716
167	0xbdace6ea	-0.08442481
168	0x3da78659	0.08179922
169	0x3e391857	0.18075691
170	0xbda2121c	-0.0791361
171	0xbe55b419	-0.20869483
172	0xbd17333c	-0.036914095
173	0xbecdc9ad	-0.4019293
174	0xbde53938	-0.11192554
175	0x3d0c750f	0.034291323
176	0xbc1513b1	-0.009098933
177	0x3d7dc90d	0.061959315
178	0x3da8a5fc	0.08234784
179	0x3d6cf6c4	0.05785252
180	0x3cd3210d	0.025772596
181	0x3b2ccae0	0.002636604
182	0x3bb0757e	0.0053851
183	0xbb0627bd	-0.0020470463
184	0xbe7b7254	-0.24555331
185	0xbbad75be	-0.005293577
186	0xbd64d460	-0.0558666
187	0xbf084168	-0.532248
188	0x3dbcb36f	0.09213912
189	0x3d47f068	0.048813254
190	0xbd2f034b	-0.04272775
191	0xbd8087e1	-0.06275917
192	0x3e08e016	0.13366732
193	0x3d63add2	0.05558569
194	0x3a61b5aa	0.0008610139
195	0x3e19a43f	0.15004061
196	0xbbe64427	-0.0070271674
197	0x3bc7b06e	0.00609403
198	0xbe11bab9	-0.14231385
199	0xbda2cd11	-0.079492696
200	0xbd949374	-0.07254687
201	0xbe055e51	-0.1302426
202	0xbb862b94	-0.0040945504
203	0xbb2bd66b	-0.0026220332
204	0x3b062315	0.0020467688
205	0xbe9d571e	-0.30730528
206	0xbb8bf8ed	-0.0042716176
207	0x3e8fd48a	0.28091842
208	0xbea97c50	-0.33102655
209	0xbd43cbd1	-0.047801796
210	0x3d860044	0.065430194
211	0x3e483b52	0.19553879
212	0x3a8c8ec9	0.0010723706
213	0x3e7b9ba7	0.24571095
214	0x3e997d39	0.2997835
215	0x3ec025c2	0.37528807
216	0x3edc8127	0.43067285
217	0xbd09e349	-0.03366402
218	0xbe348c18	-0.17631567
219	0xbb1e77cf	-0.0024180298
220	0xbd064c72	-0.032787748
221	0xbe24f353	-0.16108446
222	0xbd0d2a92	-0.034464426
223	0x3b2c2435	0.0026266698
224	0xbb5959fa	-0.0033165202
225	0xbb1106ff	-0.0022129414
226	0xbe2d43d4	-0.16920406
227	0xbb143615	-0.0022615243
228	0x3ea31ef0	0.3185954
229	0xbbc0a3c5	-0.005878898
230	0x3e986d76	0.29771012
231	0x3e082081	0.1329365
232	0x3b6926cc	0.0035576103
233	0xbd7851f9	-0.06062505
234	0xbe83b11d	-0.25721064
235	0xbe027f6c	-0.1274392
236	0xbe06ea3c	-0.13175291
237	0x3d623a3f	0.05523133
238	0x3e5ac007	0.21362315
239	0x3e6fa676	0.23403344
240	0x3f1aaf03	0.60423297
241	0xbcb82b8a	-0.022481699
242	0xbd5a4fad	-0.05329864
243	0x3e5d1d8a	0.215933
244	0x3af6335c	0.0018783617
245	0x3b950444	0.0045476276
246	0xbb846070	-0.0040398166
247	0xbdb010bc	-0.08596942
248	0xbb275dc6	-0.002553807
249	0x3e230e61	0.15923454
250	0xbdea46e1	-0.114393
251	0x3d0c6d81	0.03428412
252	0x3e3a949e	0.18220755
253	0x3da38fc7	0.07986408
254	0x3e879cf3	0.2648693
255	0xbda69db8	-0.08135551

model.rnn.weight_hh_l0 f4 [160, 40]
0	0xbe52ed44	-0.20598322
1	0x3e3df69f	0.1855111
2	0x3e0ee0fa	0.13953009
3	0x3ebc5054	0.36780035
4	0x3d1f33ee	0.038867883
5	0x3e05894b	0.13040654
6	0xbcf062d7	-0.029344006
7	0x3df03091	0.11728013
8	0xbdc2b100	-0.09506416
9	0x3e1844ad	0.14869948
10	0x3e252325	0.16126688
11	0x3d0b173c	0.033957705
12	0x3dacdf20	0.08440995
13	0x3e305523	0.17219977
14	0xbd262446	-0.040561937
15	0xbdd7dbb9	-0.10539956
16	0x3d06c07c	0.03289841
17	0xbd8dad99	-0.06917877
18	0x3de79912	0.11308493
19	0x3dd1d358	0.10245389
20	0x3d9778f4	0.07396117
21	0xbdc940fa	-0.098268464
22	0x3e81f11a	0.25379258
23	0x3ed10f61	0.40832046
24	0x3e08d74d	0.1336338
25	0xbe78959a	-0.24275818
26	0x3e585ee9	0.21129955
27	0x3e323ef4	0.17406827
28	0xbe13fe49	-0.14452471
29	0xbe672250	-0.22571683
30	0xbd820e21	-0.06350351
31	0xbd97f01c	-0.07418844
32	0x3e766f2e	0.24065849
33	0x3e882b01	0.2659531
34	0x3d0391db	0.03212152
35	0x3c2436e4	0.010022853
36	0xbe979b61	-0.29610732
37	0x3de19672	0.11015023
38	0x3de626ef	0.11237895
39	0xbded1e88	-0.11578089
40	0xbc4c3d6b	-0.012465815
41	0x3ddaabf0	0.10677326
42	0xbd2884cf	-0.04114228
43	0xbea28880	-0.31744766
44	0xbc9cce80	-0.019141436
45	0x3ddc9681	0.10770894
46	0xbd83f69c	-0.064435214
47	0x3dc57548	0.0964151
48	0xbe1e275b	-0.154447
49	0xbcac1c5f	-0.021009622
50	0x3d3c2d6f	0.045941766
51	0xbd3563f8	-0.04428479
52	0x3dd60f3a	0.10452123
53	0x3e2ee602	0.17079929
54	0xbd8cef35	-0.068815626
55	0xbe3c78b7	-0.18405424
56	0xbdef77e1	-0.11692787
57	0x3ce9fb82	0.028562311
58	0x3deab3cc	0.11460075
59	0xbd76a853	-0.06021912
60	0xbd86a209	-0.065738745
61	0x3d013b50	0.031550705
62	0x3dc29692	0.09501375
63	0xbe36c1b2	-0.17847326
64	0x3c22bc24	0.0099325515
65	0xbde76c4d	-0.112999536
66	0x3dcfc087	0.101441436
67	0xbd4f8617	-0.050664987
68	0x3dab432b	0.08362421
69	0xbe0b90bf	-0.13629435
70	0xbd0b89ef	-0.03406709
71	0xbbedec7f	-0.0072608585
72	0xbd22fae0	-0.039790034
73	0xbd4e2a87	-0.050333526
74	0x3dbf070c	0.09327516
75	0xbd5b5236	-0.0535452
76	0x3d964548	0.07337433
77	0xbc995450	-0.018716961
78	0xbd7b528f	-0.06135803
79	0xbe36f8ca	-0.17868343
80	0x3d3a4f63	0.045485865
81	0x3e5b4804	0.2141419
82	0x3e6ef3ec	0.23335236
83	0xbdea2d92	-0.11434473
84	0xba177531	-0.0005777656
85	0xbdaaa310	-0.08331883
86	0x3dbc8627	0.09205275
87	0x3e7ea3db	0.24867193
88	0xbeb5e759	-0.35528067
89	0xbb8d117f	-0.004305064
90	0x3d72e20f	0.059297618
91	0x3e52a68f	0.2057135
92	0xbde55513	-0.11197867
93	0x3e7662ce	0.24061128
94	0xbe22224a	-0.15833393
95	0xbeb5e131	-0.3552337
96	0x3e0f9e9f	0.14025353
97	0xbdc74381	-0.09729672
98	0xbdda1f39	-0.106504865
99	0x3d444ccc	0.0479248
100	0x3ce374b7	0.027765615
101	0x3ed7debf	0.4216213
102	0x3dbf9059	0.09353704
103	0xbea3207c	-0.3186072
104	0x3de70997	0.11281126
105	0x3ec30d5c	0.3809613
106	0x3d7ca1c2	0.0616777
107	0x3d772c03	0.060344707
108	0xbd507840	-0.05089593
109	0xbe9bce11	-0.30430654
110	0xbe548ff1	-0.20758034
111	0x3dedab56	0.11604945
112	0x3d2693e2	0.040668376
113	0xbe823e61	-0.25438216
114	0xbe82bdf5	-0.2553555
115	0x3d8b7989	0.0681029
116	0xbe94ba8c	-0.29048574
117	0xbbc93c91	-0.0061412533
118	0xbc42fb78	-0.011900775
119	0xbc2e5afc	-0.01064181
120	0xbe852d01	-0.26010898
121	0x3e3c31e0	0.18378401
122	0xbd382007	-0.04495242
123	0x3dd9ee0e	0.106411085
124	0xbc754c07	-0.01497174
125	0x3e92c3d1	0.2866502
126	0xbea65d4d	-0.32493058
127	0x3df5c051	0.11999572
128	0xbe296a5d	-0.1654448
129	0x3ec7799e	0.38959974
130	0xbcdebcba	-0.027189601
131	0x3e063e13	0.13109617
132	0x3d577a68	0.05260697
133	0x3df6895b	0.12037917
134	0xbe3e8d1d	-0.18608518
135	0xbe72fe64	-0.23729855
136	0xbc89912e	-0.01679286
137	0xbc8f97e8	-0.01752849
138	0xbe5530a9	-0.20819344
139	0xbdb2b418	-0.087257564
140	0x3c367e87	0.011138565
141	0x3e5d4d87	0.21611606
142	0xbcdfe0c4	-0.027328856
143	0x3ca3eb45	0.020009646
144	0x3e0f1326	0.13972148
145	0x3c9771d8	0.018486902
146	0x3db0f45d	0.086403586
147	0xbc347e77	-0.01101648
148	0xbc5e9a56	-0.013586601
149	0xbc57b8f6	-0.013166657
150	0xbd2f4ce7	-0.04279795
151	0xbe1e975d	-0.15487428
152	0x3c9982bf	0.018739102
153	0xbd66a2ef	-0.05630773
154	0xbe7f238d	-0.24915905
155	0x3e8b50c9	0.27210072
156	0xbcceaa1a	-0.025227595
157	0x3db048f7	0.08607667
158	0xbd213f17	-0.039366808
159	0x3e495a62	0.19663385
160	0x3e00c6e6	0.12575874
161	0xbd9237fd	-0.07139585
162	0xbe6e81ee	-0.23291752
163	0xbd850000	-0.064941406
164	0x3da84c0a	0.08217628
165	0xbdff2a21	-0.12459207
166	0xbdb07983	-0.086169265
167	0x3df2276a	0.11823924
168	0x3cb5b483	0.022180801
169	0x3da26f3f	0.07931375
170	0xbd4f49ee	-0.050607614
171	0xbe2e745f	-0.1703658
172	0xbd33ac1f	-0.04386532
173	0xbe4675ac	-0.19380826
174	0xbd5da586	-0.054112934
175	0x3e716f45	0.23577602
176	0xbe4780b7	-0.19482695
177	0x3d6a5cc3	0.05721737
178	0x3d72947f	0.05922365
179	0x3d7e91ac	0.062150642
180	0xbe787ce0	-0.24266386
181	0xbe274f64	-0.16338879
182	0xbe28615a	-0.16443387
183	0xbe71e4ef	-0.23622487
184	0xbd7a046d	-0.061039377
185	0x3e24f3d0	0.16108632
186	0x3c975526	0.01847322
187	0x3d7eda2d	0.062219787
188	0x3ced1604	0.028941162
189	0x3e2e8093	0.17041235
190	0x3e10e9c8	0.1415168
191	0x3e0698af	0.13144182
192	0x3ddaa79c	0.106765
193	0xbe987c04	-0.29782116
194	0x3e2e4f44	0.17022425
195	0x3e03f8fb	0.12887947
196	0xbdb7fcd7	-0.08983772
197	0x3d8fe5f3	0.07026281
198	0xbe8e51dc	-0.2779683
199	0xbd8fb031	-0.07016028
200	0xbe65d4d6	-0.22444472
201	0x3e6d229f	0.23157738
202	0xbc7a33cf	-0.015271141
203	0xbeeb9af1	-0.46016648
204	0x3ea42aa7	0.3206379
205	0x3d00f573	0.03148408
206	0xbdad1691	-0.0845157
207	0x3e96a3ee	0.29421943
208	0xbe274ce1	-0.1633792
209	0xbd93807d	-0.072022416
210	0xbe521776	-0.20516762
211	0x3d9d7064	0.076874524
212	0xbb74aeca	-0.0037335628
213	0x3e4fc9e1	0.20291854
214	0xbd29f02d	-0.041488815
215	0xbef0683b	-0.46954522
216	0x3d3d4ca3	0.046215665
217	0xbd8e3fb0	-0.06945741
218	0xbe126274	-0.1429537
219	0xbd1e0fb2	-0.038589187
220	0x3e86e58e	0.2634701
221	0x3e06a970	0.13150573
222	0x3e68e10d	0.227421
223	0xbe5709cd	-0.20999832
224	0x3e67d48a	0.22639671
225	0x3e64f796	0.22360072
226	0x3d408baa	0.047008194
227	0xbe403b4e	-0.18772623
228	0xbdfdd42b	-0.123939835
229	0xbe5d1366	-0.21589431
230	0xbdce684f	-0.10078489
231	0x3d1ebc9a	0.038754083
232	0x3d707f3e	0.058715098
233	0xbe9e8b26	-0.30965537
234	0xbde8c0dd	-0.11364911
235	0xbce8c484	-0.028414018
236	0xbf000ba0	-0.5001774
237	0x3e0f7a0e	0.14011404
238	0xbe275d8d	-0.1634428
239	0xbe7336fd	-0.23751445
240	0x3b3b9382	0.0028621857
241	0x3e55c936	0.20877537
242	0x3b3f386a	0.0029177913
243	0xbd0054aa	-0.031330742
244	0xbce8552c	-0.028360926
245	0xbdec8f3d	-0.11550758
246	0xbe1ea79c	-0.15493625
247	0x3ecf1c10	0.40451097
248	0xbe6cad05	-0.23112877
249	0xbdde0644	-0.10841039
250	0xbe20775f	-0.15670536
251	0x3e18553a	0.14876261
252	0xbe7c9955	-0.24667867
253	0x3e967f22	0.2939387
254	0xbc9242d3	-0.01785413
255	0xbcb2f8ab	-0.02184709

model.rnn.bias_ih_l0 f4 [160]
0	0x3df90a73	0.12160196
1	0x3e82eaff	0.25569913
2	0x3f235dc0	0.63814926
3	0x3d8de4ce	0.06928407
4	0x3bae00da	0.00531016
5	0x3d988a95	0.074483074
6	0x3d8b68ac	0.06807074
7	0x3ecd1f47	0.40062925
8	0x3e29324c	0.16523093
9	0x3d93d831	0.072189696
10	0x3e7680d7	0.24072586
11	0xba3325c7	-0.00068339374
12	0x3c1b193f	0.009466468
13	0x3db5bc7f	0.088738434
14	0xbd95853b	-0.07300802
15	0x3c760b1c	0.015017297
16	0x3e4d153f	0.20027636
17	0x3f32df52	0.6987201
18	0xbd840547	-0.06446319
19	0x3f08a002	0.5336915
20	0x3e101d10	0.14073586
21	0x3dc577c2	0.096419826
22	0x3deba14a	0.11505373
23	0x3c881065	0.01660938
24	0xbd8e87af	-0.06959473
25	0x3e8ceb04	0.27523053
26	0x3d1391c2	0.036027677
27	0x3eaa38c5	0.33246437
28	0xbd08b536	-0.03337594
29	0x3e32d56c	0.17464226
30	0xbafeda11	-0.0019443651
31	0x3ea40c0e	0.32040447
32	0x3e355aa3	0.17710356
33	0x3efedbc6	0.4977705
34	0xbcafc1a1	-0.021454634
35	0x3df1e28a	0.11810787
36	0xbd819dd4	-0.063289315
37	0x3e916b6c	0.2840227
38	0x3e879008	0.26477075
39	0x3dd68537	0.104746275
40	0x3e5bead0	0.21476293
41	0x3db4176f	0.08793532
42	0x3d92f276	0.07175152
43	0xbe34e7d7	-0.17666565
44	0xbc28807c	-0.010284539
45	0x3e09a699	0.13442458
46	0x3e33751a	0.1752514
47	0x3e251b11	0.16123606
48	0x3e183a6a	0.14866033
49	0xbb6d007e	-0.0036163623
50	0xbe2f3980	-0.17111778
51	0xbd4d5c78	-0.050137013
52	0x3d1db6cd	0.03850441
53	0xbd7f2f03	-0.062300693
54	0x3dc606b6	0.09669249
55	0xbd520f72	-0.05128426
56	0x3c2a2ebe	0.010387121
57	0x3e27df51	0.16393782
58	0x3e1a45d9	0.15065707
59	0x3d302864	0.04300727
60	0xbd6bd100	-0.057572365
61	0xbd1927c4	-0.03739144
62	0x3e47d402	0.19514468
63	0xbddc64cf	-0.10761415
64	0x3e6cde55	0.23131688
65	0xbe525e09	-0.20543684
66	0x3e0b8494	0.13624793
67	0x3e24f933	0.16110687
68	0x3d4e1b23	0.05031885
69	0x3e8a4733	0.27007446
70	0x3e813d81	0.25242236
71	0x3d41a0d2	0.04727251
72	0x3e204467	0.15651093
73	0x3e1d0e6a	0.1533753
74	0x3ccb845b	0.024843385
75	0xbd58ef73	-0.05296273
76	0x3d8b87ae	0.06812988
77	0x3d43b00c	0.047775313
78	0x3da94bbd	0.08266399
79	0x3d9e74ed	0.077371456
80	0xbe4d2472	-0.20033434
81	0x3e3c8bbb	0.18412678
82	0x3e4c5f51	0.19958235
83	0x3dd922d0	0.10602343
84	0x3c4a1adb	0.012335504
85	0x3e4f353c	0.20235151
86	0x3d72ccd1	0.05927736
87	0x3e66b105	0.22528465
88	0xbe39cb3b	-0.18143933
89	0x3e0bec17	0.1366428
90	0xbe0260fd	-0.1273231
91	0x3de16905	0.11006359
92	0xbd225c16	-0.0396386
93	0x3e8a23ea	0.26980525
94	0xbd84d15f	-0.06485247
95	0x3dc89870	0.097947
96	0x3da1b6ea	0.07896216
97	0x3c1451d1	0.00905271
98	0x3e12b811	0.14328028
99	0x3e10a0b3	0.14123802
100	0x3e17857c	0.14797014
101	0x3e8f334f	0.27968833
102	0x3e31e3a4	0.17371994
103	0x3ce4b5a3	0.027918642
104	0x3d62e232	0.055391498
105	0x3e099387	0.13435183
106	0xbe297333	-0.16547851
107	0x3b8fd03d	0.0043888376
108	0x3e095982	0.13413051
109	0xbdc74c3c	-0.097313374
110	0xbe4b7ca5	-0.19871767
111	0xbe15a92f	-0.1461532
112	0xbcc1af9c	-0.023643307
113	0xbe115778	-0.14193523
114	0xbe44f400	-0.19233704
115	0x3e264ec1	0.1624098
116	0xbc416196	-0.011803051
117	0x3e0ca004	0.13732916
118	0xbd588798	-0.052863687
119	0xbe113701	-0.14181139
120	0x398e01ae	0.00027085602
121	0x3e064c82	0.13115123
122	0x3e42e0e9	0.19031109
123	0x3eb4a5c9	0.35282734
124	0xbde46bc4	-0.11153367
125	0x3e3f8ff9	0.18707265
126	0x3e8a200d	0.26977578
127	0x3e22dbc2	0.15904143
128	0x3e841870	0.25799894
129	0x3e68c897	0.22732769
130	0x3bcad323	0.0061897202
131	0xbc654381	-0.013993145
132	0x3e282ad3	0.16422586
133	0x3e04bfcb	0.12963788
134	0x3dd755d1	0.10514415
135	0x3dcd0fd5	0.10012785
136	0x3e392850	0.18081784
137	0x3cba3c65	0.022733876
138	0x3e1cbc03	0.15306096
139	0x3e8d60c7	0.27612898
140	0x3e05abf8	0.13053882
141	0x3d950de7	0.07278042
142	0xbd939c32	-0.07207526
143	0xbd1ee576	-0.03879305
144	0x3d957448	0.072975695
145	0x3d91950c	0.071085066
146	0x3e14f205	0.14545448
147	0x3dd8391c	0.10557768
148	0x3de2906e	0.11062704
149	0x3dff22c7	0.12457805
150	0x3e344f6b	0.1760842
151	0x3e240686	0.16018113
152	0xbd66ae5b	-0.056318622
153	0x3f269ed0	0.6508608
154	0xbda73281	-0.0816393
155	0x3e0008e0	0.12503386
156	0x3c658eda	0.014011109
157	0xbcc2f23e	-0.02379715
158	0xbd832e0a	-0.06405266
159	0x3ee2dc88	0.44308877

model.rnn.bias_hh_l0 f4 [160]
0	0x3e3d10a8	0.18463385
1	0x3e83d864	0.2575103
2	0x3f165554	0.5872395
3	0x3deb9850	0.11503661
4	0xbdc2f553	-0.09519448
5	0x3d6686ff	0.056281086
6	0x3e903f63	0.2817336
7	0x3f01fc64	0.5077574
8	0x3df74c4a	0.12075098
9	0x3e3f11c8	0.18659127
10	0x3e034fd1	0.12823416
11	0xbcef2512	-0.029192481
12	0x3cad14d7	0.021128101
13	0x3ca2638b	0.019822856
14	0xbd5a241c	-0.053257093
15	0x3da796f4	0.08183089
16	0xbcb88b5c	-0.02252739
17	0x3f1e7866	0.61902463
18	0xbdf3b4c1	-0.118997104
19	0x3f0c2fac	0.5476024
20	0x3e1d09c9	0.15335764
21	0x3d97e793	0.07417216
22	0x3ebe0f12	0.37120873
23	0x3dda8815	0.10670487
24	0x3da591cf	0.080844514
25	0x3e0675fe	0.13130948
26	0xbdd0a61d	-0.101879336
27	0x3eb7fdfe	0.35935968
28	0x3c297887	0.010343677
29	0x3d1e2e63	0.038618457
30	0xbcb12113	-0.021622216
31	0x3e4e1027	0.20123349
32	0x3e548511	0.20753886
33	0x3f218389	0.6309133
34	0x3de2068c	0.11036405
35	0x3e2a24ba	0.16615573
36	0x3e0c55ae	0.13704559
37	0x3dd3d5ce	0.103435144
38	0x3e80026e	0.25001854
39	0x3d79a701	0.060950283
40	0x3d018bea	0.031627573
41	0xbdba7e8d	-0.09106169
42	0x3dcda140	0.100405216
43	0xbe1a1e76	-0.15050682
44	0xbdee7078	-0.116425455
45	0xbd8493aa	-0.06473477
46	0x3e248fc2	0.16070464
47	0x3e0df4e8	0.13862956
48	0x3dfd0e34	0.12356225
49	0xbda95454	-0.082680374
50	0x3bb43f1c	0.0055006873
51	0x3da39a15	0.07988373
52	0xbe0a1dff	-0.13488005
53	0x3c8b732a	0.017022688
54	0x3d6cb4d2	0.05778963
55	0xbdf0decf	-0.11761247
56	0xbe243f1f	-0.16039704
57	0x3df784a7	0.12085848
58	0x3cdee22f	0.027207462
59	0xbd32adb3	-0.043622684
60	0x3c8c622c	0.017136656
61	0x3d52d366	0.051471137
62	0x3e07faaa	0.13279215
63	0x3c755cd4	0.014975745
64	0x3b1bf914	0.0023799585
65	0xbe323476	-0.17402825
66	0xbd26dc2a	-0.04073731
67	0xbbc7b872	-0.0060949856
68	0xbd7efd3e	-0.06225323
69	0x3e7543b1	0.23951603
70	0x3e8ab36e	0.2709002
71	0x3e212ba0	0.15739298
72	0xbcacdbdc	-0.02110093
73	0x3d656836	0.056007586
74	0x3c9ea07f	0.01936364
75	0x3c4986b8	0.012300186
76	0x3d58a1d2	0.0528887
77	0x3e1314f2	0.14363459
78	0xbe2fb81e	-0.17160079
79	0x3e162a3b	0.14664547
80	0x3b62f6d0	0.0034631975
81	0xbb976ec9	-0.004621361
82	0x3c189dab	0.009314935
83	0xbd976c25	-0.07393674
84	0xbc545af0	-0.012961134
85	0x3e48ae40	0.19597721
86	0x3d71e358	0.059054703
87	0x3e280d5b	0.16411345
88	0xbe57402d	-0.21020575
89	0xbd19745b	-0.03746448
90	0xbde16ee4	-0.11007479
91	0x3d12d66c	0.03584902
92	0xbe0ff122	-0.14056829
93	0x3e9df538	0.3085115
94	0xbd10f897	-0.035393324
95	0xbdb90069	-0.09033281
96	0xbcfe43ba	-0.031038154
97	0x3d98b411	0.0745622
98	0xbdcdc3fa	-0.10047145
99	0x3de4c3c7	0.11170154
100	0x3e166514	0.14686996
101	0x3e92a75a	0.28643304
102	0x3e071526	0.13191661
103	0xbd9160d0	-0.07098544
104	0x3e10ef0f	0.14153694
105	0xbe04ee90	-0.1298163
106	0xbe17784b	-0.14791982
107	0x3d6e0a26	0.058115147
108	0xbd688429	-0.056766663
109	0xbd902730	-0.070387244
110	0xbe280570	-0.16408324
111	0xbe20ff55	-0.15722401
112	0x3dfe032f	0.12402951
113	0xbe3fc7a4	-0.187285
114	0xbdc67a46	-0.096912906
115	0x3e427e26	0.18993434
116	0xbdfcdd38	-0.12346882
117	0xb9ac3d4a	-0.0003285206
118	0xbdd38c6f	-0.1032952
119	0x3dccbc0d	0.09996805
120	0xbd350d4a	-0.044202127
121	0x3e1127cc	0.14175338
122	0xbc6d0c51	-0.0144682685
123	0x3da5955d	0.080851294
124	0x3dbc7b05	0.092031516
125	0x3c4671ee	0.012112124
126	0x3e48f1e0	0.19623518
127	0x3e6de62a	0.23232332
128	0x3e84c6fa	0.25933057
129	0x3e8c0a40	0.2735157
130	0x3e4ce738	0.20010078
131	0x3e1e933e	0.15485856
132	0x3e4a9263	0.19782405
133	0xbdb82479	-0.089913316
134	0xbd739500	-0.05946827
135	0x3e00408e	0.12524626
136	0x3b12c0d0	0.0022392757
137	0x3db28d5a	0.08718367
138	0x3e74b88b	0.23898523
139	0x3d96050c	0.07325181
140	0xbd7e2a38	-0.06205198
141	0x3a8c44b2	0.0010701625
142	0x3d0d5735	0.034506995
143	0xbc72f762	-0.0148294885
144	0xbd33de63	-0.043913256
145	0x3e571068	0.21002352
146	0x3cdc02f1	0.026856871
147	0x3e8831a8	0.26600385
148	0x3dbd679c	0.092482775
149	0x3c5f31be	0.013622699
150	0xbd58ea50	-0.052957833
151	0xbce3f02d	-0.027824486
152	0xbd70e125	-0.058808465
153	0x3f1e21a6	0.61770093
154	0x3d4374b4	0.04771872
155	0x3dcb69d6	0.09932296
156	0x3d945c99	0.07244224
157	0xbd1a3392	-0.037646838
158	0x3e5c087c	0.21487612
159	0x3e6c9036	0.23101887

model.rnn.weight_ih_l1 f4 [160, 40]
0	0x3e450293	0.19239263
1	0xbd960c98	-0.07326621
2	0x3e02dc71	0.12779404
3	0xbf51a705	-0.81895477
4	0xbd46fe14	-0.04858215
5	0x3d2e7ba9	0.0425984
6	0xbde03094	-0.109467655
7	0x3e692e6c	0.22771615
8	0xbe4db3d5	-0.20088132
9	0xbd915c42	-0.07097675
10	0xbe595e5a	-0.21227399
11	0x3e0a8c9a	0.13530198
12	0xbe9a6691	-0.30156377
13	0x3e3e1511	0.18562724
14	0xbc81b48c	-0.015833162
15	0xbd851bb7	-0.06499427
16	0x3d084591	0.03326947
17	0xbd99d66f	-0.07511603
18	0xbe23efb3	-0.16009407
19	0x3e876ef1	0.2645183
20	0x3e0ea422	0.13929799
21	0xbdf72073	-0.12066736
22	0xbd3e2761	-0.046424273
23	0xbeffb162	-0.4994002
24	0x3db0248a	0.08600719
25	0xbca5f202	-0.020257
26	0x3de6d352	0.11270775
27	0xbcf6f9db	-0.030148437
28	0xbd83b9e1	-0.06431938
29	0x3d55d978	0.052209347
30	0x3db7c886	0.08973794
31	0xbdd5a330	-0.10431516
32	0x3dd82ada	0.10555048
33	0x3e7ab7a8	0.24484122
34	0xbda35b7c	-0.07976434
35	0xbc4f49fb	-0.012651916
36	0xbd0c9a74	-0.034326985
37	0xbbe2083d	-0.0068979547
38	0xbec03040	-0.37536812
39	0xbe94d8c3	-0.29071626
40	0x3d661bd4	0.056178883
41	0x3e3e4cc0	0.18583965
42	0x3e0c9db3	0.13732032
43	0x3d4699c4	0.048486486
44	0x3e896cf5	0.2684094
45	0x3db3d358	0.08780545
46	0x3ddde7d5	0.10835234
47	0x3dbf48f5	0.09340087
48	0xbe906cfe	-0.28208154
49	0x3d8049f2	0.06264104
50	0xbee64967	-0.44977877
51	0xbdb364aa	-0.087594345
52	0xbe8e5f07	-0.27806875
53	0x3e11d141	0.1423998
54	0xbe69d1e4	-0.22833973
55	0x3e8ff5a7	0.28117105
56	0xba32df32	-0.000682342
57	0xbdcac9ac	-0.09901747
58	0x3db23c42	0.087028995
59	0xbc6ea2d1	-0.014565186
60	0xbc0be318	-0.00853803
61	0xbe30b0dc	-0.17254966
62	0xbdc7fb70	-0.09764755
63	0x3e1b0c7c	0.15141481
64	0x3d9da7ef	0.076980464
65	0x3d2bed68	0.041974455
66	0xbd4bc74b	-0.049750607
67	0x3d16b0e7	0.0367898
68	0x3e017384	0.12641722
69	0x3e344c9d	0.1760735
70	0xbe006f1d	-0.12542386
71	0xbdfec4f7	-0.12439912
72	0x3d48dc0e	0.049037986
73	0xbeb0fbe4	-0.34567177
74	0x3c7ad1fd	0.015308854
75	0xbd415c45	-0.047207136
76	0xbeab9042	-0.33508497
77	0xbe4c7e83	-0.19970135
78	0xbeb96279	-0.3620794
79	0x3ca0f88e	0.01964977
80	0xbe0b0898	-0.13577497
81	0xbd5d1c86	-0.05398228
82	0xbd0d1175	-0.034440476
83	0xbdec5435	-0.11539499
84	0xbdc8beb1	-0.098019965
85	0xbda23433	-0.079201125
86	0x3e040352	0.12891892
87	0xbd2d827c	-0.042360768
88	0xbdf9319b	-0.121676646
89	0x3db5cd9a	0.08877106
90	0x3d7fcac7	0.062449243
91	0xbcd38902	-0.025822166
92	0xbe8868f7	-0.26642582
93	0x3ddcad12	0.10775198
94	0xbe3bcc22	-0.18339589
95	0x3cde01d7	0.027100487
96	0xbe44538b	-0.19172494
97	0xbc51344d	-0.012768817
98	0x3ec9e5d8	0.3943317
99	0xbdce51ce	-0.10074197
100	0xbc421264	-0.011845205
101	0x3d89f7da	0.06736727
102	0x3d5be744	0.05368735
103	0x3c4f7960	0.012663215
104	0x3d9028cc	0.070390314
105	0x3e08c48b	0.13356225
106	0xbd067f0d	-0.03283601
107	0x3d64aaf8	0.05582711
108	0xbd4df8f3	-0.050286245
109	0xbbdf0e56	-0.006807129
110	0xbdf6cfc0	-0.12051344
111	0x3d51c19c	0.05121003
112	0x3e4b0386	0.19825563
113	0xbea1f55d	-0.3163251
114	0x3d313771	0.043265764
115	0xbd3e8258	-0.046511024
116	0x3e30fba0	0.17283487
117	0x3d3a8778	0.04553935
118	0xbeef3241	-0.46718028
119	0x3e9a28d8	0.30109286
120	0xbe02b0aa	-0.12762704
121	0x3e484bdc	0.19560188
122	0x3e1e7040	0.15472507
123	0xbf6e1631	-0.9300261
124	0x3db3fa46	0.0878797
125	0x3c3d8563	0.011567446
126	0xbebdd1f9	-0.3707426
127	0x3da0748d	0.0783473
128	0xbe6482f5	-0.22315581
129	0x3eae0861	0.33990768
130	0xbe8b7f12	-0.27245384
131	0x3e436a1d	0.19083448
132	0xbe61a6c4	-0.22036272
133	0x3de79d6c	0.11309323
134	0x3ebdec9b	0.37094578
135	0xbc115c63	-0.008872124
136	0x3eb1c1f6	0.34718293
137	0xbc5026d6	-0.012704572
138	0xbf2219aa	-0.6332041
139	0x3e07b8fd	0.13254161
140	0x3e3d8de3	0.18511157
141	0x3d98997c	0.0745115
142	0x3d8c4296	0.06848638
143	0xbee46616	-0.44609135
144	0x3e42c1d1	0.19019248
145	0xbcf1ca62	-0.029515449
146	0x3e6dd0df	0.23224209
147	0xbdfec3c5	-0.12439684
148	0xbe290de9	-0.16509213
149	0xbdf66ec0	-0.12032843
150	0xbe5f6cec	-0.21818894
151	0xbe23cf2e	-0.15997002
152	0x3e8cdb8e	0.27511257
153	0x3e7615d1	0.2403176
154	0xbe524216	-0.20533022
155	0xbc8249e9	-0.015904384
156	0x3e52ca0a	0.20584884
157	0x3e9d7d7d	0.30759802
158	0xbed8ee99	-0.42369536
159	0xbee74b2f	-0.45174548
160	0xbe5d869e	-0.21633384
161	0x3ec5df53	0.38646945
162	0x3edea3cf	0.4348435
163	0xbe884077	-0.26611683
164	0x3d1f580b	0.038902324
165	0x3e97ce1b	0.29649433
166	0xbd8a443e	-0.067512974
167	0x3e8c7d06	0.27439135
168	0xbe8de27c	-0.27711856
169	0x3edb745b	0.4286221
170	0xbe5c08c4	-0.21487719
171	0x39810c6f	0.0002461406
172	0xbeb5c9d2	-0.3550554
173	0x3ebd0699	0.36919096
174	0x3e3a164e	0.18172571
175	0xbe65adb8	-0.2242955
176	0x3e624e83	0.22100262
177	0x3edae825	0.42755237
178	0xbec5762b	-0.38566718
179	0xbe9461e1	-0.28980926
180	0x3e3a1226	0.18170986
181	0x3eb0f7d4	0.34564078
182	0x3e869e7c	0.2629279
183	0xbe9a773c	-0.30169094
184	0x3ece00dd	0.40235034
185	0xbd3ba4a2	-0.045811303
186	0xbb8e714c	-0.004347002
187	0xbebfbc2f	-0.3744826
188	0xbe112108	-0.14172757
189	0xbe9526b8	-0.29131103
190	0xbe09ed43	-0.13469414
191	0xbd1e6943	-0.038674604
192	0xbd4e985a	-0.050438263
193	0xbd1d56ed	-0.038412977
194	0xbe09e54b	-0.13466375
195	0x3ecac1ab	0.39600882
196	0x3e4b3b55	0.19846852
197	0xbde6e086	-0.11273293
198	0xbf256938	-0.64613676
199	0xbeb39236	-0.35072488
200	0xbd49ed56	-0.049298607
201	0x3e805c9a	0.2507065
202	0x3e87a630	0.26493979
203	0xbca5f01e	-0.020256098
204	0xbd5a64c7	-0.053318765
205	0x3cd4fc1c	0.025999121
206	0xbc2f81b2	-0.010712074
207	0x3f0eb2e9	0.55741745
208	0xbedc421f	-0.43019196
209	0xbdd51e7b	-0.10406204
210	0xbd031a37	-0.032007422
211	0xbd0f3a17	-0.03496751
212	0xbeac2fa4	-0.33630097
213	0x3f11fa1b	0.57022256
214	0x3e951d00	0.29123688
215	0x3e9142ee	0.28371376
216	0x3e2d48cd	0.16922303
217	0x3f15c1ab	0.5849864
218	0xbdde089e	-0.10841487
219	0xbe5d1a8b	-0.21592157
220	0x3d88096c	0.06642422
221	0xbdd18acc	-0.102315515
222	0xbe37b496	-0.17939982
223	0x3e8f9184	0.28040707
224	0xbd14135c	-0.036151275
225	0xbd99c7a5	-0.07508782
226	0x3e405842	0.18783668
227	0x3e5690a0	0.20953608
228	0xbe9aad3e	-0.30210298
229	0xbdb7f0dc	-0.08981487
230	0xbceda1b2	-0.029007766
231	0x3da392ec	0.079870075
232	0x3e0df823	0.13864188
233	0xbf1484c4	-0.58015084
234	0xbe874f85	-0.26427856
235	0xbe548a19	-0.20755805
236	0x3ead611b	0.33863148
237	0xbe1906f8	-0.14944065
238	0xbf6bef26	-0.92161787
239	0xbd5c7fb2	-0.053832717
240	0xbd941a6c	-0.07231602
241	0xbd8bea31	-0.06831778
242	0xbd2af534	-0.04173775
243	0xbe208350	-0.15675092
244	0x3df5b32e	0.119970664
245	0x3d5780df	0.052613135
246	0xbd9d8082	-0.076905265
247	0x3eacc6ce	0.33745426
248	0x3da1f03c	0.07907149
249	0xbd42c138	-0.04754755
250	0x3e10d3cd	0.14143296
251	0xbabe303f	-0.0014510228
252	0xbe8030d2	-0.25037247
253	0x3e1bdabc	0.1522016
254	0xbccbda5b	-0.024884393
255	0xbebc3bdb	-0.36764416

model.rnn.weight_hh_l1 f4 [160, 40]
0	0x3e3e1a9e	0.18564841
1	0xbe8565ec	-0.26054323
2	0x3e8b8fc3	0.2725812
3	0xbdfe7805	-0.12425236
4	0xbe1b0dde	-0.15142009
5	0xbcf7fe8d	-0.030272746
6	0x3e06b603	0.1315537
7	0x3db7718e	0.08957206
8	0x3d9f2397	0.0777046
9	0xbe077b58	-0.13230646
10	0x3e33e6be	0.1756849
11	0xbd8f68a4	-0.070023805
12	0xbad09867	-0.001591456
13	0x3ca60c29	0.02026947
14	0xbdfdf904	-0.124010116
15	0x3e424603	0.1897202
16	0xbcdf9dcb	-0.027296921
17	0x3d60e49c	0.05490552
18	0x3d6a0ec9	0.057143006
19	0xbe4ae883	-0.19815259
20	0xbe427845	-0.18991192
21	0xbd08161f	-0.03322422
22	0x3b7b8b66	0.0038382648
23	0x3d8d3b50	0.068960786
24	0x3d20d533	0.039265823
25	0x3dfc3d2f	0.12316357
26	0xbe2632d7	-0.16230331
27	0x3c8e216d	0.017349923
28	0xbdaa8de6	-0.08327846
29	0x3de3bd85	0.11120132
30	0xbda509bb	-0.080584966
31	0x3e585c12	0.21128872
32	0xbe54f6ad	-0.20797224
33	0x3cb9fd9f	0.022703944
34	0xbdcf6fb3	-0.10128727
35	0xbcf3c8be	-0.029758807
36	0x3d74ceb1	0.05976743
37	0x3eab0540	0.33402443
38	0x3dc69de9	0.09698088
39	0xbdefe3b8	-0.11713356
40	0x3d8dea9b	0.06929513
41	0xbdba3eb1	-0.09093989
42	0x3e24b975	0.16086371
43	0x3e8c0cd0	0.27353525
44	0xbee8a1ac	-0.45435846
45	0xbe1d823c	-0.15381712
46	0x3d537547	0.051625516
47	0xbdb1f0c0	-0.086884975
48	0x3d0249c3	0.031808626
49	0xbe487de2	-0.1957927
50	0x3ec9e530	0.3943267
51	0x3cdb5e81	0.026778461
52	0x3c1356d5	0.00899287
53	0x3dec32dc	0.11533138
54	0xbde05aaf	-0.109547965
55	0xbee5ecb2	-0.44907147
56	0xbda2653b	-0.079294644
57	0xbe70a2fb	-0.23499672
58	0xbe1a2288	-0.15052235
59	0xbe5df78a	-0.2167646
60	0xbe81882c	-0.25299203
61	0x3e84eec7	0.25963423
62	0x3ebc2e6f	0.36754176
63	0xbecc0872	-0.39850193
64	0xbd828da4	-0.06374672
65	0xbe4bf63d	-0.19918151
66	0xbe3ad3f7	-0.1824492
67	0x3e4b0e6f	0.19829725
68	0xbc0429de	-0.008066623
69	0x3e2592fd	0.16169353
70	0x3d95c4e7	0.07312947
71	0x3e9323c8	0.28738236
72	0xbe5c385b	-0.21505873
73	0x3eaf34fd	0.34220114
74	0x3e9180b5	0.28418508
75	0x3dfc1f69	0.123106785
76	0x3c2b04c9	0.010438153
77	0xbd4f46db	-0.050604682
78	0x3cee7814	0.029109992
79	0x3e75dde3	0.24010424
80	0x3ca0a4fb	0.019609919
81	0xbd645481	-0.05574465
82	0x3d731585	0.059346694
83	0x3d2e3ceb	0.042538565
84	0xbc918f0b	-0.017768404
85	0xbd800a91	-0.062520154
86	0xbd90aabb	-0.07063814
87	0xbe1cd5cf	-0.15315937
88	0xbe112997	-0.14176022
89	0xbc75bba1	-0.0149983475
90	0x3d52e626	0.051489018
91	0x3e1eb03e	0.15496919
92	0x3e407ad5	0.18796857
93	0xbd7ec59c	-0.062200174
94	0xbbb621de	-0.0055582365
95	0xbe4edea8	-0.20202124
96	0xbc26becc	-0.010177325
97	0x3daf1388	0.08548647
98	0xbdc37fa9	-0.095458336
99	0xbdc54f75	-0.09634296
100	0x3d94a25f	0.07257532
101	0xbe414632	-0.18874434
102	0xbdaf42a7	-0.08557635
103	0xbda9f88d	-0.082993604
104	0xbda50b3f	-0.08058786
105	0x3e3330b5	0.17499049
106	0xbe1174b7	-0.1420468
107	0xbdb768e9	-0.08955557
108	0x3d7fff05	0.062499065
109	0xbda44fb7	-0.08023017
110	0xbdb95bd3	-0.09050717
111	0x3dfa0da4	0.12209633
112	0x3e47074c	0.19436377
113	0x3db54ac4	0.08852151
114	0xbd58969f	-0.05287802
115	0x3e25420a	0.16138473
116	0x3e07d9ce	0.1326668
117	0x3dfb91a6	0.122836396
118	0xbd507194	-0.050889567
119	0xbe1134d4	-0.14180309
120	0x3d78bdbe	0.060727827
121	0xbd6d1b4a	-0.057887353
122	0x3ec44815	0.38336244
123	0x3e167380	0.14692497
124	0x3dd2587f	0.102707855
125	0x3e580ed3	0.21099405
126	0xbb5328be	-0.003222033
127	0xbe058d0c	-0.13042086
128	0xbe293361	-0.16523506
129	0x3e2365d6	0.15956816
130	0x3cd1614a	0.025559086
131	0xbe25d99c	-0.16196293
132	0x3e38b640	0.18038273
133	0xbe2696ce	-0.16268465
134	0xbe120cbe	-0.14262673
135	0xbde432db	-0.111425124
136	0x3e7c13f4	0.24616987
137	0x3e63c17b	0.22241776
138	0x3db57cda	0.08861704
139	0x3e0bc497	0.13649212
140	0x3e3d9bb3	0.18516426
141	0xbc47d361	-0.012196393
142	0xbdf182ba	-0.11792512
143	0x3e31578c	0.17318553
144	0x3b26d2c8	0.0025455225
145	0xbbc941d9	-0.006141883
146	0x3e17044a	0.1474773
147	0x3d569acd	0.052393723
148	0x3e8be6e8	0.27324605
149	0xbe806f43	-0.25084886
150	0xbe9322c8	-0.28737473
151	0x3d8abb21	0.06773973
152	0x3d007929	0.031365547
153	0xbdd5f92a	-0.10447915
154	0xbdcdd247	-0.10049873
155	0xbd84cf72	-0.064848796
156	0x3d901a6a	0.07036288
157	0x3e9f57ee	0.31121773
158	0xbd242986	-0.040078662
159	0x3db8c9b1	0.090228446
160	0xbdb7ad68	-0.089686215
161	0x3ec36603	0.38163766
162	0x3ed4b222	0.41542155
163	0x3c84f696	0.016230863
164	0xbe45f156	-0.19330344
165	0xbe1fb936	-0.15597996
166	0xbe561465	-0.20906217
167	0xbea7553e	-0.32682222
168	0xbcfbabf1	-0.030721636
169	0x3d6e34f1	0.058155958
170	0xbe5d1583	-0.21590237
171	0x3d30638d	0.04306369
172	0xbcc78303	-0.024354463
173	0xbce83cf9	-0.028349387
174	0xbe2d4472	-0.16920641
175	0xbea6ce21	-0.3257914
176	0xbdc1f694	-0.09470859
177	0x3e3bc09a	0.1833519
178	0xbe6f5c3a	-0.23375025
179	0xbe5951d3	-0.2122262
180	0x3dd2dcba	0.102960065
181	0xbe91f495	-0.28506914
182	0x3db4fc0f	0.08837139
183	0xbf09ec60	-0.53876305
184	0x3df48c3f	0.11940812
185	0x3e31bd05	0.17357261
186	0x3e46a6d2	0.19399574
187	0x3d69c2b6	0.057070456
188	0x3c19d98d	0.009390247
189	0xbd441e45	-0.04788043
190	0xbe98dd33	-0.29856262
191	0xbca4d584	-0.020121343
192	0x3e10d94d	0.14145394
193	0xbdcbbba1	-0.09947897
194	0x3e58b219	0.21161689
195	0xbd5eceb1	-0.054396335
196	0x3ef2fcec	0.4745859
197	0x3ebd6034	0.3698746
198	0xbbc41bde	-0.0059847673
199	0x3def01b5	0.116702475
200	0xbe8f754f	-0.28019187
201	0xbf23c60f	-0.6397409
202	0xbe82bb2c	-0.25533426
203	0x3cd9a80e	0.026569393
204	0xbe51e6d7	-0.20498215
205	0xbf043032	-0.5163604
206	0x3e129463	0.14314418
207	0x3e34f1f0	0.17670417
208	0x3d826314	0.06366554
209	0x3e03b31e	0.12861297
210	0x3f119bbb	0.5687825
211	0xbe4772d9	-0.19477405
212	0x3c1dc1c4	0.009628717
213	0x3da7a9bc	0.08186671
214	0x3ec43657	0.38322708
215	0x3bcd445f	0.006264254
216	0xbd809823	-0.06279018
217	0xbe7e7f1b	-0.24853174
218	0xbf0163a4	-0.50542665
219	0x3f294688	0.6612325
220	0x3b2c48b5	0.0026288454
221	0xbd2253b7	-0.039630618
222	0x3d005e7d	0.03134011
223	0x3e34e1c0	0.17664242
224	0x3ddd3002	0.108001724
225	0xbdb9cba1	-0.09072042
226	0xbd45f43a	-0.048328616
227	0xbe80c887	-0.2515299
228	0xbe5af5c3	-0.21382813
229	0x3e3e80cb	0.18603818
230	0xbd537d83	-0.05163337
231	0x3d8db210	0.06918728
232	0x3d46facc	0.048579022
233	0x3e5f44ba	0.21803561
234	0x3f286b58	0.65788794
235	0x3e111c4a	0.14170948
236	0xbdc86520	-0.09784913
237	0xbca73972	-0.020413134
238	0x3d51f256	0.0512565
239	0x3efd17f0	0.49432325
240	0x3ea89dff	0.3293304
241	0xbd2ef62b	-0.042715233
242	0x3e369e5f	0.17833851
243	0x3cb76fc2	0.022392157
244	0xbd73a8f0	-0.059487283
245	0x3db3fdd3	0.087886475
246	0xbbb91acb	-0.005648946
247	0xbe2b36f6	-0.16720185
248	0x3dc441d3	0.095828675
249	0x3e3e040d	0.18556233
250	0xbd8c859c	-0.068614215
251	0x3dd4f498	0.10398215
252	0x3e7961a0	0.24353647
253	0x3da86600	0.0822258
254	0x3b1b921f	0.0023738218
255	0xbe0146b2	-0.12624624

model.rnn.bias_ih_l1 f4 [160]
0	0xbdef7bdd	-0.11693547
1	0x3e9bc12e	0.30420822
2	0x3d6cc8e6	0.05780878
3	0x3e9b606f	0.3034701
4	0x3f040b7c	0.51580024
5	0x3d2b820f	0.04187208
6	0x3d04f2fb	0.032458287
7	0x3e713c9e	0.2355828
8	0x3e09eaa0	0.13468409
9	0x3da8f81a	0.082504466
10	0x3e971f09	0.29515865
11	0x3c86a675	0.016436795
12	0x3d6897c6	0.056785367
13	0x3c03f0fa	0.008053059
14	0x3c6d5762	0.014486166
15	0x3deeba1f	0.116565935
16	0x3ea566f7	0.32305118
17	0x3edbeefb	0.42955765
18	0x3dc7ffc3	0.097655796
19	0x3e226824	0.15860039
20	0xbd226dde	-0.03965556
21	0x3e3f7e45	0.18700512
22	0x3e04ad41	0.12956716
23	0x3e820ff3	0.25402793
24	0x3de74d2c	0.11294016
25	0x3cac3ede	0.021026071
26	0x3e997e57	0.29979202
27	0xbded053f	-0.11573266
28	0x3bc456cf	0.0059917937
29	0x3e8e3df9	0.27781656
30	0x3e3842f6	0.17994294
31	0x3e9a2c42	0.3011189
32	0x3de2cb81	0.110739715
33	0x3d35d1d1	0.04438955
34	0xbda0e1cb	-0.078555666
35	0x3e88d090	0.2672162
36	0x3e8cf48b	0.2753032
37	0x3e589d2c	0.21153706
38	0x3e983f29	0.29735687
39	0x3daa8e21	0.0832789
40	0xbc9c875d	-0.019107515
41	0xbd8a2995	-0.067462124
42	0x3cb89d7e	0.022536036
43	0x3d93acdb	0.07210704
44	0xbb326144	-0.002721862
45	0x3de168e3	0.11006334
46	0x3d881b63	0.066458486
47	0x3db3d088	0.087800086
48	0xbd128476	-0.035770856
49	0x3c9c4b13	0.019078767
50	0x3d60d901	0.05489445
51	0x3d767640	0.060171366
52	0x3c985b3c	0.018598191
53	0x3dca3eaa	0.098752335
54	0x3e27643b	0.16346829
55	0x3d99e197	0.07513731
56	0x3d598107	0.053101566
57	0x3d2b0e0e	0.04176145
58	0x3dd7d420	0.105385065
59	0x3d02b781	0.031913284
60	0x3dae02a7	0.084966
61	0x3d7cb54c	0.061696336
62	0x3e16a603	0.14711766
63	0x3e03672d	0.12832327
64	0xbe18e36f	-0.14930509
65	0x3d13da94	0.036097124
66	0x3d4334c8	0.047657758
67	0x3ca7f1bd	0.020501012
68	0x3e054c73	0.13017444
69	0xbdb2b56b	-0.08726009
70	0x3d9a5633	0.075359724
71	0xbcb521ee	-0.022110905
72	0x3dd86cd4	0.10567632
73	0x3e4e36e5	0.20138128
74	0x3e01449f	0.12623833
75	0xbdc16e4a	-0.09444864
76	0x3d019952	0.03164036
77	0x3de9438d	0.113898374
78	0xbe397321	-0.18110324
79	0xbba72c44	-0.0051017124
80	0xbe74b3f4	-0.23896772
81	0x3dcbbf8f	0.09948646
82	0xbd237daf	-0.039914783
83	0xbd043197	-0.032273855
84	0x3c96db96	0.018415254
85	0xbe296cfe	-0.16545483
86	0x3cc0161c	0.023448043
87	0xbe7ddad2	-0.24790505
88	0xba646809	-0.0008713012
89	0x3e553c54	0.20823795
90	0xbe3c79bc	-0.18405813
91	0xbb025323	-0.001988598
92	0xbe4343f2	-0.19068888
93	0xbe1ba2eb	-0.15198867
94	0xbe06730f	-0.13129829
95	0xbe6b32a8	-0.22968543
96	0x3cf9e2c6	0.030503642
97	0x3e6af7a6	0.22946033
98	0xbe881cd2	-0.26584488
99	0xbe4f0295	-0.20215829
100	0x3e100090	0.14062715
101	0x3c03971e	0.008031635
102	0xbe2312e2	-0.15925172
103	0x3d257de5	0.040403266
104	0x3c98739e	0.018609818
105	0xbdd0e640	-0.10200167
106	0xbd4b73d6	-0.049671017
107	0x3c9e1d74	0.019301154
108	0x3e394638	0.18093193
109	0xbe245683	-0.16048627
110	0xbcaa766f	-0.020808427
111	0x3cff5fbd	0.031173581
112	0xbc2ae682	-0.010430934
113	0xbc920d78	-0.017828688
114	0x3d84fe82	0.06493856
115	0x3bbf1f27	0.005832571
116	0x3d2ba916	0.0419093
117	0x3e20d5c2	0.15706542
118	0x3d1775c4	0.036977544
119	0xbdba6112	-0.09100546
120	0xbd6d324f	-0.057909306
121	0x3da46819	0.080276676
122	0x3dca0cb4	0.09865704
123	0x3e20c043	0.15698342
124	0x3ec604bc	0.38675487
125	0x3eeeb66a	0.46623546
126	0x3d898795	0.06715313
127	0x3dc7e529	0.09760506
128	0x3d7c2793	0.06156118
129	0x3e209421	0.15681507
130	0x3e6188af	0.22024797
131	0x3c3c7d98	0.011504553
132	0x3d7999fa	0.06093786
133	0x3e2130c6	0.15741262
134	0x3e0c274e	0.13686869
135	0xbcbd7adc	-0.023129873
136	0x3cf2f0c0	0.029655814
137	0x3d37d4a6	0.04488053
138	0x3cf0321e	0.029320773
139	0xbc3cb2b1	-0.011517213
140	0xbdccd4d8	-0.10001534
141	0xbcd95e17	-0.026534123
142	0x3e2c4770	0.16824126
143	0x3e4a7cd1	0.19774176
144	0x3e2598b8	0.16171539
145	0xbe0685f2	-0.13137034
146	0xbd39e3ed	-0.045383383
147	0x3dfe6794	0.124221
148	0x3e24411b	0.16040461
149	0x3e79e032	0.2440193
150	0x3d8a0807	0.06739812
151	0xbce47463	-0.027887529
152	0x3e0abe14	0.13549072
153	0x3da5eea6	0.08102159
154	0x3e537408	0.20649731
155	0x3ca655a2	0.020304505
156	0x3e52e814	0.20596343
157	0x3d1109c2	0.035409696
158	0x3db3af8f	0.087737195
159	0x3da77050	0.08175719

model.rnn.bias_hh_l1 f4 [160]
0	0x3d9224aa	0.07135899
1	0x3d584be9	0.05280677
2	0x3d931653	0.071819924
3	0x3e9c593c	0.3053683
4	0x3f0a72b5	0.5408128
5	0x3eae11fc	0.33998096
6	0xbd98eb8e	-0.074668035
7	0xbd9a5777	-0.07536214
8	0x3d683450	0.056690514
9	0x3e0b0737	0.13576971
10	0x3e1d214a	0.1534473
11	0xbc0013ff	-0.007817267
12	0x3da09f25	0.078428544
13	0x3d64f78f	0.055900153
14	0xbd804b36	-0.06264345
15	0x3d52dd63	0.051480662
16	0x3e21002b	0.1572272
17	0x3eaae1e4	0.33375466
18	0x3e83a234	0.2570969
19	0xbc3bd407	-0.0114641255
20	0x3dc773af	0.09738862
21	0x3e9c607c	0.30542362
22	0x3dbb6101	0.091493614
23	0x3e893a84	0.26802456
24	0xbbcb1724	-0.006197827
25	0x3dd01443	0.101601146
26	0x3eb3ff14	0.35155547
27	0x3d04c106	0.032410644
28	0x3e7a5e43	0.2445002
29	0x3e3281ec	0.17432374
30	0x3e1cb653	0.15303926
31	0x3d66c2ef	0.056338247
32	0x3ceb2da3	0.028708285
33	0x3c5f1a0a	0.013617048
34	0x3d862278	0.06549543
35	0x3ea31d8d	0.31858483
36	0x3dfa2b1d	0.122152545
37	0x3d5b3e80	0.0535264
38	0x3ea24db1	0.316999
39	0x3d20c2a0	0.03924811
40	0xbd5cddb2	-0.053922363
41	0x3ccc12ea	0.024911363
42	0x3e4a5bb5	0.19761546
43	0x3d8c7d1e	0.06859802
44	0x3c1ad513	0.009450215
45	0xbd79b8d0	-0.060967267
46	0xbd908db5	-0.070582785
47	0x3ca19231	0.01972303
48	0xbda48932	-0.080339804
49	0x3da03d43	0.07824185
50	0xbd1d9dcb	-0.03848056
51	0x3e10c8b9	0.1413907
52	0x3dd636fb	0.104597054
53	0xbd510df5	-0.0510387
54	0x3b470f41	0.0030374082
55	0xbddeb01a	-0.108734325
56	0x3d925e65	0.071469106
57	0x3d803832	0.062607184
58	0x38e8d420	0.000111021334
59	0x3c9ef86e	0.01940557
60	0x3b2bc7be	0.0026211585
61	0xbd0c52c0	-0.034258604
62	0x3c64980a	0.013952265
63	0xbda0edda	-0.078578666
64	0xbde9fc54	-0.11425081
65	0xbdad7002	-0.084686294
66	0x3d87ed22	0.06637026
67	0x3e134bc9	0.14384378
68	0x3e1f4402	0.15553287
69	0x3e371707	0.17879878
70	0x3d9ed3a5	0.07755212
71	0xbdf34319	-0.11878032
72	0xbe1fb023	-0.15594535
73	0x3dc05ec0	0.09393072
74	0xbd222fe8	-0.03959647
75	0xbd445bbb	-0.047939043
76	0x3d963dcf	0.07336008
77	0x3de5395f	0.11192583
78	0xbcd0270e	-0.025409248
79	0x3d9bf417	0.07614916
80	0xbe539a87	-0.20664416
81	0x3e44064a	0.19143024
82	0xbca32660	-0.01991576
83	0xbe2693ac	-0.1626727
84	0x3c59fb28	0.013304509
85	0xbded88b1	-0.115983374
86	0xbdc5536c	-0.09635052
87	0xbddfc8c5	-0.109269656
88	0x3d6e271d	0.05814277
89	0x3dedc510	0.11609852
90	0xbe5a52b8	-0.21320617
91	0x3d87d5ac	0.066325516
92	0xbe553347	-0.20820342
93	0xbe577770	-0.21041656
94	0xbd77baa4	-0.06048073
95	0xbe60700d	-0.21917744
96	0xbcfbe847	-0.030750407
97	0x3e28b315	0.16474564
98	0xbe4256c2	-0.18978408
99	0x3d82153a	0.06351705
100	0x3b80451d	0.003914489
101	0xbe44d79a	-0.1922287
102	0x3bb95339	0.005655673
103	0x3d6245eb	0.05524246
104	0x3cef2e2d	0.029196823
105	0xbd9f644f	-0.07782804
106	0x3d48b46c	0.04900019
107	0xbe1dcb4f	-0.15409587
108	0xbd22b2e6	-0.039721392
109	0xbe8e714d	-0.27820817
110	0xbe72e9bd	-0.23721977
111	0x3cfe7811	0.031063111
112	0x3dc6df85	0.09710602
113	0x3d5b45f7	0.05353352
114	0x3d9b5c43	0.07585957
115	0xbd6b396e	-0.057427816
116	0x3e12aa61	0.14322807
117	0xbcd9ac14	-0.026571311
118	0x3d0db88a	0.03459982
119	0x3d2cd451	0.04219467
120	0x3d3bd8b7	0.045860972
121	0x3e8a236d	0.26980153
122	0x3db7c5e1	0.08973289
123	0xbcdcb2c1	-0.026940705
124	0x3e1afa94	0.1513465
125	0x3e9eb13f	0.30994603
126	0x3e4f1953	0.20224504
127	0xbd4d156e	-0.050069265
128	0xbc1f5d78	-0.0097268745
129	0x3e028460	0.1274581
130	0x3e77be77	0.2419375
131	0xbd08a3fb	-0.03335951
132	0xbd1e3ed3	-0.038634133
133	0x3dbdcbdb	0.09267398
134	0xbcef0626	-0.029177736
135	0xbcd12e4a	-0.025534768
136	0x3e526327	0.20545636
137	0x3e19f031	0.15033032
138	0x3e92ffa0	0.2871065
139	0xbc703883	-0.014661911
140	0x3e0b0113	0.13574629
141	0xbd0794c2	-0.03310085
142	0x3ce64c6f	0.028112618
143	0xbd8abc7a	-0.0677423
144	0x3c25fcac	0.010131042
145	0x3d93ff8c	0.07226476
146	0x3e326c34	0.17424089
147	0x3e3bb3d6	0.1833032
148	0x3e3f3615	0.18672974
149	0x3dec13b1	0.11527193
150	0xbb092c05	-0.0020930779
151	0x3ced046a	0.028932769
152	0xbcc07736	-0.023494344
153	0x3d97f313	0.074194096
154	0x3d8c9590	0.06864464
155	0x3d611727	0.05495372
156	0xbb1ad8a4	-0.0023627663
157	0x3dd59f67	0.10430794
158	0x3ddb870f	0.1071912
159	0x3e4a4305	0.19752128
