entrega_final/AutogluonModels/ag-20250715_231710/models/PatchTST/W1/gluon_ts/prediction-net-state.pt (torch, 218620 bytes, 34 tensors)

model.patch_proj.weight f4 [32, 18]
0.10860886 0.0700379 0.1503576 0.09360859 -0.023434144 -0.10876611 0.0029070834 0.07982528
-0.049634133 0.07039885 -0.019893704 0.068250574 0.08042536 0.061002117 0.037665524 -0.015169286
0.009956112 -0.03633196 -0.016070265 -0.09892561 -0.056725256 0.012282013 -0.0063762176 0.009183786
0.15532771 -0.001725268 -0.037064373 0.09400224 0.055317093 0.065013774 0.0073332787 0.043957558
0.091898404 0.11618809 -0.014291339 -0.06503385 -0.009784184 -0.042963773 -0.06731052 0.065506704
0.090467736 0.07850998 0.12818865 0.1831825 0.15598011 0.16955912 -0.040652413 0.039042607
-0.066101186 0.04918623 0.07735854 -0.072457165 -0.0015972415 -0.041859873 -0.021963539 -0.015211198
-0.08507148 0.01427417 -0.14372332 0.017502228 -0.05272838 -0.059119813 -0.07017363 -0.03768976
0.065943554 -0.09186245 -0.004453365 -0.090415165 -0.13198684 -0.15702696 0.0013268433 0.026805447
0.02539479 -0.030419357 -0.043957487 -0.04714068 0.024857923 -0.112784944 -0.1600653 -0.10920681
-0.04081929 -0.060557995 -0.058816463 -0.0484972 -0.119415484 -0.018659562 0.025431132 0.056088313
-0.0001341953 -0.009280347 0.018735034 -0.004078495 0.081147775 0.056439504 0.0861858 -0.021666117
0.015188209 -0.0071044727 0.008726081 0.059037305 -0.08459316 -0.052452073 -0.1205015 -0.12756602
-0.04186255 -0.086726025 0.015716976 0.0087549435 0.061939206 0.029280411 0.078946054 0.027562177
0.027385928 0.08738239 -0.03768923 -0.093908295 -0.10853171 -0.04499358 -0.09066865 -0.13637932
-0.01648583 -0.037574105 -0.096609786 -0.07344966 -0.018522276 0.0076488946 0.009751931 0.033563104
0.026090708 -0.03503494 -0.14310257 -0.1267313 -0.03674315 0.0020920702 -0.07698599 0.034644034
0.025593912 0.06840392 0.087141894 0.14930351 -0.007957873 -0.021455668 0.016550377 0.06333104
0.0074232058 0.09175343 0.11065619 0.0020218866 -0.041093085 -0.009331761 0.047665767 0.05404519
0.04776637 -0.019761445 0.05670649 0.07225757 0.019401075 -0.034138218 0.065613344 0.006614502
0.0010368247 -0.08719233 -0.10188424 -0.13438568 -0.02796752 0.023520337 0.040286113 0.12443568
0.020446882 -0.043661814 0.004971284 -0.053697597 -0.01326861 -0.08391882 -0.007247735 -0.06988674
0.07069377 -0.00077105995 0.023831794 -0.003691577 -0.06436257 -0.031883944 -0.021363223 -0.0808514
-0.040404305 -0.008943653 0.030182958 0.058258742 -0.0012949973 -0.017794501 0.040082984 -0.010108648
0.03527715 -0.026885133 -0.034489855 -0.014564912 -0.015867949 -0.0136151835 0.01122742 -0.07746518
-0.10511516 -0.100459605 -0.07833529 2.224222e-06 0.11764648 0.05740866 0.047968563 -0.044377133
0.12865765 0.07078335 0.05744397 -0.023046542 -0.04446909 -0.050512385 -0.0026237422 -0.029367492
-0.12248939 -0.04937751 0.06505087 0.07373665 0.09022966 0.008794032 0.07007357 0.04412552
0.03765125 0.114608794 0.09674559 -0.03496916 0.038580175 0.006314316 -0.007735002 -0.02433235
0.020015301 0.052830286 0.08272407 0.08812216 0.10076945 0.06882689 0.06848937 -0.13414271
-0.09441915 0.031950507 -0.024623908 -0.025122134 0.016051363 0.080865756 -0.06189519 -0.05040311
-0.027312389 0.07752457 -0.0128624905 -0.025243772 -0.060697958 -0.03419818 0.040721532 -0.0862589
00000000: 526e de3d 0870 8f3d 58f7 193e dcb5 bf3d
00000010: f6f8 bfbc c4c0 debd c484 3e3b 707b a33d
00000020: 294d 4bbd 462d 903d 1ff8 a2bc f5c6 8b3d
00000030: 0db6 a43d 5bdd 793d 2a47 1a3d 9988 78bc
00000040: f61e 233c d2d0 14bd caa5 83bc 8399 cabd
00000050: be58 68bd 7f3a 493c 97ef d0bb 9777 163c
00000060: 3a0e 1f3e 6322 e2ba d0d0 17bd 3f84 c03d
00000070: 2d94 623d f125 853d 004c f03b d70c 343d
00000080: 3b35 bc3d 05f4 ed3d 3826 6abc 7830 85bd
00000090: d84d 20bc c8fa 2fbd 19da 89bd 6128 863d
000000a0: 2647 b93d d7c9 a03d e343 033e 3194 3b3e
000000b0: 40b9 1f3e e8a0 2d3e 2583 26bd 24eb 1f3d
000000c0: 0f60 87bd 8077 493d 276e 9e3d 6c64 94bd
000000d0: 885a d1ba 4275 2bbd e1ec b3bc 6338 79bc
000000e0: f539 aebd 35de 693c 352c 13be d560 8f3c
000000f0: b7f9 57bd 9e27 72bd 31b7 8fbd 9460 1abd
00000100: 6a0d 873d 6122 bcbd 89ed 91bb 962b b9bd
00000110: 8f27 07be adcb 20be 79e9 ad3a 1997 db3c
00000120: bc08 d03c 0432 f9bc c40c 34bd 9616 41bd
00000130: d8a2 cb3c cbfb e6bd 28e8 23be d2a7 dfbd
00000140: 2132 27bd a90b 78bd 88e9 70bd 00a5 46bd
00000150: 1b90 f4bd f0db 98bc f354 d03c dcbc 653d
00000160: c7b6 0cb9 990c 18bc 377a 993c e5a4 85bb
00000170: ce30 a63d 1c2d 673d 2e82 b03d 247d b1bc
00000180: f7d7 783c a3cc e8bb d6f7 0e3c 1ad1 713d
00000190: 2e3f adbd fcd7 56bd 7ec9 f6bd aba0 02be
000001a0: 1178 2bbd 6a9d b1bd e3c0 803c e570 0f3c
000001b0: f7b3 7d3d 79dd ef3c 78ae a13d 13ca e13c
000001c0: 7458 e03c 8af5 b23d 0660 1abd fe52 c0bd
000001d0: e045 debd 304b 38bd 7cb0 b9bd 05a7 0bbe
000001e0: 4b0d 87bc 4ee7 19bd 5adb c5bd c66c 96bd
000001f0: 07bc 97bc 94a3 fa3b 90c6 1f3c 7779 093d
00000200: 2ebc d53c cc80 0fbd 7b89 12be dac5 01be
00000210: fc7f 16bd 1d1b 093b d5aa 9dbd e7e6 0d3d
00000220: 53aa d13c 5b17 8c3d 7377 b23d 05e3 183e
00000230: bd61 02bc ccc3 afbc a894 873c b4b3 813d
00000240: 5d3e f33b 39e9 bb3d b69f e23d a181 043b
00000250: 3951 28bd 3ee4 18bc 2e3d 433d 7d5e 5d3d
00000260: aba6 433d c1e2 a1bc 1145 683d c7fb 933d
00000270: 01ef 9e3c 84d4 0bbd 4a60 863d 77be d83b
00000280: 10e6 873a e491 b2bd afa8 d0bd 669c 09be
00000290: 241c e5bc b9ad c03c 0d03 253d 22d8 fe3d
000002a0: 3880 a73c bbd6 32bd 27e6 a23b 03f2 5bbd
000002b0: 9664 59bc a1dd abbd 687e edbb c720 8fbd
000002c0: e5c7 903d f520 4aba e53a c33c 62ee 71bb
000002d0: 86d0 83bd bd98 02bd ed01 afbc 6b95 a5bd
000002e0: fc7e 25bd 6688 12bc 4042 f73c b8a0 6e3d
000002f0: e6bc a9ba c6c5 91bc 0e2e 243d be9e 25bc
00000300: c67e 103d 363e dcbc 3c45 0dbd aba1 6ebc
00000310: 80fd 81bc 3812 5fbc 36f3 373c 10a6 9ebd
00000320: 9e46 d7bd c4bd cdbd 416e a0bd d843 1536
00000330: a3f0 f03d 5825 6b3d af7a 443d ccc4 35bd
00000340: d5be 033e dcf6 903d 5e4a 6b3d 1acc bcbc
00000350: 3825 36bd 13e6 4ebd 17f3 2bbb 1894 f0bc
00000360: b8db fabd 1240 4abd 6439 853d 3e03 973d
00000370: 54ca b83d d814 103c bb82 8f3d f6bc 343d
00000380: 3238 1a3d 04b8 ea3d 8d22 c63d d23b 0fbd
00000390: 3f06 1e3d 52e8 ce3b e675 fdbb a354 c7bc
000003a0: 21f7 a33c 9264 583d 3d6b a93d 6479 b43d
000003b0: 3760 ce3d 1df5 8c3d 2844 8c3d b55c 09be
000003c0: d45e c1bd 89de 023d 14b8 c9bc efcc cdbc
000003d0: 267e 833c f29c a53d d085 7dbd 7e73 4ebd
000003e0: 3bbe dfbc 34c5 9e3d 32bd 52bc 07cc cebc
000003f0: 6c9e 78bd 6413 0cbd 9fcb 263d 82a8 b0bd

model.patch_proj.bias f4 [32]
0.0011939534 0.0024741385 -0.010893454 -0.0018559329 -0.011413143 0.0153249 0.02383166 -0.0020820368
-0.017754834 0.029295122 0.0032033413 0.016173275 0.0061559738 -0.01307899 0.004163002 0.016334219
0.010489646 0.0055105938 0.0010495721 -0.014224593 -0.0050158203 0.048128173 -0.036099695 -0.016427586
-0.028743781 -0.041794535 -0.004824243 -0.032112002 -0.033071663 -0.020147827 -0.024341963 -0.034260157
00000000: 6e7e 9c3a 2825 223b 757a 32bc c642 f3ba
00000010: 31fe 3abc 4a15 7b3c 9d3a c33c c872 08bb
00000020: 9672 91bc 53fc ef3c 26ef 513b d17d 843c
00000030: 0db8 c93b 4349 56bc cb69 883b 57cf 853c
00000040: c4dc 2b3c 3692 b43b cc91 893a 440e 69bc
00000050: c05b a4bb 0c22 453d 46dd 13bd 2593 86bc
00000060: 1478 ebbc bf30 2bbd af14 9ebb e087 03bd
00000070: 2776 07bd 0e0d a5bc cc68 c7bc 6154 0cbd

model.positional_encoding.weight f4 [12, 32]
0.0 0.0 0.0 0.0 0.0 0.0 0.0 0.0
0.0 0.0 0.0 0.0 0.0 0.0 0.0 0.0
1.0 1.0 1.0 1.0 1.0 1.0 1.0 1.0
1.0 1.0 1.0 1.0 1.0 1.0 1.0 1.0
0.84147096 0.53316844 0.3109836 0.17689219 0.099833414 0.056204498 0.031617507 0.017781857
0.009999833 0.0056233834 0.0031622723 0.0017782785 0.0009999998 0.0005623413 0.00031622776 0.00017782794
0.5403023 0.84600914 0.95041525 0.9842302 0.9950042 0.9984193 0.99950004 0.99984187
0.99995 0.9999842 0.999995 0.9999984 0.9999995 0.9999998 0.99999994 1.0
0.9092974 0.9021307 0.5911271 0.34820527 0.19866933 0.112231314 0.063203394 0.03555809
0.019998666 0.011246589 0.0063245133 0.0035565514 0.0019999987 0.0011246824 0.0006324555 0.00035565588
-0.41614684 0.43146282 0.8065784 0.9374183 0.9800666 0.9936821 0.9980007 0.9993676
0.9998 0.99993676 0.99998 0.9999937 0.999998 0.99999934 0.9999998 0.99999994
0.14112 0.9932532 0.8126489 0.50853616 0.29552022 0.1679033 0.09472609 0.05332308
0.029995501 0.016869439 0.009486691 0.005334813 0.0029999956 0.0016870232 0.0009486832 0.0005334838
-0.9899925 -0.11596614 0.5827536 0.86104065 0.9553365 0.9858035 0.99550337 0.9985773
0.99955004 0.9998577 0.999955 0.99998575 0.9999955 0.99999857 0.9999995 0.9999999
-0.7568025 0.77847177 0.95358074 0.652828 0.38941833 0.22304448 0.12615407 0.07107121
0.039989334 0.022491757 0.012648773 0.0071130577 0.0039999895 0.0022493633 0.0012649107 0.0007113117
-0.6536436 -0.62767965 0.30113748 0.7575062 0.921061 0.9748083 0.99201065 0.9974713
0.9992001 0.99974704 0.99992 0.9999747 0.999992 0.9999975 0.9999992 0.99999976
-0.9589243 0.3239352 0.99994653 0.77652997 0.47942555 0.27748054 0.15745589 0.08879686
0.04997917 0.028113361 0.01581073 0.00889128 0.0049999794 0.002811703 0.0015811381 0.0008891396
0.2836622 -0.94607925 -0.010342319 0.6300803 0.87758255 0.96073127 0.987526 0.99604976
0.99875027 0.99960476 0.999875 0.9999605 0.9999875 0.99999607 0.99999875 0.9999996
-0.2794155 -0.23036748 0.94714814 0.8757406 0.5646425 0.33103934 0.18860029 0.106494434
0.059964005 0.03373408 0.018972527 0.010669474 0.005999964 0.0033740415 0.0018973654 0.0010669675
0.96017027 -0.9731037 -0.32079646 0.482782 0.8253356 0.943617 0.98205394 0.9943133
0.99820054 0.99943084 0.99982 0.9999431 0.999982 0.99999434 0.9999982 0.9999994
0.6569866 -0.71372116 0.80042166 0.9473307 0.64421767 0.38355157 0.2195561 0.12415834
0.06994285 0.03935373 0.022134136 0.012447635 0.006999943 0.003936379 0.0022135926 0.0012447953
0.75390226 -0.7004299 -0.5994374 0.32025698 0.7648422 0.92351943 0.9755999 0.9922624
0.997551 0.9992253 0.999755 0.9999225 0.9999755 0.99999225 0.99999756 0.9999992
00000000: 0000 0000 0000 0000 0000 0000 0000 0000
00000010: 0000 0000 0000 0000 0000 0000 0000 0000
00000020: 0000 0000 0000 0000 0000 0000 0000 0000
00000030: 0000 0000 0000 0000 0000 0000 0000 0000
00000040: 0000 803f 0000 803f 0000 803f 0000 803f
00000050: 0000 803f 0000 803f 0000 803f 0000 803f
00000060: 0000 803f 0000 803f 0000 803f 0000 803f
00000070: 0000 803f 0000 803f 0000 803f 0000 803f
00000080: a46a 573f ba7d 083f 3e39 9f3e 3a23 353e
00000090: 7675 cc3d b036 663d 5c81 013d 42ab 913c
000000a0: 57d6 233c 5c44 b83b 203e 4f3b 2015 e93a
000000b0: 6d12 833a 166a 133a 5fcb a539 5377 3a39
000000c0: 4051 0a3f 0e94 583f 6a4e 733f 83f6 7b3f
000000d0: 98b8 7e3f 6898 7f3f 3cdf 7f3f a3f5 7f3f
000000e0: b9fc 7f3f f7fe 7f3f acff 7f3f e5ff 7f3f
000000f0: f8ff 7f3f fdff 7f3f ffff 7f3f 0000 803f
00000100: b7c7 683f 0af2 663f 1b54 173f f647 b23e
00000110: f96f 4b3e 88d9 e53d c870 813d 5ca5 113d
00000120: 3ed4 a33c 9d43 383c dd3d cf3b 0815 693b
00000130: 6912 033b 146a 933a 5fcb 253a 5377 ba39
00000140: 3311 d5be b2e8 dc3e ec7b 4e3f a5fa 6f3f
00000150: a5e5 7a3f f361 7e3f f97c 7f3f 8ed6 7f3f
00000160: e5f2 7f3f dbfb 7f3f b0fe 7f3f 96ff 7f3f
00000170: deff 7f3f f5ff 7f3f fdff 7f3f ffff 7f3f
00000180: c381 103e d745 7e3f c209 503f 6d2f 023f
00000190: 6d4e 973e d8ee 2b3e c1ff c13d 4d69 5a3d
000001a0: 20b9 f53c c731 8a3c 116e 1b3c a8cf ae3b
000001b0: 939b 443b 1b1f dd3a 0db1 783a 7ed9 0b3a
000001c0: 2670 7dbf a87f edbd 572f 153f 296d 5c3f
000001d0: ef90 743f 9e5d 7c3f 4fd9 7e3f c3a2 7f3f
000001e0: 83e2 7f3f adf6 7f3f 0dfd 7f3f 11ff 7f3f
000001f0: b5ff 7f3f e8ff 7f3f f8ff 7f3f feff 7f3f
00000200: cfbd 41bf ed49 473f de1d 743f bc1f 273f
00000210: d761 c73e c665 643e 882e 013e c88d 913d
00000220: dbcb 233d a240 b83c cd3c 4f3c a714 e93b
00000230: 5812 833b 0e6a 133b 5ccb a53a 5277 3a3a
00000240: 3055 27bf 9daf 20bf b12e 9a3e edeb 413f
00000250: a7ca 6b3f 098d 793f 69f4 7d3f 475a 7f3f
00000260: 94cb 7f3f 6cef 7f3f c2fa 7f3f 58fe 7f3f
00000270: 7aff 7f3f d6ff 7f3f f3ff 7f3f fcff 7f3f
00000280: 107c 75bf d6da a53e 7ffc 7f3f abca 463f
00000290: 4477 f53e ee11 8e3e 1e3c 213e 21db b53d
000002a0: f5b6 4c3d fe4d e63c 8185 813c bbac 113c
000002b0: ded6 a33b 8c44 383b 313e cf3a 2615 693a
000002c0: 2c3c 913e 4032 72bf d472 29bc f14c 213f
000002d0: 40a9 603f 7cf2 753f 81ce 7c3f 1efd 7e3f
000002e0: 19ae 7f3f 19e6 7f3f cff7 7f3f 69fd 7f3f
000002f0: 2eff 7f3f beff 7f3f ebff 7f3f f9ff 7f3f
00000300: 8c0f 8fbe 74e5 6bbe 4d78 723f 8930 603f
00000310: 698c 103f fd7d a93e 6f20 413e c119 da3d
00000320: d19c 753d bf2c 0a3d 466c 9b3c 04cf 2e3c
00000330: 599b c43b 061f 5d3b 05b1 f83a 7dd9 8b3a
00000340: b8cd 753f 531d 79bf 6f3f a4be 342f f73e
00000350: 3249 533f e290 713f e367 7b3f 518b 7e3f
00000360: 128a 7f3f b3da 7f3f 34f4 7f3f 45fc 7f3f
00000370: d2fe 7f3f a1ff 7f3f e2ff 7f3f f6ff 7f3f
00000380: 4630 283f 6eb6 36bf 6fe8 4c3f 4484 723f
00000390: 73eb 243f df60 c43e 50d3 603e ba46 fe3d
000003a0: 323e 8f3d 6031 213d a652 b53c 2af1 4b3c
000003b0: c75f e53b befc 803b ec11 113b 6628 a33a
000003c0: bdff 403f 604f 33bf bb74 19bf b9f8 a33e
000003d0: b3cc 433f c56b 6c3f eac0 793f e904 7e3f
000003e0: 815f 7f3f 3bcd 7f3f f2ef 7f3f ecfa 7f3f
000003f0: 65fe 7f3f 7eff 7f3f d7ff 7f3f f3ff 7f3f

model.encoder.layers.0.self_attn.in_proj_weight f4 [96, 32]
0.05011559 0.20967282 -0.07193018 0.08427841 -0.004876882 -0.060298163 0.13908051 0.00598541
0.042298563 -0.015904736 0.15361474 -0.07678417 -0.21394223 -0.003951211 -0.15526249 0.12327111
0.18801822 0.11738422 0.10481473 0.085431166 0.12565558 -0.1963096 -0.17219926 -0.19423693
0.02694997 -0.11388725 0.18605374 0.050874148 -0.02675442 -0.071094036 -0.21603407 -0.111246094
-0.047959257 0.0033692012 -0.045696855 0.115893014 -0.18109347 -0.19947915 -0.049461845 -0.2242099
0.15694262 0.2504619 0.13662949 0.16145594 0.11191457 -0.11519041 0.15948963 0.17733411
-0.13772957 0.12359083 -0.15475121 -0.17113413 0.005768248 0.0684945 0.02920134 0.039926928
-0.023168012 -0.14256889 0.008539398 0.19541909 0.18133149 -0.20536757 -0.14879927 0.03556814
0.20649248 0.06640872 -0.12828407 -0.16160412 -0.09185586 0.099795304 0.15308604 0.19048706
0.19002774 -0.1856439 -0.21082735 0.06382691 -0.2499471 -0.10430414 -0.121280275 -0.013563407
0.15938419 -0.18556817 -0.19666465 -0.0585651 0.21107574 -0.17789583 -0.11125949 -0.08133836
-0.03226745 0.10487175 0.051661823 0.03173984 0.1454948 -0.15088578 0.19591828 0.117847405
0.08673913 -0.13695814 0.12132706 0.068190426 0.1142749 -0.21525565 0.17595804 0.23697636
-0.04182943 0.06682892 -0.14758216 0.17799798 -0.2073817 0.007472964 0.11768757 0.09689607
0.1520378 0.15244722 0.0031790659 0.14513153 -0.21580559 0.14093633 -0.16173923 -0.07960519
-0.11625626 -0.12994477 0.06617061 -0.09159588 -0.16801202 0.1447379 0.02792179 0.15481155
0.1923509 0.19448543 -0.24149875 -0.18726245 -0.05681357 0.04201405 0.13011783 0.095814936
0.15702592 0.048817348 -0.13837177 -0.21971971 -0.08052015 0.015101655 -0.04815827 0.07455427
-0.03877306 -0.20572478 0.1256712 -0.04260566 0.0719153 -0.085411035 0.009860395 0.097347595
0.13618004 0.1872156 -0.19143851 -0.23587537 0.008419123 0.14614448 0.032940537 0.033395678
0.16678184 0.054990083 -0.08054342 0.12993324 0.0590429 -0.06416165 0.27523562 -0.21998234
-0.18475454 0.11983377 -0.22241198 -0.15478854 -0.08898388 -0.13129145 -0.10393905 0.21432139
-0.18671164 -0.07677569 -0.11570987 -0.13060491 0.14852995 -0.13313134 0.022111244 0.123127356
-0.07545711 -0.038627163 0.13954951 -0.12596858 -0.08947065 0.20941813 -0.11471653 0.09346162
-0.14372146 -0.09922494 -0.0767867 -0.14738007 -0.0083653815 -0.05675647 -0.06212968 0.1414207
0.014532219 0.03895892 0.23380838 -0.039859746 -0.14428785 0.10273631 -0.0054366207 -0.06340855
0.019933552 0.16120999 -0.11411147 -0.017168224 0.16693422 -0.19049855 0.046992086 -0.007236434
-0.020804016 -0.0056915446 0.011445534 -0.18962377 -0.123927124 -0.068033725 -0.0048316657 -0.18678936
0.0011921627 -0.18103144 -0.17419608 -0.16354641 -0.07053366 -0.04053079 -0.13220504 0.10478632
-0.114842676 -0.071987495 0.18504126 0.106104836 -0.071309954 -0.09377635 -0.11484692 0.051841073
0.17346637 -0.07892279 0.09696521 -0.11919107 0.22470933 0.009557631 -0.20938426 0.077530675
-0.052875232 -0.14703959 0.15057461 -0.08575602 0.11449228 -0.19489458 -0.061097275 0.15853332
00000000: 0146 4d3d 79b4 563e 2150 93bd 299a ac3d
00000010: 40ce 9fbb 35fb 76bd 1f6b 0e3e 4221 c43b
00000020: 4241 2d3d a64a 82bc 2f4d 1d3e 0541 9dbd
00000030: ac13 5bbe 2979 81bb 21fd 1ebe 9075 fc3d
00000040: d987 403e 2367 f03d 1ba9 d63d 89f6 ae3d
00000050: dbab 003e 6205 49be 0155 30be 0ce6 46be
00000060: 2fc6 dc3c b83d e9bd df84 3e3e 6961 503d
00000070: 162c dbbc c099 91bd 0938 5dbe fed4 e3bd
00000080: ed70 44bd d1cd 5c3b a02c 3bbd 5159 ed3d
00000090: 9170 39be 4344 4cbe 8198 4abd 4897 65be
000000a0: 91b5 203e 8b3c 803e 9ae8 0b3e b554 253e
000000b0: 7733 e53d f3e8 ebbd 4051 233e 1397 353e
000000c0: fb08 0dbe 301d fd3d 1a77 1ebe c93d 2fbe
000000d0: 9203 bd3b d846 8c3d a637 ef3c 6b8a 233d
000000e0: d8ca bdbc 94fd 11be d5e8 0b3c f11b 483e
000000f0: f6ae 393e e04b 52be d65e 18be e6af 113d
00000100: c472 533e 4c01 883d e65c 03be 8d7b 25be
00000110: ed1e bcbd 7b61 cc3d 96c2 1c3e 0a0f 433e
00000120: a296 423e 6f19 3ebe 20e3 57be afb7 823d
00000130: 22f2 7fbe 699d d5bd cb61 f8bd 0d39 5ebc
00000140: 9c35 233e 9505 3ebe 7562 49be f5e1 6fbd
00000150: 3d24 583e 532a 36be 04dc e3bd ba94 a6bd
00000160: e02a 04bd 00c7 d63d 599b 533d a201 023d
00000170: 97fc 143e cd81 1abe cd9e 483e fb59 f13d
00000180: 49a4 b13d c13e 0cbe 527a f83d 6ca7 8b3d
00000190: f508 ea3d fa6b 5cbe 582e 343e eea9 723e
000001a0: 5655 2bbd 9add 883d c71f 17be 1a45 363e
000001b0: de5b 54be c4df f43b 2e06 f13d 7271 c63d
000001c0: ccaf 1b3e 201b 1c3e e057 503b 5c9d 143e
000001d0: 24fc 5cbe 9d51 103e f89e 25be 0c08 a3bd
000001e0: c317 eebd 3e10 05be 7584 873d 9f96 bbbd
000001f0: 580b 2cbe 2c36 143e 3dbc e43c eb86 1e3e
00000200: a2f7 443e 3027 473e 734b 77be bac1 3fbe
00000210: 59b5 68bd ed16 2c3d 9c3d 053e 9f3a c43d
00000220: 67cb 203e b3f4 473d 54b1 0dbe 34fe 60be
00000230: c0e7 a4bd ef6c 773c 9b41 45bd e9af 983d
00000240: 80d0 1ebd 84a9 52be f3af 003e 4683 2ebd
00000250: 5448 933d fbeb aebd 7f8d 213c 2d5e c73d
00000260: c872 0b3e 72b5 3f3e 7508 44be 5089 71be
00000270: 5cf0 093c e6a6 153e a8ec 063d e8c9 083d
00000280: dcc8 2a3e 483d 613d f3f3 a4bd 380d 053e
00000290: f8d6 713d 2f67 83bd afeb 8c3e 0d43 61be
000002a0: 4b30 3dbe 686b f53d f7bf 63be e380 1ebe
000002b0: 2e3d b6bd 4471 06be ffdd d4bd 1177 5b3e
000002c0: 5631 3fbe 933c 9dbd 4cf9 ecbd 4bbd 05be
000002d0: 3c18 183e 9553 08be a422 b53c 322a fc3d
000002e0: 4289 9abd 8437 1ebd 11e6 0e3e e8fd 00be
000002f0: 633c b7bd b571 563e 80f0 eabd ce68 bf3d
00000300: b82b 13be 7236 cbbd 5842 9dbd cdea 16be
00000310: f40e 09bc 7979 68bd b17b 7ebd 97d0 103e
00000320: 8b18 6e3c 6393 1f3d 776b 6f3e f943 23bd
00000330: 32c0 13be 6a67 d23d ae25 b2bb 58dc 81bd
00000340: b04b a33c 3b14 253e 46b3 e9bd 60a4 8cbc
00000350: cef0 2a3e 0d12 43be c67a 403d 9c1f edbb
00000360: 2f6d aabc 2380 babb 0d86 3b3c bc2c 42be
00000370: 81cd fdbd 4455 8bbd f352 9ebb b645 3fbe
00000380: 5842 9c3a 4e60 39be 7560 32be b678 27be
00000390: f473 90bd 9d03 26bd c260 07be 369a d63d
000003a0: a332 ebbd 2e6e 93bd 757b 3d3e 7e4d d93d
000003b0: f40a 92bd d10d c0bd dd34 ebbd 4e57 543d
000003c0: 2ba1 313e 46a2 a1bd b295 c63d 731a f4bd
000003d0: 341a 663e 9c97 1c3c d468 56be 67c8 9e3d
000003e0: b393 58bd 8c91 16be 3b30 1a3e daa0 afbd
000003f0: ee7a ea3d 7292 47be 2341 7abd 8f56 223e

model.encoder.layers.0.self_attn.in_proj_bias f4 [96]
-0.03097342 -0.0034238626 0.017577697 0.0046806238 -0.010457814 -0.017837882 0.0060496684 -0.0025100077
0.038466156 -0.025297321 -0.062290948 -0.03820051 -0.03437145 0.0063432422 -0.04593476 -0.022661043
-0.007955874 -0.042526998 0.037282124 0.014150518 -0.02314055 -0.034769602 -0.017436486 -0.041791458
0.014478665 0.0009047223 0.009340882 0.013977538 0.00034273433 -0.029809488 -0.059090663 0.021720327
7.634754e-05 5.701661e-05 -2.7025913e-05 5.4475408e-05 -0.00014228583 -0.00023293338 0.00018779187 2.6251475e-05
-1.3505223e-05 -6.0505266e-05 8.991477e-05 -0.00015428501 -6.6636836e-05 -5.1578554e-05 -0.00032481743 -4.2750467e-05
0.00017353508 0.00011499194 0.00023087408 0.00013869395 0.00028300338 -0.000121166435 -3.8378726e-05 -2.1216469e-05
-2.18012e-05 6.1091494e-05 0.00018771978 -0.000721715 -0.0001894435 0.00072738534 4.7563513e-05 0.00016763576
-0.012255465 -0.020544467 -0.009767076 0.02401264 0.0029010281 0.010097662 -0.008170901 0.007256015
-0.005570091 -0.00036959798 -0.011798521 0.019868845 -0.0037960438 0.008317715 0.013462941 0.00873958
0.015599 -0.010803194 -0.0042033223 -0.0052103857 -0.010351069 0.00022745546 0.012042757 -0.0042955796
-0.006112725 -0.013642807 -0.0013801752 0.021228373 -0.0044492576 0.006209203 -0.009867633 0.00571334
00000000: f8bb fdbc e262 60bb 1aff 8f3c eb5f 993b
00000010: 4057 2bbc c020 92bc 4c3c c63b f17e 24bb
00000020: b08e 1d3d 543c cfbc cb24 7fbd 2378 1cbd
00000030: 14c9 0cbd f9da cf3b 1626 3cbd a7a3 b9bc
00000040: 5b59 02bc ca30 2ebd 24b5 183d 93d7 673c
00000050: 4091 bdbc 926a 0ebd f6d6 8ebc 852d 2bbd
00000060: ec37 6d3c e32a 6d3a 800a 193c 0b02 653c
00000070: 06b1 b339 0733 f4bc 0d09 72bd d4ee b13c
00000080: c61c a038 1e25 6f38 b5b5 e2b7 867c 6438
00000090: 9032 15b9 943f 74b9 ffe9 4439 9d36 dc37
000000a0: 7e94 62b7 09c7 7db8 a090 bc38 91c7 21b9
000000b0: 61bf 8bb8 0d56 58b8 424c aab9 f74e 33b8
000000c0: f8f6 3539 d427 f138 ca16 7239 606e 1139
000000d0: 1260 9439 bc1a feb8 d8f8 20b8 05fa b1b7
000000e0: b8e1 b6b7 3f1e 8038 a5d6 4439 7931 3dba
000000f0: 5aa5 46b9 01ae 3e3a ef7e 4738 62c7 2f39
00000100: 25cb 48bc df4c a8bc 1606 20bc 28b6 c43c
00000110: 2d1f 3e3b aa70 253c 3edf 05bc dec3 ed3b
00000120: 4f85 b6bb 9ac6 c1b9 954e 41bc fdc3 a23c
00000130: 0cc7 78bb 0647 083c ab93 5c3c 7530 0f3c
00000140: f392 7f3c e1ff 30bc 06bc 89bb e2bb aabb
00000150: 8897 29bc 1c81 6e39 fc4e 453c efc1 8cbb
00000160: 414d c8bb 1486 5fbc ffe6 b4ba 20e7 ad3c
00000170: 14cb 91bb 9276 cb3b daab 21bc f836 bb3b

model.encoder.layers.0.self_attn.out_proj.weight f4 [32, 32]
-0.06668674 -0.17387734 -0.0010881397 0.13177985 -0.16508733 0.11431378 -0.040328637 0.013182272
-0.024645878 0.11169874 0.1480897 0.086218774 -0.1327169 -0.064321704 0.14686607 -0.0672032
-0.10207428 -0.0555281 -0.116746224 0.054316062 -0.16463335 -0.010917168 0.1403925 -0.027335243
-0.14393649 -0.053819325 0.048051395 -0.0833356 -0.027544573 -0.049376573 -0.013281361 -0.028889716
-0.01996471 0.16427003 -0.14346574 -0.056817543 -0.060957063 0.014222981 0.09361761 0.19010812
-0.19518228 0.0059019905 -0.17725721 0.016600752 0.015430261 -0.11416498 -0.052644063 -0.035808746
-0.02987619 -0.002120056 0.05925604 0.047391213 0.13287777 -0.12030395 0.1586775 0.1608649
-0.02961377 -0.025208918 0.12803803 0.14610629 -0.08880154 0.022861049 0.05159845 0.055148497
0.107336454 -0.00086176704 0.025382299 -0.0016762691 -0.028925955 0.062712155 0.054466177 -0.1033949
-0.08632277 0.06720909 -0.088257246 0.0035698959 0.05366501 -0.13578033 -0.11255201 -0.1476357
-0.15044686 0.07604648 0.13270825 -0.13074836 0.032184754 0.021619592 0.11902295 0.05084932
-0.02672289 -0.06042677 -0.037465706 0.11173879 -0.071942024 -0.0535504 -0.06858668 0.12413315
-0.1664236 -0.08750315 -0.042343125 -0.15939994 0.029349701 -0.008590353 0.05429415 -0.062274333
0.029886294 -0.071697794 0.020607466 -0.019868314 0.05318055 0.0584166 0.0051878258 -0.009162925
0.003964517 0.07740553 -0.0496996 -0.11052378 -0.15179643 0.0921423 0.055826653 -0.12084388
0.02040423 0.07215865 -0.030575633 -0.14136085 -0.066400744 0.003915955 0.02725386 0.06336652
-0.055347197 -0.13709618 -0.0010432183 0.16450906 0.05199257 0.0076238653 -0.0029174937 0.006164419
-0.16788362 0.037639942 0.05616873 0.14109857 -0.05547279 -0.105306044 0.070039816 0.15340619
-0.041507956 0.14779513 -0.008005856 0.033240274 -0.1710787 0.01916961 0.1298808 -0.107514605
-0.05528402 0.12145668 -0.026486013 -0.0025046458 0.04982297 -0.07653813 -0.0061154375 0.13440228
-0.04303607 0.090144716 -0.13713841 -0.086329214 -0.0030197722 0.067019254 0.11523862 0.114469305
0.018092507 -0.12693585 -0.13556622 0.0672078 -0.038297933 -0.08735245 0.015848363 0.17268842
-0.16088298 0.08691654 -0.12977596 -0.04932991 -0.11782822 -0.12641937 0.045990005 -0.16357686
0.028238479 0.123286664 0.102022626 0.11288904 0.069041476 -0.10480029 0.10395836 0.033980876
0.04442225 -0.075158864 -0.06264559 0.06582586 0.030237857 -0.11864526 -0.17331591 -0.16080463
-0.1455058 0.04606726 0.12698884 -0.01313217 0.031098241 -0.13740368 0.069293015 0.036963303
0.108208634 -0.15226465 0.08874921 0.09473429 0.13130675 0.042588323 -0.13692015 -0.12537287
-0.1643278 0.055471323 0.08899481 -0.047704738 -0.042007476 0.004786037 0.16212904 -0.1278079
-0.032699473 0.13866407 -0.04615546 0.120108165 -0.14739463 -0.07142648 0.11212304 0.038554408
0.18113522 -0.018267391 -0.16204129 -0.13814607 0.04751984 0.05150941 0.15350324 0.052509405
-0.09284019 0.12279315 -0.026684038 -0.00022374502 0.07962954 -0.018851765 -0.07845491 0.1280435
0.12078107 0.11996933 0.09247664 0.055900205 0.10791855 -0.09643544 0.12292177 0.087706454
00000000: 0f93 88bd e70c 32be e99f 8eba 4cf1 063e
00000010: a70c 29be 581d ea3d a42f 25bd 75fa 573c
00000020: 27e6 c9bc 4fc2 e43d d4a4 173e 7893 b03d
00000030: f0e6 07be 19bb 83bd 0f64 163e d5a1 89bd
00000040: 520c d1bd 6f71 63bd a518 efbd 857a 5e3d
00000050: a595 28be ecdd 32bc 0dc3 0f3e 29ee dfbc
00000060: 1664 13be a771 5cbd 8ad1 443d dbab aabd
00000070: 28a5 e1bc 173f 4abd 119a 59bc 20aa ecbc
00000080: 088d a3bc 6736 283e afe8 12be 83b9 68bd
00000090: 1dae 79bd 8207 693c 97ba bf3d b4ab 423e
000000a0: dddd 47be 7c65 c13b ea82 35be 4dfe 873c
000000b0: 35cf 7c3c 54cf e9bd 4da1 57bd 31ac 12bd
000000c0: e9be f4bc a3f0 0abb 76b6 723d 4a1d 423d
000000d0: 1c11 083e eb61 f6bd 5b7c 223e c5b9 243e
000000e0: 9498 f2bc ef82 cebc 671c 033e e39c 153e
000000f0: 95dd b5bd 1847 bb3c e558 533d 64e3 613d
00000100: 37d3 db3d 35e8 61ba 8aee cf3c 42b6 dbba
00000110: 20f6 ecbc 3b6f 803d ed17 5f3d b5c0 d3bd
00000120: fec9 b0bd eba4 893d 37c0 b4bd eaf4 693b
00000130: d7cf 5b3d 000a 0bbe ab81 e6bd d02d 17be
00000140: be0e 1abe 42be 9b3d ace4 073e e6e2 05be
00000150: 29d4 033d 921b b13c 4ec2 f33d 6047 503d
00000160: f6e9 dabc 1082 77bd a475 19bd 4fd7 e43d
00000170: 5756 93bd aa57 5bbd 2c77 8cbd 8539 fe3d
00000180: f36a 2abe da34 b3bd fc6f 2dbd bd39 23be
00000190: c96e f03c 8dbe 0cbc 8b63 5e3d 5f13 7fbd
000001a0: 1ad4 f43c 4bd6 92bd fdd0 a83c e0c2 a2bc
000001b0: d9d3 593d 3f46 6f3d a3fe a93b 1820 16bc
000001c0: c7e8 813b ca86 9e3d cf91 4bbd 4b5a e2bd
000001d0: 8670 1bbe 1ab5 bc3d 7daa 643d ff7c f7bd
000001e0: c626 a73c eac7 933d c079 fabc e6c0 10be
000001f0: 1dfd 87bd 6951 803b 7d43 df3c 4ec6 813d
00000200: beb3 62bd f162 0cbe 99bc 88ba 1075 283e
00000210: 29f6 543d 9ed1 f93b 6c33 3fbb e5fe c93b
00000220: afe9 2bbe 572c 1a3d 2f11 663d 257c 103e
00000230: 7037 63bd b2aa d7bd 0971 8f3d 8316 1d3e
00000240: 3f04 2abd 9b57 173e fe2a 03bc f426 083d
00000250: 412f 2fbe 9609 9d3c 79ff 043e 9e30 dcbd
00000260: 7f71 62bd 48be f83d 32f9 d8bc fc24 24bb
00000270: 2c13 4c3d 06c0 9cbd 0264 c8bb c0a0 093e
00000280: 9746 30bd cb9d b83d 036e 0cbe 5fcd b0bd
00000290: 5fe7 45bb 6441 893d 3a02 ec3d e26e ea3d
000002a0: bd36 943c 79fb 01be dfd1 0abe 3ea4 893d
000002b0: 4bde 1cbd d7e5 b2bd 6dd4 813c 3cd5 303e
000002c0: 82be 24be 4d01 b23d fde3 04be 290e 4abd
000002d0: ec4f f1bd 1474 01be 0460 3c3d b180 27be
000002e0: 6254 e73c b87d fc3d 3df1 d03d 5e32 e73d
000002f0: 9e65 8d3d 89a1 d6bd 1fe8 d43d 882f 0b3d
00000300: 1bf4 353d e4ec 99bd 554c 80bd b5cf 863d
00000310: 62b5 f73c 49fc f2bd ba79 31be f8a9 24be
00000320: 79ff 14be 06b1 3c3d 5d09 023e 5028 57bc
00000330: bdc1 fe3c 8db3 0cbe 7fe9 8d3d d566 173d
00000340: 7d9c dd3d 44eb 1bbe 25c2 b53d 0d04 c23d
00000350: 4775 063e 1871 2e3d cc34 0cbe bf61 00be
00000360: 8c45 28be e635 633d e942 b63d 0b66 43bd
00000370: 0810 2cbd 30d4 9c3b 2805 263e 13e0 02be
00000380: e2ef 05bd f4fd 0d3e 820d 3dbd 45fb f53d
00000390: 9eee 16be 0c48 92bd c4a0 e53d 3aeb 1d3d
000003a0: 837b 393e 7fa5 95bc 27ee 25be 2a76 0dbe
000003b0: 2aa4 423d 88fb 523d f42f 1d3e 1a14 573d
000003c0: ff22 bebd fa7a fb3d 7c98 dabc 199d 6ab9
000003d0: d014 a33d 046f 9abc f8ac a0bd d61d 033e
000003e0: 115c f73d 7bb2 f53d 6564 bd3d 9df7 643d
000003f0: 6704 dd3d f27f c5bd 69be fb3d 719f b33d

model.encoder.layers.0.self_attn.out_proj.bias f4 [32]
0.012557377 0.007242097 -0.011167518 -0.0053004213 -0.02360491 0.015505569 0.002607209 -0.0045225476
-0.011403683 0.007836975 -0.000112015216 0.0088762175 -0.007860981 -0.0035260872 0.0040292623 -0.009638564
0.00593231 -0.009744196 0.013059896 -0.0040020375 -0.002711464 0.022030108 -0.017259024 -0.008052651
-0.013205354 -0.009165431 -0.013887586 -0.028854797 0.012098991 -0.025721742 -0.00047682127 -0.00044816296
00000000: 75bd 4d3c 1d4f ed3b f7f7 36bc 28af adbb
00000010: 165f c1bc 120b 7e3c b5dd 2a3b e131 94bb
00000020: 83d6 3abc a866 003c b6e9 eab8 8e6d 113c
00000030: 58cb 00bc ed15 67bb e707 843b 11eb 1dbc
00000040: d363 c23b 1fa6 1fbc 2df9 553c 8623 83bb
00000050: d1b2 31bb 7c78 b43c cc62 8dbc 44ef 03bc
00000060: 455b 58bc 9b2a 16bc c288 63bc e560 ecbc
00000070: d93a 463c 67b6 d2bc defd f9b9 6af7 eab9

model.encoder.layers.0.linear1.weight f4 [128, 32]
0.14463806 0.17238319 -0.043427236 0.12946911 -0.15578683 -0.18693446 -0.10889072 0.12885831
0.06538393 -0.06886356 0.20157854 0.023691943 0.008359959 0.13016398 0.043516558 -0.042688616
0.08599455 0.10664095 -0.08078498 -0.022573076 -0.06520218 -0.12077293 0.06628859 0.035081007
-0.025372345 0.13598803 -0.14046784 0.09428671 -0.061197937 -0.033994325 0.06876597 -0.15620326
-0.15703276 -0.03978054 0.06665761 -0.045906797 -0.22124784 0.22919124 0.1568311 -0.22896081
-0.13602237 0.27495816 0.020694692 0.0353264 0.06538994 0.014263444 0.11394896 0.31976828
0.02974852 -0.021764003 0.16945833 -0.007822558 -0.111304425 0.079921246 0.072562404 -0.011713928
-0.26947525 -0.039684363 -0.09857674 -0.012661978 -0.21538077 -0.084983215 -0.2389701 0.13062848
0.037843443 0.106476836 -0.07392039 -0.009039032 -0.106690764 -0.0016590996 0.13357249 0.09962459
0.106312744 0.085652195 0.09464807 -0.029103301 -0.0677297 0.12228306 -0.04937284 0.034007516
-0.04910837 0.13157038 -0.08224181 0.061684765 0.099977404 -0.025301242 -0.0046075704 0.06950456
-0.07290034 0.063131295 -0.041446246 -0.009800671 0.11299447 -0.09778978 0.08639144 -0.06723094
0.039870188 -0.013436421 -0.017674474 -0.05685879 -0.18134388 -0.15512428 -0.1032587 0.08823765
0.1795042 0.113532566 0.074483864 0.12024054 0.07604568 0.124929376 -0.108264804 0.19993824
-0.01843032 -0.081948616 0.14471881 0.13621469 -0.0020233986 -0.027763493 0.118980415 0.13960673
0.10997818 0.08937575 -0.10755956 0.047309052 0.061608996 -0.030617056 -0.15584688 0.042075016
-0.052673265 0.082062334 -0.06354591 -0.021902384 0.13813278 -0.03341053 0.081710555 0.0058895955
0.18065311 0.087000065 0.16185892 0.12860693 0.14732161 0.04888141 -0.06907833 -0.11797772
0.0058183903 0.102911256 0.1804919 -0.12505338 -0.14770998 0.044733144 -0.0018015198 0.064546265
-0.1523344 -0.18374546 0.09716657 -0.029674696 0.049157478 0.02409858 0.053656332 0.035383843
0.05461206 0.08720615 0.038768258 -0.07004573 -0.10005275 -0.13174677 0.11934173 -0.1021988
0.0018798003 0.051816203 -0.06104795 0.02767559 -0.0774125 -0.089819044 0.18550706 0.07887734
0.085071705 -0.043545283 -0.04653737 0.0059924987 0.008187279 0.07250563 -0.13281575 0.06494278
-0.017128123 0.1107673 0.106913015 -0.18371065 0.15135613 -0.14331378 0.11988563 0.09430929
-0.049073286 -0.07410925 0.17899752 -0.20450445 -0.15511088 -0.13776149 -0.07867889 -0.13271584
-0.13505124 -0.11273292 -0.12383747 -0.15485959 -0.04829355 0.060962927 0.012773468 0.051675126
0.17118818 -0.18262976 0.13739102 -0.00043617073 0.056807756 -0.01444491 0.061930794 -0.09842634
0.013374069 -0.13411166 -0.12853986 -0.010778564 -0.036984883 -0.16660133 0.020680439 0.066210546
0.22436008 -0.113667645 -0.08085395 -0.061322838 -0.082981646 0.19449261 -0.016270418 -0.11576902
0.10836336 -0.047264423 0.0032986042 0.16491175 -0.11288162 0.15300132 0.1586581 -0.06241157
-0.07990276 -0.20888172 -0.05536606 0.13217846 0.03860838 -0.17806871 0.15439709 -0.18529172
0.14890793 0.010350743 0.10818426 -0.01955907 0.08261042 -0.0075384015 0.14700006 -0.08181205
00000000: 001c 143e 3885 303e c2e0 31bd 8d93 043e
00000010: 9586 1fbe bf6b 3fbe 1902 dfbd 6ff3 033e
00000020: 03e8 853d 5708 8dbd 9b6a 4e3e 9b15 c23c
00000030: 36f8 083c b549 053e 6b3e 323d 42da 2ebd
00000040: e91d b03d 9266 da3d 9872 a5bd 2ceb b8bc
00000050: b888 85bd cc57 f7bd 50c2 873d 1ab1 0f3d
00000060: aad9 cfbc 7240 0b3e cdd6 0fbe 6419 c13d
00000070: b0aa 7abd a23d 0bbd 2cd5 8c3d bff3 1fbe
00000080: 32cd 20be ebf0 22bd c983 883d c408 3cbd
00000090: cb8e 62be 1cb1 6a3e 5598 203e b474 6abe
000000a0: 7349 0bbe 51c7 8c3e ea87 a93c 6ab2 103d
000000b0: 29eb 853d 38b1 693c 135e e93d abb8 a33e
000000c0: 2bb3 f33c 6c4a b2bc 7c86 2d3e 302a 00bc
000000d0: 93f3 e3bd c0ad a33d 999b 943d c6eb 3fbc
000000e0: a9f8 89be 128c 22bd 9ae2 c9bd 2f74 4fbc
000000f0: c78c 5cbe ae0b aebd 94b4 74be 79c3 053e
00000100: ba01 1b3d 8710 da3d 9363 97bd 7318 14bc
00000110: b080 dabd 2576 d9ba 3ac7 083e fa07 cc3d
00000120: 7fba d93d 6b6a af3d d9d6 c13d 0c6a eebc
00000130: deb5 8abd 8a6f fa3d 2d3b 4abd 774b 0b3d
00000140: dc25 49bd 63ba 063e 656e a8bd 2aa9 7c3d
00000150: f4c0 cc3d 8d44 cfbc 1afb 96bb 6858 8e3d
00000160: c64c 95bd fb4a 813d 8ac3 29bd fe92 20bc
00000170: a569 e73d 0246 c8bd ffed b03d 60b0 89bd
00000180: ec4e 233d 6f24 5cbc 0fca 90bc c3e4 68bd
00000190: 36b2 39be e6d8 1ebe 4c79 d3bd f1b5 b43d
000001a0: f3cf 373e c383 e83d ff8a 983d ac40 f63d
000001b0: d6bd 9b3d f9da ff3d f0b9 ddbd 9cbc 4c3e
000001c0: 2ffb 96bc add4 a7bd 2b31 143e dd7b 0b3e
000001d0: ff9a 04bb 4470 e3bc 01ac f33d 11f5 0e3e
000001e0: 3d3c e13d a20a b73d 3048 dcbd 23c7 413d
000001f0: b759 7c3d 9fd0 fabc 5396 1fbe da56 2c3d
00000200: ecbf 57bd 4c10 a83d 5c24 82bd a16c b3bc
00000210: ae72 0d3e 7bd9 08bd dd57 a73d 82fd c03b
00000220: 21fd 383e 172d b23d 58be 253e 89b1 033e
00000230: 7adb 163e e037 483d f178 8dbd 4e9e f1bd
00000240: 32a8 be3b 23c3 d23d ded2 383e fe0d 00be
00000250: 4941 17be 1a3a 373d f920 ecba d530 843d
00000260: 8dfd 1bbe c527 3cbe 44ff c63d 5918 f3bc
00000270: 5a59 493d 636a c53c bec6 5b3d a6ee 103d
00000280: e5b0 5f3d 2399 b23d 77cb 1e3d 2374 8fbd
00000290: 75e8 ccbd a0e8 06be 7069 f43d 9b4d d1bd
000002a0: a263 f63a 3a3d 543d 6a0d 7abd ebb7 e23c
000002b0: 728a 9ebd 0cf3 b7bd 90f5 3d3e 718a a13d
000002c0: 133a ae3d 8a5c 32bd f89d 3ebd b95c c43b
000002d0: f023 063c d57d 943d da00 08be b800 853d
000002e0: 4750 8cbc f7d9 e23d 36f5 da3d a51e 3cbe
000002f0: 1afd 1a3e d9c0 12be 9986 f53d 3b25 c13d
00000300: 1201 49bd 97c6 97bd 204b 373e 9d69 51be
00000310: 63d5 1ebe 5911 0dbe 6622 a1bd a9e6 07be
00000320: df4a 0abe 84e0 e6bd 809e fdbd 8393 1ebe
00000330: 75cf 45bd 43b4 793d cf47 513c 4ca9 533d
00000340: f44b 2f3e 4c03 3bbe 3bb0 0c3e d8ad e4b9
00000350: 40af 683d 58aa 6cbc 25ab 7d3d c093 c9bd
00000360: e91e 5b3c 9154 09be f49f 03be 9398 30bc
00000370: 767d 17bd 8a99 2abe 066a a93c 6599 873d
00000380: a6be 653e 95ca e8bd c196 a5bd a82d 7bbd
00000390: 48f2 a9bd 1229 473e 8a49 85bc 4f18 edbd
000003a0: 9ced dd3d 5798 41bd 652d 583b a0de 283e
000003b0: 7b2e e7bd 61ac 1c3e 4577 223e 46a3 7fbd
000003c0: 0fa4 a3bd 17e5 55be 86c7 62bd ca59 073e
000003d0: d223 1e3d a557 36be 451a 1e3e 1dbd 3dbe
000003e0: 527b 183e 2a96 293c b68f dd3d 583a a0bc
000003f0: a72f a93d b204 f7bb 2f87 163e 138d a7bd

model.encoder.layers.0.linear1.bias f4 [128]
0.11317806 0.12017783 -0.09999765 -0.026818234 -0.06849408 0.14962079 0.045000393 -0.072950654
0.08294809 -0.13584416 0.12752426 -0.008036783 -0.09800562 0.043944452 -0.18816417 0.0723698
0.012006883 0.024843525 0.025120122 -0.09283382 0.16870798 -0.038309954 0.044960678 0.094999455
0.069950975 -0.15861818 -0.057267174 -0.16626292 -0.045240667 -0.092938684 0.13795783 0.064102784
0.11797774 0.026580347 -0.18237035 0.06939942 -0.10567258 0.16034403 0.11826105 -0.037918165
-0.10445569 0.07819096 -0.11887092 0.15393819 -0.12291153 -0.12454552 -0.0865963 -0.11045554
0.06592977 0.016173683 -0.015565676 -0.115368545 0.100881025 -0.07316618 -0.023834031 -0.023554403
-0.022868453 0.11781909 -0.0057463767 -0.092381015 -0.12701944 0.05769445 -0.009426234 0.089311294
0.15039733 0.046760105 -0.12827684 -0.1407298 0.14781396 0.072865166 0.11653938 -0.15446135
-0.015971666 0.050228603 -0.13012034 0.00023569929 -0.058502052 -0.020083662 -0.098126225 0.13155158
-0.07550514 -0.13375406 0.13274771 -0.15492819 -0.0048304833 0.16994575 0.068471916 0.0411767
0.13889927 0.06748509 -0.14960957 -0.15991189 0.03230132 -0.107298434 -0.053569 0.021031354
-0.10058018 -0.10605413 0.11655527 -0.05769033 -0.16562805 0.076489925 -0.08396388 -0.16869111
-0.07881829 0.13221858 0.013585116 0.028882008 0.020335674 -0.12574098 0.15461725 0.108995706
-0.045004427 -0.18877646 0.087752 -0.07645608 0.093363285 -0.10647581 0.0435167 -0.08100905
0.13842225 0.02559379 0.045080367 -0.13955173 0.1327022 -0.03875164 -0.15032044 0.1337177
00000000: e6c9 e73d cb1f f63d 91cb ccbd eab1 dbbc
00000010: a046 8cbd 3136 193e 5552 383d 2767 95bd
00000020: b0e0 a93d bb1a 0bbe b895 023e b6ac 03bc
00000030: 2cb7 c8bd 19ff 333d 1cae 40be 9e36 943d
00000040: 84b8 443c a684 cb3c b7c8 cd3c a81f bebd
00000050: c9c1 2c3e e6ea 1cbd b028 383d 138f c23d
00000060: 7542 8f3d ce6c 22be fc90 6abd d440 2abe
00000070: 474e 39bd a356 bebd d144 0d3e 5248 833d
00000080: 509e f13d 07bf d93c 4bbf 3abe 4821 8e3d
00000090: de6a d8bd 3a31 243e d932 f23d 1450 1bbd
000000a0: ddec d5bd 9522 a03d 9972 f3bd f9a1 1d3e
000000b0: 0ab9 fbbd b911 ffbd 6759 b1bd 8436 e2bd
000000c0: 3006 873d ac7e 843c 2d07 7fbc 5846 ecbd
000000d0: b69a ce3d 26d8 95bd 963f c3bc 2af5 c0bc
000000e0: 9f56 bbbc 234b f13d 1a4c bcbb 4232 bdbd
000000f0: 6211 02be 0451 6c3d 7e70 1abc d7e8 b63d
00000100: c201 1a3e 8687 3f3d 015b 03be 791b 10be
00000110: 8b5c 173e 553a 953d 33ac ee3d 1e2b 1ebe
00000120: 03d7 82bc 82bc 4d3d 443e 05be 0c26 7739
00000130: d99f 6fbd 7e86 a4bc 67f6 c8bd 75b5 063e
00000140: 70a2 9abd d3f6 08be 04ef 073e 7fa5 1ebe
00000150: 0849 9ebb 4206 2e3e 013b 8c3d e6a8 283d
00000160: 9c3b 0e3e 9f35 8a3d 4033 19be f1bf 23be
00000170: 644e 043d 48bf dbbd 2b6b 5bbd f249 ac3c
00000180: fbfc cdbd e832 d9bd 88b4 ee3d b24c 6cbd
00000190: 669a 29be c0a6 9c3d 41f5 abbd 5dbd 2cbe
000001a0: 7c6b a1bd 4f64 073e 1b94 5e3c f699 ec3c
000001b0: 0097 a63c 3ec2 00be fc53 1e3e 2439 df3d
000001c0: 9056 38bd 9e4e 41be 52b7 b33d 0195 9cbd
000001d0: 4035 bf3d fd0f dabd 913e 323d 13e8 a5bd
000001e0: 90be 0d3e 11aa d13c 31a6 383d a6e6 0ebe
000001f0: 16e3 073e 0aba 1ebd 9aed 19be 4bed 083e

model.encoder.layers.0.linear2.weight f4 [32, 128]
0.060805175 0.03189405 0.026055915 -0.05071778 -0.017759861 0.052527566 -0.06198991 -0.13843235
0.07438778 0.049779452 0.16966444 0.04992573 0.09393852 -0.016943028 -0.054362133 0.045743324
0.17607504 0.03291276 0.06490751 -0.054839205 0.056301918 -0.025674185 0.09273329 -0.04097714
-0.020801337 0.031307463 0.056857523 0.16320506 0.07120793 0.016591327 0.04758803 0.005602186
0.1808921 -0.024082122 0.012361104 0.015870936 -0.07826215 -0.07408932 -0.115668684 -0.0015022962
0.037001684 0.058794066 -0.09214417 -0.086943455 0.03307193 0.052550778 0.0723833 -0.08063658
-0.025563633 0.13997565 -0.028282875 0.004693299 -0.11340942 0.031114234 0.026069926 -0.00175107
-0.061287142 -0.06027663 -0.07904143 -0.05824789 -0.012673807 0.014293761 -0.036869343 -0.09011539
-0.022187319 0.04481213 -0.057845294 -0.055786967 -0.009063977 -0.0003663455 -0.06312124 0.054258794
0.0028905396 -0.06646484 0.20201907 -0.076497905 0.014236933 0.05342618 0.023707133 0.02358752
-0.031109363 0.0061274245 0.0140482765 0.035081074 -0.07831776 0.09129397 0.080285735 -0.05065809
-0.034801282 -0.039884944 -0.0711964 -0.07704953 -0.037404373 0.04762613 0.041254506 0.09150136
0.085991964 -0.117118604 0.037064902 -0.08137049 0.09853967 -0.016015027 0.034580167 -0.0065264213
-0.04394185 0.059674162 0.08384505 0.041978974 -0.007589173 0.07181191 -0.01624423 -0.025485462
-0.021673739 -0.06083117 0.05710149 0.039203618 -0.08220467 0.016595492 -0.009501473 -0.06239872
0.1540562 0.025688464 0.033260122 0.07197806 0.048436496 -0.014261781 0.03558526 0.024564348
0.014686711 0.097963914 -0.04281394 0.01603847 -0.03278983 -0.054950606 0.088690594 -0.0144364
-0.042717554 -0.008560952 -0.04100808 0.0833668 0.079224065 0.066254154 -0.055494912 0.0508512
0.10265985 0.001548815 0.0040052114 0.08101799 0.08087054 0.051264275 -0.05693973 0.0284551
0.07818828 -0.07268221 0.079324976 0.13942939 0.00030566216 -0.0075033056 -0.0856529 0.012135477
0.06547231 -0.036940325 -0.018550614 -0.007433383 -0.06346994 0.06637862 0.01518939 0.021542374
0.037511643 -0.0068538976 -0.057380397 -0.06975479 0.06978751 0.04881948 -0.087604925 0.111083195
0.027878538 -0.0056219576 -0.01955112 -0.008653709 0.015226636 0.076482214 -0.02493984 0.051664904
0.08378067 0.0724808 0.026380533 -0.11333356 0.054270525 -0.0356705 0.058218114 0.07237792
-0.052424487 0.055893466 0.039199032 0.019505402 0.09187302 -0.09220754 -0.001696269 -0.028681641
0.105279736 0.04202353 -0.048883043 -0.06564696 0.05201075 -0.071612276 0.008047515 0.07972384
-0.05437895 -0.010929375 0.0088948 -0.0037726443 0.042104427 -0.03630193 -0.026017234 -0.04961042
0.03686472 -0.027899226 0.020061096 0.05946609 -0.03565589 0.012084774 0.019096745 0.02147304
0.054297477 -0.008450994 0.17734082 0.0046721855 -0.0925901 0.051902622 0.02693007 0.031563934
-0.048944402 0.0038327272 -0.0028110368 -0.02178495 0.06063993 0.07511409 0.056595452 0.07604149
-0.055442173 -0.0802698 0.026148466 -0.02630625 0.12308548 -0.042962734 0.06550274 0.022743553
0.08185793 0.016025526 0.031159054 -0.018532095 0.009851652 0.08195121 0.09241117 0.0076451637
00000000: d90e 793d 56a3 023d 3773 d53c 72bd 4fbd
00000010: 217d 91bc 2527 573d 22e9 7dbd 36c1 0dbe
00000020: 9f58 983d 8ae5 4b3d 84bc 2d3e ec7e 4c3d
00000030: d762 c03d 1bcc 8abc d4aa 5ebd 5a5d 3b3d
00000040: 044d 343e 88cf 063d 3bee 843d 139f 60bd
00000050: d79c 663d ab52 d2bc f3ea bd3d a5d7 27bd
00000060: 9167 aabc 413c 003d 6fe3 683d 3a1f 273e
00000070: 77d5 913d 89ea 873c abeb 423d 8b92 b73b
00000080: c73b 393e df47 c5bc 3a86 4a3c c403 823c
00000090: e847 a0bd 24bc 97bd b4e3 ecbd b2e8 c4ba
000000a0: 148f 173d 0cd2 703d 15b6 bcbd 690f b2bd
000000b0: 6f76 073d 7c3f 573d b23d 943d cb24 a5bd
000000c0: d36a d1bc c755 0f3e 7db1 e7bc 3fca 993b
000000d0: 3343 e8bd 47e3 fe3c 9990 d53c 2984 e5ba
000000e0: 3a08 7bbd a1e4 76bd 79e0 a1bd 5795 6ebd
000000f0: cda5 4fbc 6130 6a3c 4f04 17bd 6b8e b8bd
00000100: 2ec2 b5bc ed8c 373d 30ef 6cbd e080 64bd
00000110: 1381 14bc 1012 c0b9 b545 81bd 783e 5e3d
00000120: 356f 3d3b b81e 88bd 16de 4e3e efaa 9cbd
00000130: 0642 693c 69d5 5a3d 7635 c23c 9d3a c13c
00000140: 10d9 febc 90c8 c83b be2a 663c 2cb1 0f3d
00000150: 1065 a0bd 55f8 ba3d d96c a43d db7e 4fbd
00000160: ca8b 0ebd 655e 23bd 6bcf 91bd 25cc 9dbd
00000170: 5435 19bd 9e13 433d 7cfa 283d 1165 bb3d
00000180: 8e1c b03d e1db efbd 5ed1 173d 92a5 a6bd
00000190: 2bcf c93d f231 83bc efa3 0d3d 97db d5bb
000001a0: 5ffc 33bd e56c 743d f4b6 ab3d 25f2 2b3d
000001b0: 99ae f8bb 1f12 933d 9f12 85bc e3c6 d0bc
000001c0: 208d b1bc 1b2a 79bd 41e3 693d f993 203d
000001d0: ec5a a8bd 45f3 873c 11ac 1bbc cd95 7fbd
000001e0: e9c0 1d3e 9d70 d23c c43b 083d 3c69 933d
000001f0: 5965 463d 3faa 69bc d9c1 113d 2c3b c93c
00000200: 88a0 703c 4ea1 c83d ac5d 2fbd 1c63 833c
00000210: a14e 06bd e313 61bd 6aa3 b53d a686 6cbc
00000220: 9af8 2ebd 3c43 0cbc 17f8 27bd 36bc aa3d
00000230: 3a40 a23d 42b0 873d a24e 63bd 5949 503d
00000240: 543f d23d 9c01 cb3a 263e 833b c3ec a53d
00000250: 749f a53d 7dfa 513d a239 69bd ab1a e93c
00000260: 2d21 a03d 69da 94bd 2275 a23d 94c6 0e3e
00000270: 4841 a039 4ade f5bb ca6a afbd e1d3 463c
00000280: 5916 863d bd4e 17bd 75f7 97bc bc93 f3bb
00000290: 87fc 81bd 84f1 873d ebdc 783c a279 b03c
000002a0: cfa5 193d a996 e0bb b507 6bbd 99db 8ebd
000002b0: c1ec 8e3d eff6 473d 366a b3bd 967f e33d
000002c0: 8861 e43c 6638 b8bb ac29 a0bc 49c8 0dbc
000002d0: 2479 793c b5a2 9c3d a34e ccbc 949e 533d
000002e0: 3395 ab3d d070 943d fd1b d83c 6d1b e8bd
000002f0: c54a 5e3d 3b1b 12bd 1e76 6e3d e03a 943d
00000300: 0fbb 56bd 8cf0 643d 2a8f 203d cbc9 9f3c
00000310: ec27 bc3d 4fd7 bcbd 5855 deba c3f5 eabc
00000320: e79c d73d dd20 2c3d 9639 48bd ea71 86bd
00000330: 3909 553d 75a9 92bd b9d9 033c 4146 a33d
00000340: 76bc 5ebd 1f11 33bc 7fbb 113c 783e 77bb
00000350: b175 2c3d 55b1 14bd 1822 d5bc 4c34 4bbd
00000360: 76ff 163d eb8c e4bc 2b57 a43c b792 733d
00000370: e90b 12bd 37ff 453c c770 9c3c 3be8 af3c
00000380: 0867 5e3d 0a76 0abc d598 353e 2219 993b
00000390: e19f bdbd d897 543d 739c dc3c 2f49 013d
000003a0: ed79 48bd 7e2e 7b3b 5f39 38bb 5a76 b2bc
000003b0: 9361 783d 6bd5 993d a2d0 673d a4bb 9b3d
000003c0: 5517 63bd 7e64 a4bd 4f35 d63c 3480 d7bc
000003d0: 3d14 fc3d b1f9 2fbd 4d26 863d b050 ba3c
000003e0: 21a5 a73d f747 833c 4641 ff3c 9fd0 97bc
000003f0: d368 213c 09d6 a73d 1142 bd3d 4884 fa3b

model.encoder.layers.0.linear2.bias f4 [32]
0.055253178 -0.08316264 -0.078195505 0.07248484 -0.054956358 0.02979878 0.065147616 0.002408715
-0.058442816 -0.0067889984 0.045835286 0.0021250655 -0.021170063 0.034075294 0.077386096 0.06626817
0.04856216 0.030793728 0.023999259 0.060881898 -0.036227424 -0.018352345 0.026043462 -0.08314832
-0.035787553 0.05532531 -0.020207094 0.03061024 0.076018445 0.0023250235 0.03362733 0.032370854
00000000: 2851 623d 2d51 aabd f724 a0bd ef72 943d
00000010: eb19 61bd 921c f43c 1d6c 853d 88db 1d3b
00000020: bc61 6fbd 3f76 debb c8bd 3b3d af44 0b3b
00000030: d76c adbc 8992 0b3d 9a7c 9e3d 9bb7 873d
00000040: 1ee9 463d 2143 fc3c 189a c43c 4c5f 793d
00000050: 3563 14bd a857 96bc 1959 d53c ab49 aabd
00000060: f895 12bd cb9c 623d 5989 a5bc 53c2 fa3c
00000070: 8faf 9b3d 6c5f 183b d0bc 093d 4d97 043d

model.encoder.layers.0.norm1.weight f4 [32]
0.9997225 0.99068785 0.9917113 1.0117439 1.0024706 1.0224642 1.0196793 1.0475571
1.0222284 1.0055741 0.9934135 0.99054426 0.9793804 1.0202948 0.9945495 1.0116789
0.94342035 0.97982526 0.9674361 1.0081698 0.9814273 1.0658523 1.0101053 0.99108446
1.0081421 0.9577795 1.0101727 0.98279274 1.0005078 1.0002495 1.0045176 0.9816184
00000000: d0ed 7f3f b89d 7d3f cbe0 7d3f d380 813f
00000010: f550 803f 1be0 823f da84 823f 5a16 863f
00000020: 61d8 823f a7b6 803f 5950 7e3f 4f94 7d3f
00000030: adb8 7a3f 0599 823f cc9a 7e3f b27e 813f
00000040: ff83 713f d4d5 7a3f e4a9 773f b50b 813f
00000050: d23e 7b3f d96d 883f 214b 813f b6b7 7d3f
00000060: cd0a 813f 0a31 753f 574d 813f 4e98 7b3f
00000070: a410 803f 2d08 803f 0894 803f 584b 7b3f

model.encoder.layers.0.norm1.bias f4 [32]
0.0017694692 0.010054326 -0.0062897336 0.0042507914 -0.005458508 0.036722057 0.029577632 0.0008714733
-0.01970377 0.03846239 -0.0007154184 0.030073902 0.003430543 0.0006251867 0.008514073 0.018745892
0.008016496 0.011467791 0.01233277 -0.008011252 0.006006868 0.052613523 -0.021271765 -0.019558541
-0.041798778 -0.038904358 -0.0037634256 -0.037985764 -0.022001939 -0.017750176 -0.031721193 -0.020560637
00000000: 89ed e73a e6ba 243c 1c1a cebb 394a 8b3b
00000010: 49dd b2bb de69 163d ca4c f23c 9573 643a
00000020: cd69 a1bc bd8a 1d3d eb8a 3bba 8b5d f63c
00000030: f6d2 603b 92e3 233a 9c7e 0b3c fc90 993c
00000040: 9f57 033c 67e3 3b3c 630f 4a3c a041 03bc
00000050: 43d5 c43b 4781 573d 2042 aebc 3c39 a0bc
00000060: 3235 2bbd 2d5a 1fbd cea3 76bb f696 1bbd
00000070: 693d b4bc d168 91bc 15ee 01bd c86e a8bc

model.encoder.layers.0.norm2.weight f4 [32]
1.0201639 1.0072004 0.978347 1.001962 0.9867424 0.995982 1.003776 1.0029366
1.0219499 1.0252382 0.95818394 1.0093677 0.97201264 1.0017987 0.97786987 0.9909033
0.9575181 0.9818316 0.9401074 0.9951659 0.979566 1.0865724 1.0076344 0.9825163
1.0130563 0.9603646 1.0045604 0.98733795 0.9738671 0.990006 1.0064996 0.9755286
00000000: bb94 823f f1eb 803f f374 7a3f 4a40 803f
00000010: 269b 7c3f adf8 7e3f bb7b 803f 3a60 803f
00000020: 41cf 823f 013b 833f 8b4b 753f f632 813f
00000030: d2d5 783f f13a 803f ae55 7a3f d7ab 7d3f
00000040: e81f 753f 5159 7b3f e1aa 703f 31c3 7e3f
00000050: d6c4 7a3f ce14 8b3f 2afa 803f 3086 7b3f
00000060: d4ab 813f 74da 753f 6f95 803f 2ec2 7c3f
00000070: 5b4f 793f 0971 7d3f fbd4 803f 3ebc 793f

model.encoder.layers.0.norm2.bias f4 [32]
-0.0095658405 -0.0013009404 -0.0038766663 -0.0022311225 0.0001692714 0.015446468 0.019773234 0.00048158312
-0.019232461 0.02209524 -0.0060309097 0.017246993 0.0014027035 0.012397988 0.010481152 0.011991498
0.0043155896 0.007876069 0.0064795204 -0.0063329223 -0.0037740984 0.071099654 -0.012235329 -0.020897051
-0.027287176 -0.020755284 -0.0070418804 -0.02210912 -0.0115773 -0.018180622 -0.023536976 -0.017498448
00000000: 0bba 1cbc 5184 aaba ab0f 7ebb 0638 12bb
00000010: 727e 3139 2f13 7d3c 7afb a13c fe7c fc39
00000020: 658d 9dbc 1401 b53c f09e c5bb 9149 8d3c
00000030: ebda b73a ee20 4b3c 23b9 2b3c fd77 443c
00000040: ca69 8d3b a10a 013c 2852 d43b 6784 cfbb
00000050: dd56 77bb b29c 913d b076 48bc 4b30 abbc
00000060: 5b89 dfbc fc06 aabc 93bf e6bb 2f1e b5bc
00000070: b7ae 3dbc 87ef 94bc 9ed0 c0bc e858 8fbc
